神经网络作业/A7/models/name_generation_rnn2_TR_doublenamekongge.pth (torch, 124052 bytes, 6 tensors)

rnn.weight_ih_l0 f4 [128, 54]
000000 28 e1 90 3e c5 c5 ff 3e ef 8b 4e be b2 bf 1f 3e
       0.2829678 0.49955574 -0.20170568 0.1560047
000010 8c 51 4f be 1a 6f c1 be c4 1f 98 3e ca 27 37 bf
       -0.20245951 -0.37780076 0.29711735 -0.7154509
000020 75 1a dd 3d 43 d2 74 3e 15 f2 a2 be 2d cd b6 be
       0.10796062 0.23908333 -0.3182532 -0.35703412
000030 1c 4a 75 bf ce 0b e1 3e 4f e2 30 3f 9b 5a 81 3f
       -0.95816207 0.4395432 0.6909532 1.0105776
000040 a3 55 ee 3a d0 a5 73 bd b4 2f e9 be ca f2 7f bd
       0.0018183481 -0.059484303 -0.45544207 -0.0624874
000050 54 b6 a8 3e 27 2b 24 bf 80 79 d3 3e 7f 58 52 bd
       0.32951605 -0.64128345 0.41303635 -0.051353928
000060 0d 3b bb bf a5 29 d4 bd 52 5f 01 3d 66 cb 12 3d
       -1.4627396 -0.103595056 0.031585045 0.035838507
000070 31 ac 85 3d 44 23 8a 3c d1 34 8b 3d ab 28 2f bd
       0.065269835 0.01686252 0.06797183 -0.042763393
000080 22 3b 47 3d d2 62 8e bd b3 78 49 bd 21 a4 9a bd
       0.048640378 -0.06952442 -0.049187373 -0.07550836
000090 2f 74 a8 3d 1d 6e 1d bd 78 87 95 3c f1 94 23 bd
       0.08225285 -0.03843509 0.018253073 -0.039936963
0000a0 00 e1 86 bc c0 03 5f bb 13 08 7f bd d1 b8 95 3d
       -0.01646471 -0.0034029335 -0.06226356 0.073106416
0000b0 f9 d1 aa bd e8 60 30 3c 26 39 8f bd ca 27 a1 bd
       -0.0834083 0.010765292 -0.06993322 -0.07868917
0000c0 cb ef a3 3d 09 29 9a 3d d2 19 4c 3d b6 d1 8f bd
       0.08004721 0.07527358 0.04982931 -0.07022421
0000d0 92 38 3e 3d be aa 40 40 ac 03 52 3f c6 4f 86 bf
       0.04644067 3.0104213 0.8203685 -1.0493095
0000e0 60 a8 ee 3e 96 d9 a4 bf b8 8b f2 3e 80 f3 08 bf
       0.46612835 -1.2878902 0.47372222 -0.5349655
0000f0 fb 95 76 3f 83 d7 b2 be 9e ad e5 be ee b3 64 be
       0.963226 -0.34930047 -0.44859022 -0.22334263
000100 65 26 b5 3e c0 4d 8a 3f 2a e0 64 bf dc 26 d4 be
       0.35380855 1.0804977 -0.8940455 -0.41435897
000110 5f d0 5c bf bc 96 60 bf a6 e9 09 bf 1e 91 8f bf
       -0.8625545 -0.8773 -0.53872144 -1.1216161
000120 b8 4a df 3e 15 b4 0a bf a9 c1 0b c0 31 1a 31 be
       0.43611693 -0.54181033 -2.183695 -0.17295147
000130 3e 27 ac be 28 c5 d8 3d 19 51 e4 3e 3b 22 07 3f
       -0.3362369 0.105844796 0.44593123 0.52786607
000140 b8 9b 53 3c 50 14 c4 3c 90 8d 86 bd 00 73 81 bd
       0.012915544 0.023935467 -0.0656997 -0.06320763
000150 b0 b1 c0 bb ab f1 a2 3d d5 88 a5 3d 93 44 84 bd
       -0.005880557 0.07956251 0.08082739 -0.06458392
000160 22 72 2e bd 70 53 6e bc 30 78 6d bc 02 95 6c 3d
       -0.042589314 -0.01454626 -0.014493987 0.057759292
000170 ba cc 4b 3d 16 05 52 bd ac 92 19 bd 57 01 86 bd
       0.04975579 -0.05127438 -0.037493393 -0.06543224
000180 7c 99 bf 3c dd 51 8d bd d2 b2 05 3d 26 56 6d 3d
       0.023388617 -0.0690038 0.03264124 0.057943486
000190 54 57 17 bd 71 b4 16 bd 90 35 82 bc f9 51 45 bd
       -0.036948517 -0.036793176 -0.015894681 -0.04817388
0001a0 28 b2 a3 bd 44 14 4e bd 98 e5 55 3f cc c7 ee 3f
       -0.07992965 -0.050312296 0.8355346 1.8654723
0001b0 dd ff 35 3e 5c 9c 77 3e de 52 16 bf 5c 88 0d 3e
       0.17773385 0.2418074 -0.58720195 0.13821548
0001c0 3d f6 6a bf 35 bd ea 3d 07 ca 47 bf 45 af 96 3e
       -0.9178198 0.114618696 -0.78042644 0.29430595
0001d0 d0 32 67 3e b7 5e a1 be 8b 8e 20 bf 4b 71 13 3f
       0.22577977 -0.31517574 -0.62717503 0.57594746
0001e0 aa 23 b9 3e 6d 14 24 40 98 f3 45 3f f0 72 82 3e
       0.36160022 2.5637467 0.7732482 0.25478315
0001f0 4a d8 20 3d 42 aa 8b 3d 71 26 90 3f 07 ae 94 bf
       0.03926877 0.068195835 1.1261731 -1.1615609
000200 f2 7e a3 3f 07 ff af bf 55 bc 50 bd 30 1c 19 3f
       1.2773116 -1.3749703 -0.050960857 0.59808636
000210 de cf 58 3f b5 8f 96 3e d8 77 84 3c fe 0b 5a 3d
       0.8469218 0.29406515 0.016170427 0.053234093
000220 f6 05 5b 3d 3f aa 0b bd f8 73 a8 bd 8c 7d c7 bc
       0.05347248 -0.034097906 -0.08225244 -0.024351858
000230 6a 80 2a 3d b8 a9 49 3c 60 ae 8e bc 60 97 89 3b
       0.04162637 0.0123085305 -0.017417133 0.0041989535
000240 6e 2a 18 3d 5e 18 87 bd e5 8e 84 3d f0 2e 83 3c
       0.03714984 -0.065964445 0.064725675 0.016013592
000250 2a 37 6a 3d fe 56 01 3d 0e 0a ac bd 90 2f ff bb
       0.057181515 0.031577103 -0.08400355 -0.0077876523
000260 aa 3b 08 bd 2c 9c 8a bc d6 de 43 3d e8 80 3d 3c
       -0.033260025 -0.016920172 0.047819935 0.011566378
000270 e0 24 c7 3b 19 35 b3 3d 88 59 bb 3c a3 40 1b bd
       0.006077394 0.08750362 0.02286984 -0.03790344
000280 1d 56 18 3e c5 70 0a 3f 80 26 86 3f f3 c8 2b 3f
       0.148766 0.5407832 1.0480499 0.671035
000290 10 0a a0 3f 2b 09 54 3e b3 f4 f5 3e 9c 77 40 3e
       1.2503071 0.20706622 0.48038253 0.18795627
0002a0 29 97 db be 28 25 58 be 51 8d a9 be e0 69 91 bd
       -0.42888764 -0.21107924 -0.33115628 -0.07100272
0002b0 58 28 ce be b3 51 3f 3e 91 a9 5a be 58 9e 28 3e
       -0.40265155 0.1868351 -0.21353747 0.16466653
0002c0 3b 80 7d bf 87 cf a4 3f 21 b4 9e be 08 a4 9f be
       -0.9902379 1.2875832 -0.30996802 -0.31179833
0002d0 e9 33 b2 3f ea 75 25 3e 94 b4 ae bf 67 11 75 3f
       1.3922092 0.16158262 -1.3648858 0.9572968
0002e0 d8 d8 7f 3d 56 71 02 bf b1 80 c8 bc ea 1e 6e bf
       0.062462658 -0.50954187 -0.024475427 -0.9301592
0002f0 62 a6 27 3d 8f 15 69 bd 82 23 99 bd 10 e2 4d 3c
       0.04093016 -0.056905326 -0.07477476 0.0125661045
000300 dd 84 89 3d 30 63 1f bd 7d 47 2c bd 3a 84 30 3d
       0.06714795 -0.038912952 -0.042060364 0.04309485
000310 08 cb 8c bd 00 7a 84 ba b8 a5 4a 3c 72 6b 2a 3d
       -0.06874663 -0.001010716 0.012368612 0.041606374
000320 b0 9f e9 bc 34 4d 16 bd 72 2e 12 bd 45 97 b2 bd
       -0.028518528 -0.03669472 -0.035688825 -0.087202586
000330 36 f5 fd bc 02 06 07 bd 60 4e a8 bb ef 88 53 bd
       -0.031000715 -0.032964714 -0.005136296 -0.051644262
000340 92 59 13 bd 9a 49 46 3d 80 73 81 bd 42 63 a0 bd
       -0.035974093 0.048410036 -0.06320858 -0.07831432
000350 a2 8a 31 3d 30 01 f8 3c 18 96 3b 3f 55 d0 02 40
       0.0433451 0.030274004 0.732759 2.0439656
000360 39 53 81 3e be 9f 38 3f ae 6a 3a 3e 68 62 01 3f
       0.25258806 0.7211875 0.18204758 0.5054078
000370 47 4f 7c 3d 3a 7c f3 3d 79 20 aa bf 33 28 1d bf
       0.061599042 0.11888929 -1.329116 -0.61389464
000380 82 85 c9 3e 57 81 de bd 4e c0 85 bf 94 3a fd be
       0.3935967 -0.10864513 -1.0449312 -0.49458754
000390 f1 38 3a be e9 99 f5 bc bf bd 6e 3f 3d d4 da 3e
       -0.18185784 -0.029980617 0.9325828 0.4274005
0003a0 1b c4 32 bf 60 33 df be 9c dd 0d c0 70 77 80 be
       -0.69830483 -0.43593884 -2.216651 -0.25091124
0003b0 72 8f ca 3f 9c 5c 3e be be 60 34 3f f5 0b 0d 3c
       1.5825026 -0.18590015 0.70460117 0.008608808
0003c0 69 a0 be be 3f 69 8e bc 00 c0 b0 3c 00 37 a8 3b
       -0.37231758 -0.01738417 0.021575928 0.0051335096
0003d0 50 a4 c9 3b eb 57 a1 3d ce 4d 37 bd 56 2e 5d bd
       0.006153621 0.07878097 -0.044751935 -0.053999268
0003e0 5a b6 3a bd b0 10 c9 3b c1 40 85 bd ce d0 01 3d
       -0.04558406 0.0061360225 -0.065064915 0.031693272
0003f0 3e 91 19 3d 1a 2e 75 bd f5 e0 81 3d 7c a7 80 3c
       0.03749203 -0.05985842 0.06341735 0.015704863

rnn.weight_hh_l0 f4 [128, 128]
000000 ae ba bc be 97 04 7c 3e 69 a3 02 3e c6 01 1e bb
       -0.36861175 0.24611126 0.12757649 -0.0024109944
000010 1b 3b 0f 3e cb a2 94 3c bc 9d a5 3d a7 fd 92 bc
       0.1398739 0.018144032 0.08086726 -0.017943216
000020 d6 58 07 be 95 f3 97 bd 0e 26 ae 3d af ff ed bd
       -0.13217482 -0.074195065 0.08503352 -0.116210334
000030 40 c1 9b bb 3e 3f 41 3d 70 9a 9c bd 23 48 d8 bd
       -0.004753262 0.047179453 -0.07646644 -0.10560634
000040 77 a8 84 bd f5 ed c8 3d 5f 42 62 bc 2f e0 3f bd
       -0.064774446 0.09811012 -0.013809769 -0.046844658
000050 3a 07 21 bd 04 f1 d1 bd 5b 30 a8 3d c0 a3 73 be
       -0.039313532 -0.10251048 0.08212348 -0.23792934
000060 c2 e1 51 3e 67 d1 0d 3e 43 18 62 3e 87 60 16 be
       0.20496276 0.13849412 0.22079568 -0.1468526
000070 db 7c a1 bc ba 39 84 be ed b5 98 3d 21 cc 2d 3d
       -0.019712856 -0.25825292 0.074565746 0.042431
000080 c7 07 3b be 43 21 62 3e 71 10 89 3d cd fe 31 3c
       -0.18264686 0.22083001 0.06692589 0.010863972
000090 1d 72 42 bd e3 84 7b 3e d2 ca 9a bd ed a3 32 3d
       -0.04747211 0.24562411 -0.07558216 0.043613363
0000a0 1f b4 03 be 77 b7 1d bd 02 ec ed 3d dd d5 bb bd
       -0.1286168 -0.038505044 0.116172805 -0.091716506
0000b0 50 a9 47 3e 6d 72 4c be 6c 68 b8 3c af 41 3d bd
       0.19498181 -0.19965525 0.02251073 -0.04620522
0000c0 08 e0 e3 3a f3 a9 cf 3d 5a 36 92 3d da ec 70 be
       0.0017385492 0.10139837 0.07139273 -0.23527852
0000d0 b9 9a 87 3e e2 a3 e3 bd 11 8d e6 bd 22 c6 9a bd
       0.26485232 -0.111152425 -0.11257375 -0.07557322
0000e0 4c 50 77 3d bf 13 70 be 25 a9 ed 3c 3a e5 32 bd
       0.06037931 -0.23445033 0.029011318 -0.04367564
0000f0 6d 5d f6 bc 68 74 13 be 73 cc b6 bd 74 52 84 bd
       -0.030073846 -0.14399874 -0.08925714 -0.06461039
000100 0b ec de 3c 4f 8b 13 be 9f 60 70 3c b1 40 97 3c
       0.027212163 -0.14408611 0.014671474 0.018463464
000110 05 39 33 be 1e 6f 56 be 54 8f 18 3e 93 c0 c0 bc
       -0.1750222 -0.20940825 0.14898425 -0.023529327
000120 37 0b 59 3e 9a 03 e2 3d ea bb a9 bc 5e 37 61 3d
       0.21195684 0.11035843 -0.020719487 0.054984443
000130 74 12 7c 3d 4b aa 43 3e 2c 69 14 bd b8 84 f4 3c
       0.061541036 0.1910793 -0.036233112 0.029848441
000140 bc d1 0c bd de ce 3d bd ef 25 19 be fb 7d 02 be
       -0.034379706 -0.046339862 -0.14955877 -0.1274337
000150 d2 66 89 3e 91 f6 97 3d 00 1f 14 3c 0b 3f 4c 3e
       0.26836258 0.07420076 0.009040594 0.19945924
000160 d4 0f 2e be 8c 35 c0 3d b0 15 c9 3d 3e be 0a 3e
       -0.16998225 0.09385213 0.0981859 0.13549134
000170 32 18 45 3b 65 49 62 3d 88 02 89 3d 46 66 c8 3d
       0.0030074236 0.055245776 0.06689936 0.09785132
000180 55 58 9d bd 52 49 f3 3d cb 9a 82 bc 95 89 35 3d
       -0.076828636 0.11879219 -0.015942952 0.04432066
000190 0f 9f 7e bd 4a ce 1c be 79 d0 ac 3c cd f1 b0 3e
       -0.06216341 -0.15313068 0.021095501 0.3455948
0001a0 d4 71 1f 3e c6 77 90 3d 42 8a 37 be 38 e0 82 bd
       0.15570766 0.07054095 -0.17923835 -0.063904226
0001b0 7b 3a 66 be b4 a7 4c 3e be 60 95 bb 61 b6 a5 bd
       -0.22483246 0.19985849 -0.0045586517 -0.08091427
0001c0 64 32 16 be 28 42 10 3e ad 21 7b bd 1c 31 83 3e
       -0.1466766 0.14087737 -0.061311413 0.25623405
0001d0 d5 99 4e bb c1 64 1d 3e cd 0a 1a 3e b9 b6 53 be
       -0.0031524797 0.15370466 0.15043183 -0.20675172
0001e0 cd d9 84 bc a7 97 b8 bd a6 03 1b 3e c5 f1 87 3d
       -0.016217137 -0.090133004 0.1513811 0.06637911
0001f0 5f 6c b8 3d c8 73 14 be d5 22 7b 3d 38 8e 6c 3d
       0.09005045 -0.14497292 0.061312515 0.057752818
000200 45 4e fd 3d 86 78 3f be 90 1a 6e 3d d4 29 d4 3d
       0.12368444 -0.1869832 0.0581308 0.103595406
000210 8d de 11 3d 29 5a 9b 3d 62 2a 09 bc 49 a0 a7 3e
       0.03561263 0.07585556 -0.008371921 0.32739475
000220 6a fc cb bd 54 41 20 bc 1d 99 1c 3e 31 63 95 be
       -0.099602535 -0.0097812 0.15292783 -0.2917724
000230 d7 8a a8 bd 44 4a 05 be 6b 52 88 be 60 0e 29 3d
       -0.082296066 -0.13016611 -0.2662538 0.041273475
000240 97 87 29 bf ee 6e 9d bd 5b 81 76 3e a2 4e 59 be
       -0.6622252 -0.07687174 0.24072783 -0.21221402
000250 eb 6f 0a be a8 87 56 3d bb 75 5d be 0d ad 19 bd
       -0.13519256 0.052375466 -0.21626942 -0.03751855
000260 77 65 38 3d f5 99 b1 3e 8e 68 6c 3e 28 d1 0e 3e
       0.04501864 0.34687772 0.2308676 0.13946974
000270 a4 6a 52 3e a7 89 dc 3c aa b9 ea be 7c d5 26 be
       0.20548493 0.026921107 -0.45844775 -0.16292375
000280 1d f6 fd be 04 9d ff 3c d4 6f a6 3e 7f b7 95 be
       -0.49601832 0.0312028 0.32507193 -0.2924156
000290 71 4a 8d 3e 44 df bb be 1c d5 1c 3f cb ea bc 3d
       0.27595857 -0.36693776 0.6126268 0.09224471
0002a0 9c e3 de bd fc c0 42 be 94 99 a0 3e 03 cc 90 bd
       -0.10883257 -0.1901893 0.3136717 -0.07070162
0002b0 7d 68 18 be ad 76 12 3d 28 16 da bd bd dd 0d 3d
       -0.14883609 0.03575771 -0.10648757 0.034635294
0002c0 9f 38 38 3d 27 99 c1 3d 50 c4 4f 3d 55 1e ad 3e
       0.044975873 0.094530396 0.050724328 0.33812204
0002d0 21 b7 8f bd a1 aa 9c be 46 e9 71 3e 90 4d 55 be
       -0.07017351 -0.3059893 0.23624143 -0.20830369
0002e0 8c fe a1 3e 93 d4 80 bd 4c 98 bc 3d 79 90 30 3d
       0.31639516 -0.06290545 0.09208736 0.04310653
0002f0 fe 69 7e bd 3a a4 7c be 03 00 e0 be 85 1c 49 be
       -0.0621128 -0.24672022 -0.4375001 -0.19639786
000300 23 39 90 3d b2 67 95 3d 20 50 64 bc ed 5f 99 3e
       0.07042148 0.07295169 -0.013935119 0.29955998
000310 0b c6 37 be 8a d1 f8 3c a6 f4 cb 3d f8 df 97 be
       -0.17946641 0.030373354 0.09958772 -0.29663062
000320 32 cb 26 bd cd 58 ac 3d 90 75 53 bc eb 76 24 be
       -0.040721126 0.08415375 -0.012906447 -0.16060989
000330 b0 0b d6 bd 54 a2 d0 3c e2 e7 14 bd 63 74 00 3c
       -0.10451448 0.02546803 -0.036353953 0.007840249
000340 ba 44 7c bd ef fd 0b 3e 20 3c 93 be c0 4b 26 3d
       -0.06158898 0.13671087 -0.2875681 0.040599585
000350 92 8a ac 3d 02 ab 07 bd 29 2b 4c 3e e8 d6 41 3e
       0.08424868 -0.03312207 0.1993834 0.18929636
000360 21 2c 91 3c 63 e9 95 be cc b6 06 3d 9b c1 bb bd
       0.017721238 -0.29279622 0.032889172 -0.09167787
000370 c1 70 d3 3d 1a 9b 8c be 02 10 65 be 31 d2 24 3e
       0.103242405 -0.27462083 -0.22369388 0.16095807
000380 0e 9b a3 3d 08 1d 69 bb 70 ff 54 bd 13 56 9b be
       0.07988559 -0.0035570282 -0.052001417 -0.30339107
000390 8e 59 12 bd 0c da be 3c f4 82 45 3e 03 47 22 3e
       -0.035729937 0.023297332 0.19288236 0.15847401
0003a0 db b8 46 3e df 86 80 be a6 47 1a be d8 c0 05 3d
       0.19406454 -0.25102898 -0.15066394 0.032654613
0003b0 3b b7 65 be fc d7 1d be ca 30 27 3e 40 6a 00 bd
       -0.22433178 -0.15414423 0.16327205 -0.031351328
0003c0 fa e1 1d be 68 69 29 be 80 91 7b 3d bc 79 23 3e
       -0.15418234 -0.16544116 0.061418056 0.15964407
0003d0 0b 91 ca be 22 a4 51 be 2d b3 fe 3d 5c 0b 7d bd
       -0.39563784 -0.20472768 0.12436519 -0.06177841
0003e0 2b 88 21 bd 13 a4 7e 3e b2 39 bb bd 7f 3b 10 be
       -0.0394365 0.24867277 -0.09141864 -0.14085196
0003f0 32 9b 93 be 38 64 99 3e 54 8c ef 3c 26 44 dd bd
       -0.28829342 0.29959273 0.029241718 -0.10804014

rnn.bias_ih_l0 f4 [128]
000000 20 84 67 be ac dd f6 be 6a fb 8f 3c ea 44 95 3e
       -0.22608995 -0.48215997 0.017575938 0.2915414
000010 d4 d7 c5 bc 09 36 c2 3d ce 1e 9d 3c 55 2a 9f bc
       -0.024150766 0.09482963 0.019179728 -0.019429365
000020 eb 7f 04 bd 6b cf 3f 3d 7c 1b 1c bd 6b 8c 6a bc
       -0.032348555 0.04682867 -0.03811215 -0.014315705
000030 71 82 ba be 8f d2 99 be ef fe e1 bb e3 79 95 be
       -0.36427644 -0.30043456 -0.0068968455 -0.29194555
000040 86 92 67 3e ce 89 8f bd ae e7 78 3e 1e 22 d9 bd
       0.22614488 -0.07008706 0.24307129 -0.106022105
000050 33 45 80 3d c9 3a a2 bd 1b c6 ea 3d 1b 32 69 3d
       0.06263199 -0.07921369 0.11463567 0.05693255
000060 5a 2f 03 be bc 4b 9a 3e 59 b2 38 be b3 a1 5e be
       -0.12811032 0.30135906 -0.18036784 -0.21741371
000070 0d ab e5 3d 59 20 b1 bc 50 54 d7 3d a8 7d 0b bc
       0.11214266 -0.02162187 0.10514128 -0.0085138455
000080 7d 9e 82 3d 55 64 cd 3d 28 84 92 3d bd 5d 56 bd
       0.063778855 0.100289024 0.07154113 -0.05233549
000090 6a b8 06 be 9e 8f 2f be 1a 65 4d 3e 9e ee 0b 3d
       -0.13156286 -0.1714463 0.20058098 0.03416311
0000a0 bd 3c fb bd c7 f3 08 bd 90 72 15 bb 3a c7 d5 bd
       -0.12267444 -0.03343561 -0.002280388 -0.1043839
0000b0 79 89 72 3c 77 e7 8b bd 2e 1d 70 be a1 32 53 be
       0.014803284 -0.06831258 -0.23448631 -0.20624782
0000c0 a3 0d 81 bd f5 db a4 bd f0 7b 4c 3d e6 6e 2b bd
       -0.06301429 -0.08049766 0.049922884 -0.041853808
0000d0 27 fa a9 be ec d6 06 bb cc d5 50 3e 46 32 cd bc
       -0.33198664 -0.002057488 0.20394057 -0.025048386
0000e0 0b 1f 84 be 15 67 67 be 00 a7 c6 3c c3 12 f0 3d
       -0.25804934 -0.22597916 0.024249554 0.117223285
0000f0 f1 61 98 bd dc 4e 21 bd 82 33 25 bd 69 a9 4e bd
       -0.07440556 -0.039381847 -0.040332325 -0.05045453
000100 e6 f0 33 be 06 2a ac bd 6b aa a5 bd 41 7e c8 3c
       -0.17572364 -0.08406453 -0.08089145 0.024474265
000110 e5 4a 0c bc 63 ab b6 bc c1 61 15 3d 01 a4 0f be
       -0.008562778 -0.02229852 0.03647018 -0.14027406
000120 95 39 3f be 0b cc dd bd 51 10 95 bb b6 2c ec bc
       -0.1867431 -0.10829934 -0.004549064 -0.028829914
000130 35 ad 55 bd 10 05 5d bc 1e f3 01 3e d4 97 d6 be
       -0.052167136 -0.0134899765 0.12690398 -0.4191271
000140 22 5d 7d bd c0 10 dc 3d 27 bb ab 3e 32 ea ba 3d
       -0.061856396 0.10745382 0.33541223 0.091267005
000150 ba 95 14 3e 05 64 60 3c 3d 33 c4 3d f8 ea d6 bd
       0.14510241 0.0136957215 0.095800854 -0.104940355
000160 c3 8e b2 3d 87 75 e2 3b a3 33 f4 3d 29 dd a7 bd
       0.08718636 0.006910983 0.119239114 -0.0819648
000170 7f 5a ff 3d 59 4a 46 be 83 c0 37 3e 54 e7 80 3e
       0.12468433 -0.19364299 0.17944531 0.2517649
000180 a5 0e c2 bd cb 8a 3e 3e 9f 08 cd bd 1a ff 85 3c
       -0.094754495 0.18607633 -0.1001141 0.016356993
000190 b2 79 20 be 63 8e fd 3c dc 0a 08 3e c1 1b 2c bd
       -0.15671423 0.030951684 0.13285393 -0.042018656
0001a0 95 e7 da 3d 48 84 62 3c 85 f5 84 be 47 31 93 bb
       0.10688702 0.013825484 -0.25968567 -0.0044919583
0001b0 00 52 42 bd 01 16 ec bd bd 5b 73 3e a7 18 b9 be
       -0.047441483 -0.115276344 0.23765464 -0.3615162
0001c0 41 f2 44 3e 63 79 53 be 3f 8e 7e 3d d4 51 fe 3d
       0.19233038 -0.20651774 0.062147375 0.12417951
0001d0 45 8a d1 3a db fb 4d be b8 76 95 3d 5c 12 cb 3d
       0.0015986642 -0.20115606 0.072980344 0.09915611
0001e0 5c fa 64 3d fe a4 b1 3e 33 a5 47 bd 96 03 e1 bd
       0.055902824 0.34696192 -0.04874153 -0.10987012
0001f0 2c 4a ae bc f9 25 f7 bd e3 35 b0 3e d6 2c 69 3e
       -0.021275602 -0.120677896 0.34416112 0.2277101

rnn.bias_hh_l0 f4 [128]
000000 23 90 bc bd e3 90 d3 be 58 64 90 3d ae f4 87 3e
       -0.092071794 -0.41321477 0.07050389 0.26553863
000010 3f 78 60 bd 91 33 11 3e 86 d3 65 3d b4 06 70 3c
       -0.054802176 0.14179827 0.056109928 0.014650036
000020 7b df 9b bc b1 e9 29 bc 16 b0 ea 3c 8b c1 80 bd
       -0.019027462 -0.010370658 0.028648417 -0.062869154
000030 29 db b1 be 79 e5 83 be 80 ef 66 3c 86 5b 9a be
       -0.34737518 -0.2576101 0.014095187 -0.30147952
000040 ad 5d a9 3e 43 03 0c 3d f6 cd 48 3e 0f bb db bd
       0.3307928 0.034182798 0.19609818 -0.10729038
000050 2b 0c 79 3b 42 94 59 3d c9 f5 5f 3d 60 d3 dd 3d
       0.0038001637 0.053119905 0.05467776 0.10831332
000060 9b ff 5d be 24 e4 8e 3e 02 5a f5 bd 70 44 0c be
       -0.21679537 0.27908432 -0.11980058 -0.13697982
000070 fa 98 54 3e 49 3c 22 be f8 8f e6 3d 60 dd c2 bc
       0.20761481 -0.1584331 0.112579286 -0.0237872
000080 07 18 17 3e 34 3e c1 3d 95 01 94 3b c1 82 94 bd
       0.1475526 0.094356924 0.00451679 -0.07251502
000090 9f ad c4 b9 b2 9e b4 bb 18 7c 5e 3e 6f 21 14 3d
       -0.0003751339 -0.005512082 0.21727026 0.036164697
0000a0 43 66 2e be 4c f2 71 3d c1 7e 28 bd 73 8f ce 3c
       -0.17031197 0.059068963 -0.041136507 0.025214886
0000b0 a5 f0 9f bd e3 71 40 3c ee 89 31 be 13 5f 3d be
       -0.07809571 0.011745903 -0.17337772 -0.18493299
0000c0 a4 1f c4 bc b9 ca 62 bb 41 f3 a0 bd f7 f0 78 bd
       -0.023940869 -0.0034605695 -0.07858897 -0.060776677
0000d0 83 b3 ab be 11 e7 89 3d 29 82 63 3e 22 02 47 bc
       -0.33535394 0.067335255 0.22217621 -0.012146505
0000e0 4c 77 63 be f6 1a 88 be a2 b1 ea 3d 2e 76 bf 3d
       -0.22213477 -0.2658307 0.11459662 0.09348713
0000f0 7a 08 13 3d 29 6c 3c be 90 31 c7 bd 57 e3 2b bd
       0.035896756 -0.18400635 -0.0972625 -0.041964855
000100 56 04 b0 bd c7 28 f9 bd 34 98 eb bd 5e f9 47 3c
       -0.08594577 -0.12165981 -0.1150364 0.01220545
000110 f8 64 07 be f7 1e ab 3c a4 c0 9b 3c 8a 9d 7d be
       -0.1322211 0.020888789 0.019012757 -0.24767128
000120 59 d3 e3 bd d9 99 cc bd e7 47 0d be 62 5c d3 bd
       -0.11124296 -0.099902816 -0.1379696 -0.10320355
000130 54 4b 4c bc 5f a5 18 bd 1a 5b 0d 3e a8 c6 d1 be
       -0.0124691315 -0.037267085 0.13804284 -0.40971875
000140 47 06 39 3d 1b 33 34 3e 5c 95 a2 3e 45 50 23 3e
       0.045172002 0.1759762 0.31754577 0.15948589
000150 02 31 78 3d ae ab 89 bc 29 a8 6c 3d 7f eb 9a bc
       0.060593612 -0.016805496 0.057777558 -0.018911121
000160 18 ec c5 3d 40 1d 27 3b a4 e4 c3 3d a2 00 ab bb
       0.09664172 0.0025499612 0.09565094 -0.0052185813
000170 03 e8 18 3e 30 00 47 be ef 10 7a 3e 10 21 47 3e
       0.14932255 -0.19433665 0.24420522 0.19446206
000180 40 15 f8 3c 83 c2 1b 3e 1a 87 fa bd 28 88 14 3e
       0.03028357 0.15210919 -0.122328 0.14505064
000190 e6 e7 d2 bd 69 11 d2 bc cc 71 85 3d 73 b1 df 3a
       -0.10298137 -0.025643067 0.06515846 0.0017066434
0001a0 03 0f 94 3b 79 60 76 3c c5 8c 2e be 25 1c 84 3d
       0.004518391 0.015037649 -0.17045887 0.06450681
0001b0 3a d5 1e be dc 6c 59 be 30 bb 4d 3e 58 26 9c be
       -0.15511027 -0.21232933 0.20090938 -0.30498004
0001c0 6e bf 29 3e 1c 2b ba bd b3 db af bc d3 58 8c 3d
       0.16576931 -0.09090254 -0.021467065 0.068528794
0001d0 99 6d 90 bd a0 33 72 be 6e 73 09 3d 53 55 0c 3e
       -0.07052154 -0.23652506 0.033557348 0.13704424
0001e0 16 40 52 3e aa 57 9d 3e 49 66 fd 3d 76 21 a1 bd
       0.2053226 0.30730945 0.12373025 -0.0786771
0001f0 2e 1f a8 bd 07 bf f0 bd bd 90 80 3e 3a 73 9d 3e
       -0.08209072 -0.117551856 0.25110427 0.30751973

fc.weight f4 [54, 128]
000000 ad 8b 15 be 61 e4 0e be db a4 9d be c3 ed 95 3e
       -0.14604063 -0.13954307 -0.30789837 0.2928296
000010 8e 9e f5 be 6b 7c 0f be a6 db 0a 3f 34 b2 b0 be
       -0.4797253 -0.14012305 0.54241407 -0.34510958
000020 21 b1 92 be 85 2c 5e 3e 1f fa e4 be ae da 78 be
       -0.28650764 0.2169667 -0.44722077 -0.2430217
000030 37 61 5f be 79 90 9b 3d 5f f1 d6 3e 27 b7 2a 3f
       -0.21814428 0.07595915 0.41981027 0.6668572
000040 fd 99 56 3f b9 34 98 3e c9 6f bf 3d 26 1b 83 bd
       0.8382872 0.29727724 0.09347493 -0.064016625
000050 13 a2 7b 3d ec 32 6c 3e 4c 86 26 be 86 a8 d4 bd
       0.061433863 0.230663 -0.16262168 -0.10383706
000060 d7 e3 00 bf 00 de 7a be 10 7d 8f be 0f 0c b6 be
       -0.50347656 -0.24498749 -0.28025103 -0.35556075
000070 73 2f 4d 3c ee 4c af be 02 01 ea 3e e4 f9 03 be
       0.01252352 -0.3423838 0.45703894 -0.12888294
000080 f5 cb 38 3f e3 cd 77 be f8 f7 7b bf ad e3 1e 3c
       0.72186214 -0.24199633 -0.98425245 0.009697837
000090 18 ff 91 bd 66 b9 2c be c2 47 02 3d 8b a7 04 3e
       -0.071287334 -0.16867599 0.031806715 0.12954538
0000a0 a0 0e bd 3d bb f5 10 3e 6f 45 31 3e 0c 13 ba 3e
       0.09231305 0.14156239 0.17311643 0.36342657
0000b0 58 61 24 3f 0e 2f 26 3e 03 d7 1a 3f 1c c0 40 3e
       0.64211035 0.16228887 0.6048433 0.18823284
0000c0 ec cf 8e 3d 27 96 bf bd db 2f 15 bc 60 b5 4b 3d
       0.06973252 -0.09354811 -0.009105648 0.04973352
0000d0 ee 45 f7 3d e1 c6 d6 3d 6e 55 77 3e 62 e8 c0 bd
       0.12073885 0.10487152 0.24153683 -0.094193235
0000e0 82 e4 f5 3e 67 7c a1 be 83 99 d7 bc db 59 ad 3c
       0.480259 -0.31540224 -0.026318317 0.02116101
0000f0 37 28 57 be a8 87 7e 3e e4 3b b1 3d 76 ef 79 3e
       -0.21011434 0.24856436 0.08654001 0.24407753
000100 61 da 81 3e 64 85 a5 be 74 67 b1 bd d5 d6 87 be
       0.25361922 -0.3232833 -0.0866231 -0.2653109
000110 c7 0a e1 3e f1 e2 ae be df b7 c0 3d ae 72 7a 3e
       0.43953535 -0.34157518 0.09410071 0.2445781
000120 da 29 03 3e 00 65 5a 3c 98 b0 48 bd 07 02 6a bd
       0.12808934 0.013329744 -0.048996538 -0.05713084
000130 49 74 5e 3e 08 77 21 bf 21 06 c8 3e de b8 cb be
       0.21724047 -0.6307225 0.39067176 -0.3978948
000140 4e fb 0a be a1 2c 87 be 2a 50 1b 3f d2 bf a6 bd
       -0.13572428 -0.26401237 0.60669196 -0.081420556
000150 7e 1f 1e bd d9 ab e5 bc fd 17 bc bd bd 0e 23 be
       -0.038604252 -0.028036045 -0.09184263 -0.15923591
000160 03 75 49 be 53 eb c6 3e 25 22 a4 3e 7a ef 14 be
       -0.19673543 0.38851413 0.320573 -0.14544478
000170 4f 41 d9 bc ec 2a 82 be 41 e5 85 3d b3 44 11 3e
       -0.0265204 -0.25423372 0.06537867 0.14186363
000180 66 1f 14 3f fa 3b 9a 3d 5b f3 89 3e ab 73 32 be
       0.5786041 0.07530971 0.26943478 -0.17426936
000190 46 b5 7a 3e 77 7e 02 bf 5e 64 75 3d 5b 2e 35 3e
       0.24483213 -0.5097422 0.05991017 0.17693464
0001a0 29 af 3b bd 65 44 78 3d 73 d0 75 bd 62 19 69 3e
       -0.045821343 0.0606121 -0.060013246 0.22763589
0001b0 81 cd a1 3d 53 f4 77 3c 2c a4 45 be 83 b3 7c 3e
       0.07900525 0.015133935 -0.19300908 0.24677853
0001c0 f1 4d 41 be 07 b5 33 3e c9 3b 0e 3e 75 a0 ef bd
       -0.18877389 0.17549525 0.13889994 -0.117005266
0001d0 bb 6a 96 3e 24 bc e0 3e 43 f3 c6 be 84 eb c0 3e
       0.29378304 0.4389354 -0.3885747 0.37679684
0001e0 0c 44 2b be e8 8a 46 3c f1 dd 7a 3e e6 6e bf 3e
       -0.16725177 0.012118079 0.24498726 0.37389296
0001f0 17 2d 8e be 3c 35 02 3e 74 07 b9 bd ef 34 38 be
       -0.27768776 0.1271562 -0.09034625 -0.17988943
000200 9e f8 09 3e a6 02 6e 3e d0 b5 83 3d 96 25 21 3d
       0.13473746 0.23243198 0.06431162 0.039342485
000210 13 f0 90 3e c6 83 c3 bd b4 4c a3 bd d1 eb 4d be
       0.28308162 -0.09546618 -0.07973614 -0.20109488
000220 b9 01 0a 3e 4c ec 63 bd 3f 3a 84 bd 2c ae 73 bd
       0.1347722 -0.055645272 -0.06456422 -0.059492275
000230 2b 1a 99 bd 0b 47 81 be e0 85 59 3e f8 47 89 3e
       -0.07475694 -0.25249514 0.21242476 0.2681272
000240 54 78 46 3e ba 2a 16 be 52 bd 81 be d0 2d a2 bd
       0.19381839 -0.14664736 -0.25339752 -0.07918894
000250 8b 62 3d 3e 9e 92 04 bd ed ed 1c 3d d7 ba a2 bd
       0.18494622 -0.032366388 0.03831284 -0.07945793
000260 40 65 b0 3d de c6 b4 bc 6c b0 9d 3c dd 76 a1 bc
       0.08613062 -0.022067484 0.019249164 -0.019709999
000270 c7 cc 58 be 81 22 ee bd 6c a4 25 3d ac 9a 54 be
       -0.21171866 -0.11627675 0.040440008 -0.20762128
000280 72 d9 81 3c 31 85 38 3e 37 bf 8d 3e a3 52 b8 3c
       0.015850756 0.18019558 0.27684948 0.022500342
000290 b1 b3 9b 3e 30 c9 82 3e b1 67 c3 be 0e 6e 81 3b
       0.3041053 0.2554412 -0.38165048 0.003949887
0002a0 08 0b 54 3e b8 c5 f5 3e 8e 8e 7b 3b b5 7b 3f 3e
       0.20707333 0.4800241 0.003838453 0.18699534
0002b0 98 bd a0 3d 2e cc d4 be 6d 37 97 3d 1c 2d 1e 3e
       0.07848662 -0.41562027 0.073836185 0.15446895
0002c0 ec 1e bb bd a2 80 65 bd 13 9d 2b 3d 89 3b 1e be
       -0.09136757 -0.056030877 0.041897845 -0.15452398
0002d0 9a 5a 56 3e 8b 68 dc 3e 45 1b db 3e 85 d9 86 3e
       0.20932999 0.4304851 0.42794243 0.2633783
0002e0 3e 6f 19 3e 84 ad 1b 3d b3 17 9f be e4 f9 60 3b
       0.14983842 0.038007274 -0.3107277 0.0034328634
0002f0 bf 79 81 3e 83 e1 ac 3d 26 0f d5 3d df 89 ff bd
       0.25288197 0.084414504 0.1040328 -0.12477469
000300 ab e1 ac be f8 b6 53 3d f0 06 be bd 0c 35 64 3d
       -0.3376592 0.051688164 -0.09278667 0.055714652
000310 59 4d 8d be b1 7f 47 3f 48 23 2d 3e 93 be ed bb
       -0.27598074 0.77929217 0.1690799 -0.0072553842
000320 a8 5a e5 3d 51 08 4d bd 12 38 0a 3d fd 06 0f bd
       0.11198932 -0.05005676 0.03374488 -0.034918774
000330 d7 86 08 3e 96 51 ae 3d 05 fc 0d 3e 96 03 34 3e
       0.13332687 0.08511655 0.13865669 0.17579493
000340 3a 0b 2c 3e 5a ab ba 3c e5 7e 65 be cb 0c 7e 3d
       0.16801158 0.022786785 -0.22411688 0.06202392
000350 c4 d9 c0 be 7a 83 cb 3b 9b 22 db bc ce f0 dc 3d
       -0.37666142 0.0062107416 -0.0267499 0.10788117
000360 2e 0d 11 bf 84 2c cc bd a9 f6 9e bc a5 5b 69 3e
       -0.56660736 -0.09969428 -0.019404726 0.22788866
000370 73 de 63 3d e8 af 60 be 1d f4 26 be 50 38 dd bc
       0.055632066 -0.21942103 -0.1630406 -0.027004391
000380 9c cb 24 be 1e a7 d5 3e 7c 78 2f be 45 ee 0f 3e
       -0.16093296 0.41729063 -0.17135805 0.14055736
000390 77 2d 5c bc 0d 69 cc 3e a4 b1 28 bd 23 76 de be
       -0.013438574 0.39923897 -0.041185036 -0.43449506
0003a0 0d 7c 8b be f7 cb 95 3d 1c c1 05 3e 94 ff b8 be
       -0.2724308 0.07314294 0.13061947 -0.3613249
0003b0 e4 9a 96 3e ca db 32 3e d0 2f b8 3e 68 d2 39 3e
       0.29415047 0.17466655 0.35973978 0.1814667
0003c0 a0 0c 7d 3d 02 bf 8b 3e 62 f4 a5 3e 6a cd c7 be
       0.06177962 0.27294165 0.32413012 -0.39023906
0003d0 ca 7f 52 3e 26 d4 28 3e a2 1d c9 bd 65 4a a8 3d
       0.2055656 0.16487178 -0.09820105 0.08217315
0003e0 ea c4 08 bd d8 72 c0 bc ad 1c 23 3d f4 f5 1f bc
       -0.033390917 -0.023492262 0.03982227 -0.00976323
0003f0 e9 8d 1a 3e a1 ab 47 be 14 66 05 bd bc e3 0f be
       0.15093197 -0.19499065 -0.032568052 -0.14051718

fc.bias f4 [54]
000000 65 d7 94 3c 63 ac 38 bd 60 81 73 be 51 97 27 be
       0.018169114 -0.045086276 -0.23779821 -0.16366316
000010 d3 5b 4e bc 6b 1e 8c be 8f 0f 42 be 0f ef 43 bc
       -0.012595135 -0.27366957 -0.18951248 -0.0119588515
000020 23 24 e1 bd 29 e1 4d be 7a 9f 4a be 95 51 4d be
       -0.10993221 -0.20105423 -0.19787398 -0.20050652
000030 eb 71 d5 bc 41 95 69 be 00 83 ed bd 1b bd af be
       -0.026055297 -0.22810842 -0.11597252 -0.34323964
000040 20 c9 fc be 90 c9 0d be 04 29 5c bd 4e 37 6f be
       -0.49372196 -0.13846421 -0.053750053 -0.23360941
000050 99 1e 23 be 24 aa 96 be 6d 54 b2 be 93 85 fc be
       -0.15929641 -0.29426682 -0.34830037 -0.4932066
000060 f5 34 0e be 1f 69 c5 be b8 40 24 bf ce d7 25 bf
       -0.13887389 -0.38556764 -0.6416125 -0.64782417
000070 f2 fa 2c bf a4 af 3a bf 7a 52 37 bf 56 53 3c bf
       -0.6757041 -0.72924256 -0.71610224 -0.7356466
000080 8e df 34 bf eb f7 17 bf 1b 59 33 bf 7f ff 22 bf
       -0.7065362 -0.5936267 -0.7005784 -0.63671106
000090 63 d9 16 bf e5 1e 22 bf 75 4b 3f bf e6 0b 28 bf
       -0.58925456 -0.6332839 -0.74724513 -0.65643156
0000a0 03 3c 2b bf cb 01 1c bf b5 7a 3b bf 97 02 37 bf
       -0.66888446 -0.60940236 -0.7323411 -0.71488327
0000b0 2b 6a 1d bf a2 46 16 bf 28 d2 20 bf 5d 47 1f bf
       -0.61490124 -0.5870153 -0.62820673 -0.62218267
0000c0 49 18 1b bf 33 c0 34 bf 80 fa 2f bf 2b 27 20 bf
       -0.6058393 -0.7060577 -0.6874161 -0.62559766
0000d0 17 53 0a bf 54 1c f2 be
       -0.54033035 -0.47287238
