神经网络作业/A7/models/name_generation_rnn2_AT_signalname_doubleend.pth (torch, 124052 bytes, 6 tensors)

rnn.weight_ih_l0 f4 [128, 54]
0	0x3e323310	0.17402291
1	0x3f1dd849	0.6165815
2	0x3e2c9226	0.16852626
3	0xbea9f74e	-0.3319649
4	0x3e9b5918	0.3034141
5	0x3eb285a4	0.34867585
6	0x3db2ccf6	0.087304994
7	0xbea9ad80	-0.33140182
8	0xbd9062f6	-0.07050125
9	0xbe370da9	-0.17876305
10	0xbcdb53c8	-0.026773348
11	0xbe2986a1	-0.16555263
12	0xc0002fdf	-2.0029218
13	0x3f7c4433	0.98541564
14	0xbf0c4caa	-0.5480448
15	0xbebb8e84	-0.36632168
16	0x3de53967	0.11192589
17	0xbf1c9a89	-0.611733
18	0xbec3c883	-0.38238916
19	0xbf97f70f	-1.1872271
20	0x3f9d50cf	1.2290286
21	0x3e76406b	0.24048011
22	0x3ed05772	0.40691715
23	0x3ef56376	0.47927445
24	0x3f2c5419	0.6731582
25	0xbe284d61	-0.16435768
26	0x3d015f52	0.031585045
27	0x3d12cb66	0.035838507
28	0x3d85ac31	0.065269835
29	0x3c8a2344	0.01686252
30	0x3d8b34d1	0.06797183
31	0xbd2f28ab	-0.042763393
32	0x3d473b22	0.048640378
33	0xbd8e62d2	-0.06952442
34	0xbd4978b3	-0.049187373
35	0xbd9aa421	-0.07550836
36	0x3da8742f	0.08225285
37	0xbd1d6e1d	-0.03843509
38	0x3c958778	0.018253073
39	0xbd2394f1	-0.039936963
40	0xbc86e100	-0.01646471
41	0xbb5f03c0	-0.0034029335
42	0xbd7f0813	-0.06226356
43	0x3d95b8d1	0.073106416
44	0xbdaad1f9	-0.0834083
45	0x3c3060e8	0.010765292
46	0xbd8f3926	-0.06993322
47	0xbda127ca	-0.07868917
48	0x3da3efcb	0.08004721
49	0x3d9a2909	0.07527358
50	0x3d4c19d2	0.04982931
51	0xbd8fd1b6	-0.07022421
52	0xbcfc2750	-0.030780464
53	0x40870b14	4.2201023
54	0x3f35ab58	0.70964575
55	0xbec253b7	-0.37954494
56	0xbfd0d15e	-1.6313894
57	0x3ccd9569	0.025095658
58	0x3f70ddd6	0.94088495
59	0x3e82d8da	0.2555607
60	0xbdaa4d92	-0.083155766
61	0xbe2a711a	-0.16644707
62	0xbfa0952e	-1.2545526
63	0x3eb4945a	0.35269433
64	0xc039b7d7	-2.9018457
65	0x3e18dfa5	0.14929064
66	0xbfd379ff	-1.6521605
67	0x400125a6	2.0179229
68	0x3ea5e6ff	0.324028
69	0xbe892bbe	-0.26791185
70	0xbe6d529e	-0.23176047
71	0x3e16cf95	0.14727624
72	0xbfb93503	-1.4469303
73	0xbf4b0c4c	-0.7931564
74	0x3ee22f44	0.44176686
75	0xbf976827	-1.182866
76	0x3f42ec1c	0.76141524
77	0xbe85041d	-0.259797
78	0xbf996105	-1.1982733
79	0x3da0fb52	0.078604355
80	0x3c539bb8	0.012915544
81	0x3cc41450	0.023935467
82	0xbd868d90	-0.0656997
83	0xbd817300	-0.06320763
84	0xbbc0b1b0	-0.005880557
85	0x3da2f1ab	0.07956251
86	0x3da588d5	0.08082739
87	0xbd844493	-0.06458392
88	0xbd2e7222	-0.042589314
89	0xbc6e5370	-0.01454626
90	0xbc6d7830	-0.014493987
91	0x3d6c9502	0.057759292
92	0x3d4bccba	0.04975579
93	0xbd520516	-0.05127438
94	0xbd1992ac	-0.037493393
95	0xbd860157	-0.06543224
96	0x3cbf997c	0.023388617
97	0xbd8d51dd	-0.0690038
98	0x3d05b2d2	0.03264124
99	0x3d6d5626	0.057943486
100	0xbd175754	-0.036948517
101	0xbd16b471	-0.036793176
102	0xbc823590	-0.015894681
103	0xbd4551f9	-0.04817388
104	0xbda3b228	-0.07992965
105	0xbd4e1444	-0.050312296
106	0xbb284b80	-0.0025679767
107	0xc068c357	-3.6369226
108	0x3ef75b39	0.48311785
109	0xbf2d6f21	-0.67747694
110	0xbee234aa	-0.44180804
111	0xbf863b04	-1.048676
112	0x3e52a9a8	0.20572531
113	0x3e148c48	0.14506638
114	0x3fb3d9b8	1.4050817
115	0xbe9a198c	-0.30097616
116	0x401d7f58	2.4608974
117	0x3e7a3ca1	0.2443719
118	0x3eb7b613	0.358811
119	0x3f8785c2	1.0587695
120	0x3f9076f9	1.1286308
121	0x3da1011e	0.07861541
122	0x3ef87e70	0.48533964
123	0x3efbf9ed	0.49214116
124	0x3f000e08	0.5002141
125	0xbce54e24	-0.027991362
126	0xbe3534d2	-0.1769593
127	0xbf65d834	-0.89783025
128	0x400e5a5f	2.2242658
129	0xbf5cf854	-0.8631642
130	0xbf83b00d	-1.0288101
131	0x3f0d1548	0.551106
132	0xbe27c701	-0.16384508
133	0x3cb8bf82	0.022552256
134	0x3c8477d8	0.016170427
135	0x3d5a0bfe	0.053234093
136	0x3d5b05f6	0.05347248
137	0xbd0baa3f	-0.034097906
138	0xbda873f8	-0.08225244
139	0xbcc77d8c	-0.024351858
140	0x3d2a806a	0.04162637
141	0x3c49a9b8	0.0123085305
142	0xbc8eae60	-0.017417133
143	0x3b899760	0.0041989535
144	0x3d182a6e	0.03714984
145	0xbd87185e	-0.065964445
146	0x3d848ee5	0.064725675
147	0x3c832ef0	0.016013592
148	0x3d6a372a	0.057181515
149	0x3d0156fe	0.031577103
150	0xbdac0a0e	-0.08400355
151	0xbbff2f90	-0.0077876523
152	0xbd083baa	-0.033260025
153	0xbc8a9c2c	-0.016920172
154	0x3d43ded6	0.047819935
155	0x3c3d80e8	0.011566378
156	0x3bc724e0	0.006077394
157	0x3db33519	0.08750362
158	0x3cbb5988	0.02286984
159	0xbd1b40a3	-0.03790344
160	0xbb945100	-0.0045262575
161	0xc09fceb6	-4.9939833
162	0x3f8bf65c	1.0934558
163	0x3fc68a8f	1.5511035
164	0xbf134e32	-0.5754119
165	0x3fa559cc	1.2918029
166	0x3f30fb02	0.6913301
167	0x3e9d4b79	0.30721644
168	0xbe87a995	-0.26496568
169	0xbdf68c08	-0.120384276
170	0x3f6c760b	0.9236762
171	0x4036803d	2.851577
172	0x3aade3e4	0.0013266769
173	0xbc984b18	-0.018590495
174	0xbe0d4610	-0.13796258
175	0x3e1f1dc3	0.15538697
176	0xbf9f0f6e	-1.2426584
177	0x3cad3cd8	0.021147177
178	0x3ec9ee9f	0.39439866
179	0xbf066b5a	-0.52507555
180	0xbcebf3bd	-0.028802747
181	0x3ea44b68	0.3208878
182	0xbfa81e5a	-1.3134263
183	0xbebfd165	-0.37464443
184	0xbefff473	-0.49991187
185	0xbe02116b	-0.12701957
186	0x4002209e	2.0332408
187	0xbe99bade	-0.3002538
188	0x3d27a662	0.04093016
189	0xbd69158f	-0.056905326
190	0xbd992382	-0.07477476
191	0x3c4de210	0.0125661045
192	0x3d8984dd	0.06714795
193	0xbd1f6330	-0.038912952
194	0xbd2c477d	-0.042060364
195	0x3d30843a	0.04309485
196	0xbd8ccb08	-0.06874663
197	0xba847a00	-0.001010716
198	0x3c4aa5b8	0.012368612
199	0x3d2a6b72	0.041606374
200	0xbce99fb0	-0.028518528
201	0xbd164d34	-0.03669472
202	0xbd122e72	-0.035688825
203	0xbdb29745	-0.087202586
204	0xbcfdf536	-0.031000715
205	0xbd070602	-0.032964714
206	0xbba84e60	-0.005136296
207	0xbd5388ef	-0.051644262
208	0xbd135992	-0.035974093
209	0x3d46499a	0.048410036
210	0xbd817380	-0.06320858
211	0xbda06342	-0.07831432
212	0x3d318aa2	0.0433451
213	0x3cf80130	0.030274004
214	0x3d525632	0.051351734
215	0xc0c42b33	-6.1302733
216	0x3ef8010d	0.48438302
217	0xbe40e7a7	-0.18838368
218	0xbf22388a	-0.6336752
219	0xbdf61a3d	-0.12016723
220	0x3f853927	1.0408067
221	0xbeb80693	-0.35942516
222	0xbf18781a	-0.5955826
223	0xbf4862c3	-0.782757
224	0x40054df9	2.082884
225	0xbc2198ee	-0.009863121
226	0x3de42a07	0.111408286
227	0xbe7b5ba9	-0.24546684
228	0xbf0d3d0f	-0.55171293
229	0x3dacf086	0.08444314
230	0x3f98c0a5	1.193379
231	0xbf2bec10	-0.6715708
232	0x3eb7fc85	0.35934845
233	0xbf5122c1	-0.81693655
234	0xbe870a37	-0.2637498
235	0x3e044089	0.12915243
236	0x3dcec2cb	0.100957476
237	0x3ee9a5e3	0.45634374
238	0xbde3f1e3	-0.111301206
239	0xbfa7e0d2	-1.3115485
240	0x3f0bd3b8	0.5461993
241	0x3d848ba7	0.06471949
242	0x3cb0c000	0.021575928
243	0x3ba83700	0.0051335096
244	0x3bc9a450	0.006153621
245	0x3da157eb	0.07878097
246	0xbd374dce	-0.044751935
247	0xbd5d2e56	-0.053999268
248	0xbd3ab65a	-0.04558406
249	0x3bc910b0	0.0061360225
250	0xbd8540c1	-0.065064915
251	0x3d01d0ce	0.031693272
252	0x3d19913e	0.03749203
253	0xbd752e1a	-0.05985842
254	0x3d81e0f5	0.06341735
255	0x3c80a77c	0.015704863

rnn.weight_hh_l0 f4 [128, 128]
0	0xbdaf8bb8	-0.08571571
1	0x3de157ad	0.11003051
2	0xbd9eb878	-0.07750028
3	0x3e27f54d	0.16402169
4	0xbd25239c	-0.040317163
5	0xbe358343	-0.17725854
6	0x3daeecbf	0.085412495
7	0x3d3979ef	0.0452823
8	0xbcba65b2	-0.02275357
9	0x3e1db134	0.15399629
10	0x3e326779	0.17422284
11	0xbe9720e5	-0.29517284
12	0xbdf68ad4	-0.12038198
13	0xbda05619	-0.07828922
14	0x3edf4c94	0.43613112
15	0xbe3b4f6e	-0.18292019
16	0x3c7da315	0.015480776
17	0x3eb5cd35	0.35508123
18	0x3db37b7d	0.08763788
19	0xbd8f0f7c	-0.06985375
20	0xbbe1f51d	-0.006895675
21	0xbe432c9c	-0.19059986
22	0x3e886767	0.2664139
23	0xbe8987e8	-0.268615
24	0x3e5413a2	0.20710614
25	0x3d4eb46d	0.050465036
26	0x3ce11022	0.027473513
27	0xbd8bf1b2	-0.06833209
28	0xb7403215	-1.1455752e-05
29	0xbe952386	-0.29128665
30	0x3eadafdd	0.33923236
31	0xbe6e5036	-0.23272786
32	0x3c77b633	0.015119123
33	0x3ed62ccc	0.41831052
34	0xbeae435c	-0.34035766
35	0xbe800c89	-0.25009564
36	0x3c02c637	0.007981828
37	0xbda303a7	-0.07959681
38	0xbe89446c	-0.26810014
39	0xbdd5fb68	-0.104483426
40	0xbef2f43a	-0.47451955
41	0xbd614f39	-0.055007193
42	0x3f4c6aca	0.7985045
43	0x3e5245aa	0.20534387
44	0x3db3e881	0.08784581
45	0xbe99719c	-0.2996949
46	0xbd6c9c33	-0.05776615
47	0xbd0af756	-0.033927284
48	0x3d5889bc	0.05286573
49	0xbea2d51d	-0.31803218
50	0xbe9742bb	-0.295431
51	0x3c6f470b	0.01460434
52	0x3db0f303	0.08640101
53	0xbe50efd7	-0.20403992
54	0x3982fce0	0.0002498394
55	0x3e77b061	0.24188377
56	0x3e690501	0.22755815
57	0xbe9f9306	-0.31166857
58	0x3e79a994	0.24381095
59	0x3d62099b	0.05518494
60	0x3dcf1372	0.10111131
61	0xbe399721	-0.18124057
62	0x3cc8f437	0.024530513
63	0x3ed2f004	0.41198742
64	0xbd81a420	-0.063301325
65	0xbe84cd56	-0.2593791
66	0x3dbbc260	0.091679335
67	0xbebad4da	-0.36490518
68	0xbe329bc5	-0.17442234
69	0xbb6d400b	-0.0036201503
70	0xbeaa72bf	-0.3329067
71	0x3b8b8e6c	0.0042589214
72	0xbe79c862	-0.24392846
73	0x3d891f9f	0.06695484
74	0xbecbd9dc	-0.3981465
75	0xbb95e110	-0.0045739487
76	0x3e5f32f4	0.21796781
77	0xbebf2625	-0.3733379
78	0xbc8d1d9f	-0.017226039
79	0x3e2fdb97	0.1717361
80	0x3e431ecc	0.19054717
81	0x3e115427	0.14192258
82	0xbea852ec	-0.32875764
83	0x3de62f6f	0.11239516
84	0xbcad686f	-0.021167962
85	0xbca919f3	-0.020642256
86	0x3e300081	0.17187692
87	0xbdd64d68	-0.10463983
88	0xbecf7f00	-0.4052658
89	0x3d9b75cd	0.07590828
90	0xbea9a65d	-0.33134738
91	0x3d7ccd77	0.061719384
92	0x3e9cd091	0.30627874
93	0x3e9d7499	0.3075302
94	0x3e27badb	0.16379873
95	0xbd5113b1	-0.05104417
96	0x3d2cf4c1	0.042225603
97	0xbe0f7240	-0.14008427
98	0x3e0e8ac7	0.13920127
99	0xbe40ce78	-0.18828762
100	0xbe5fdd8f	-0.21861862
101	0xbea940ac	-0.33057153
102	0xbd361944	-0.04445769
103	0xbe1b8edb	-0.15191214
104	0xbee3928f	-0.44447753
105	0xbd7db55e	-0.061940543
106	0x3d54a4c6	0.051914953
107	0xbddd70b0	-0.10812509
108	0x3e54e853	0.2079175
109	0x3e144ea3	0.14483123
110	0xbb7cd1e1	-0.0038577246
111	0xbe1ecba0	-0.15507364
112	0xbe3dbf8a	-0.18530098
113	0x3e69a33b	0.22816174
114	0xbebf7bab	-0.3739904
115	0x3d80fd07	0.06298261
116	0xbe90779c	-0.28216255
117	0x3dc600f6	0.09668152
118	0xbd9c89e6	-0.076434895
119	0x3b42ca78	0.0029722732
120	0xbd88cd2c	-0.066797584
121	0x3e4bf853	0.19918947
122	0x3e89d4d8	0.269202
123	0xbdf68849	-0.12037713
124	0xbdeda8d7	-0.11604469
125	0xbdb3c5db	-0.08777972
126	0x3e85f256	0.2616145
127	0x3dba44b8	0.09095138
128	0xbde49de7	-0.1116293
129	0xbf05c99b	-0.5226075
130	0x3e3dc20f	0.18531059
131	0xbe27c36a	-0.16383138
132	0xbdc494ee	-0.095987186
133	0xbde8feff	-0.11376762
134	0x3e358981	0.17728235
135	0xbd61fbb7	-0.055171695
136	0xbdf0554e	-0.117350206
137	0x3d8e3763	0.06944158
138	0x3e779c5a	0.24180737
139	0xbe9b91e4	-0.30384743
140	0xbe341357	-0.17585503
141	0xbd5451c8	-0.051835805
142	0xbd95e153	-0.07318368
143	0x3ecc26b5	0.3987328
144	0x3eb12cb9	0.34604433
145	0xbf0e7d9b	-0.5566041
146	0xbe60f235	-0.21967395
147	0xbeb20a3a	-0.34773427
148	0xbeb8c875	-0.36090437
149	0xbc67b9bb	-0.014143403
150	0xbdb8d455	-0.09024874
151	0xbe556ce5	-0.20842321
152	0xbc62172e	-0.013799472
153	0xbd0ad87f	-0.033897873
154	0xbd1315d0	-0.035909474
155	0x3c901849	0.017589705
156	0xbd783558	-0.060597748
157	0xbc99ed1e	-0.018789824
158	0x3d5af5fe	0.053457253
159	0xbeb0c1b4	-0.34522784
160	0xbdd6a4c0	-0.10480642
161	0xbec0274e	-0.37529987
162	0xbda35fc9	-0.07977254
163	0xbd8b010b	-0.06787308
164	0x3ed82e97	0.42223045
165	0xbd298655	-0.041387875
166	0x3db6fbc2	0.08934738
167	0xbde1270c	-0.10993776
168	0x3eb8b9f5	0.36079374
169	0x3dd43732	0.1036209
170	0xbe6dfa16	-0.23239931
171	0x3dc41cd6	0.095758125
172	0xbd40eb1c	-0.047099218
173	0xbe2b3e77	-0.16723047
174	0x3e8a0fd4	0.269652
175	0xbe1e2386	-0.15443239
176	0x3e9e54d4	0.30924094
177	0x3e19abab	0.15006892
178	0xbdb245b1	-0.08704699
179	0xbdf60850	-0.12013304
180	0x3ebdf552	0.37101227
181	0x3e8c18a5	0.27362552
182	0x3e2ccf71	0.16876008
183	0x3e214555	0.15749104
184	0xbcba55a8	-0.022745922
185	0x3cc2542c	0.023721777
186	0x3ca2822e	0.019837465
187	0xbe9a2f39	-0.30114153
188	0xbe3d0ffe	-0.18463132
189	0xbd4ba660	-0.049719214
190	0xbe5062f2	-0.20350245
191	0xbd81ad5e	-0.06331895
192	0x3e9a7293	0.30165538
193	0xbcca5bff	-0.02470207
194	0xbddd58bf	-0.108079426
195	0xbd551443	-0.052021276
196	0x3eb1ac45	0.34701744
197	0xbe0b1662	-0.13582757
198	0xbecea0c4	-0.4035703
199	0xbe48afdb	-0.19598334
200	0x3e2573e0	0.16157484
201	0xbc613c52	-0.013747292
202	0x3e341e67	0.17589723
203	0xbdb77285	-0.0895739
204	0x3c0d9b22	0.008642944
205	0xbd10565b	-0.035238605
206	0xbe5eb2f4	-0.21747953
207	0x3ea102ee	0.31447548
208	0x3eb2af64	0.34899437
209	0x3caeb5fc	0.021327011
210	0xbe7d84f7	-0.24757753
211	0x3e9e6f47	0.30944273
212	0x3ed084ee	0.40726417
213	0xbd81aed0	-0.06332171
214	0xbe52486a	-0.20535436
215	0x3d52a968	0.05143109
216	0x3e501cd8	0.20323503
217	0x3e984417	0.29739448
218	0x3e8471c6	0.25868052
219	0x3e5b3c0c	0.21409625
220	0xbeae86db	-0.34087262
221	0x3e5f1dfd	0.21788783
222	0x3ec08f39	0.3760927
223	0x3e415020	0.18878222
224	0xbe68d8f3	-0.2273901
225	0x3da347e3	0.07972696
226	0x3da22d52	0.079188004
227	0xbe86100b	-0.26184115
228	0x3da89df4	0.08233252
229	0xbcdb3062	-0.02675647
230	0x3e7fbe38	0.24974906
231	0x3e945ca2	0.28976923
232	0xbe95b746	-0.2924139
233	0x3f00b7bf	0.50280374
234	0x3e367f61	0.17822029
235	0xbd8e967d	-0.06962297
236	0xbe7fd2f6	-0.24982819
237	0xbc98d073	-0.018654084
238	0xbb8d1d0f	-0.0043064426
239	0xbe176987	-0.14786349
240	0x3e647d13	0.22313337
241	0xbdca2be9	-0.098716564
242	0x3eb8b53a	0.36075765
243	0xbe437870	-0.19088912
244	0xbe4134dd	-0.18867822
245	0xbce366ac	-0.027758919
246	0x3cfbaca7	0.030721975
247	0x3e2a1fab	0.16613643
248	0x3dbf7075	0.09347621
249	0x3e40ba36	0.18821034
250	0x3e21ff00	0.15819931
251	0x3e4a9a9d	0.19785543
252	0x3e2ec18e	0.17066023
253	0xbe54c2fb	-0.20777504
254	0x3ebb215b	0.36548886
255	0xbe93a33d	-0.28835478

rnn.bias_ih_l0 f4 [128]
0	0xbdc37f7d	-0.09545801
1	0xbe80a6e9	-0.25127342
2	0x3e2adaf2	0.16685084
3	0x3eb21e40	0.34788704
4	0x3e454388	0.19264042
5	0x3e425f80	0.18981743
6	0x3e4ef1ac	0.20209378
7	0x3d729c72	0.05923123
8	0xbe13f185	-0.14447601
9	0x3dfe435a	0.1241519
10	0x3c12bdc0	0.008956373
11	0xbcb32f34	-0.021873094
12	0xbea727cf	-0.3264756
13	0xbe0f2c3f	-0.13981722
14	0xba8bf72b	-0.001067852
15	0xba5b2d01	-0.0008360893
16	0x3e94d07e	0.29065317
17	0xbe78653f	-0.24257372
18	0x3e1fca91	0.15604617
19	0xbcddbbc7	-0.027067078
20	0x3cd8c580	0.026461363
21	0xbdc5a32e	-0.09650265
22	0x3d569192	0.05238492
23	0x3cbc463f	0.022982715
24	0x3dfd7bcf	0.1237713
25	0x3eb754a9	0.35806778
26	0xbe1eb1ad	-0.15497465
27	0xbd534fdb	-0.051589828
28	0x3cc67178	0.024224028
29	0x3e48e999	0.1962036
30	0xbcfe3cc9	-0.031034844
31	0xbd7251f8	-0.059160203
32	0x3e85101f	0.25988862
33	0x3c7f5c88	0.015586026
34	0x3e1331bd	0.14374442
35	0xbaba4efb	-0.0014214212
36	0x3e06f463	0.13179164
37	0xbe864e39	-0.26231554
38	0x3eb6806b	0.3564485
39	0x3d5c0718	0.053717703
40	0xbeaa0a28	-0.33210874
41	0xbd77b332	-0.06047363
42	0x3c0b3ba3	0.008498105
43	0x3b8a7ab2	0.004226052
44	0xbc6a4e02	-0.014300825
45	0x3d8d4703	0.0689831
46	0xbe6d2f82	-0.23162654
47	0xbe4d3966	-0.20041427
48	0xbdb877d4	-0.090072304
49	0x3dd42bc6	0.103599116
50	0x3e627159	0.22113551
51	0xbdb64b21	-0.089010485
52	0xbe9f235e	-0.3108167
53	0xbe559018	-0.20855749
54	0xbe02d048	-0.12774765
55	0xbd8f57ca	-0.06999166
56	0xbe806636	-0.2507798
57	0x3d1ec4ab	0.038761776
58	0xbe129483	-0.14314465
59	0xbd794fc0	-0.06086707
60	0xbdba5c94	-0.09099689
61	0xbe03476e	-0.12820217
62	0xbe414b5f	-0.18876408
63	0xbd49cfad	-0.04927032
64	0xbd49a0e2	-0.049225695
65	0xbd9a00a1	-0.07519651
66	0xbe8baf5b	-0.27282223
67	0x3e264529	0.1623732
68	0x3dde1166	0.10843162
69	0x3da80ccf	0.08205568
70	0xbce66727	-0.028125359
71	0x3d41f2cc	0.04735069
72	0xbe510612	-0.20412472
73	0xbe120b7f	-0.14262198
74	0x3e84d2ee	0.25942177
75	0xbdbe4332	-0.0929016
76	0xbe0900ef	-0.13379262
77	0xbc075817	-0.008260748
78	0xbe639ea3	-0.22228484
79	0xbeac388a	-0.33636886
80	0xbd130137	-0.03588983
81	0x3e29646b	0.16542213
82	0x3ed147f8	0.4087522
83	0xbd86df3e	-0.06585549
84	0x3e1a3a27	0.15061246
85	0xbea1a4e0	-0.31571102
86	0x3db441f3	0.08801641
87	0xbda785e6	-0.08179836
88	0x3e1348c8	0.14383233
89	0xbbc498dc	-0.0059996676
90	0x3ea4a34a	0.3215583
91	0xbceba761	-0.028766336
92	0x3d311c9e	0.043240182
93	0xbe93b51b	-0.2884911
94	0xbe176c59	-0.14787425
95	0x3ddee990	0.10884392
96	0xbe000aa2	-0.12504056
97	0x3e235aa9	0.15952553
98	0xbdf1c3a1	-0.118048914
99	0x3cd58e2e	0.026068773
100	0xbd952663	-0.07282712
101	0x3de2f856	0.110825226
102	0x3da0c121	0.078493364
103	0x3e145ec2	0.14489272
104	0x3e263b1c	0.16233486
105	0xbdfe9c4e	-0.124321565
106	0xbe87c7dd	-0.2651967
107	0xbc8dbfb8	-0.017303333
108	0x3e1f245c	0.15541214
109	0x3d40e570	0.04709381
110	0x3e33afa1	0.17547466
111	0xbe8e6894	-0.27814162
112	0x3e015d16	0.12633166
113	0xbdbfe40c	-0.09369668
114	0x3e480285	0.19532211
115	0x3d76e3f4	0.060275987
116	0xbd7af32f	-0.061267074
117	0xbe51e048	-0.20495713
118	0xbd90d162	-0.070711866
119	0xbdb921ba	-0.09039636
120	0x3dda7b63	0.106680654
121	0x3ee2997c	0.44257724
122	0xbdab8822	-0.08375575
123	0x3e08cafc	0.13358682
124	0x3d63efc6	0.055648588
125	0xbe46974d	-0.19393654
126	0x3e89f10a	0.2694171
127	0xbe2dfe20	-0.16991472

rnn.bias_hh_l0 f4 [128]
0	0x3d1df20b	0.03856091
1	0xbe3ab37a	-0.18232527
2	0x3e610dc8	0.21977913
3	0x3ea4cddf	0.32188317
4	0x3e25e044	0.16198832
5	0x3e72778e	0.23678419
6	0x3e74c2e4	0.2390247
7	0x3dbf19eb	0.09331115
8	0xbe064d6b	-0.1311547
9	0x3d891e4c	0.06695232
10	0x3d9b112f	0.07571637
11	0xbd903bc2	-0.07042648
12	0xbe9e80c0	-0.30957603
13	0xbdc6a36f	-0.09699141
14	0x3ca337ac	0.019924007
15	0xbc29e8ec	-0.010370474
16	0x3eca650e	0.39530224
17	0xbe0d9f9c	-0.13830417
18	0x3ddf61a5	0.10907296
19	0xbce81fb1	-0.028335424
20	0xbd0496cd	-0.032370377
21	0x3d12c3b3	0.035831165
22	0xbbf8258e	-0.0075728362
23	0x3d984bdd	0.07436345
24	0x3d0fb70c	0.035086676
25	0x3eabed20	0.3357935
26	0xbdc1593a	-0.09440847
27	0x3cec4b66	0.028844547
28	0x3df5239c	0.119696826
29	0x3d7346be	0.059393637
30	0xbcc14dcc	-0.023596667
31	0xbd98707a	-0.07443328
32	0x3eaff44f	0.3436608
33	0x3c1e2b7b	0.009653921
34	0x3d9d2062	0.07672192
35	0xbcb0f3fe	-0.02160072
36	0x3e86a543	0.2629796
37	0xbdc56333	-0.096380614
38	0x3ebf0be7	0.37313768
39	0x3d6439f4	0.05571933
40	0xbec26e3d	-0.3797473
41	0x3d03332f	0.032031234
42	0xbcf8b176	-0.030358057
43	0x3e090960	0.13382483
44	0xbddb8b9c	-0.10719988
45	0x3e189e22	0.14904073
46	0xbe2e9c44	-0.17051798
47	0xbe3765eb	-0.17909972
48	0xbd50e3d4	-0.050998524
49	0x3e38f8fe	0.18063733
50	0x3dbdb2dd	0.09262631
51	0xbddd0c84	-0.10793403
52	0xbea0dcb1	-0.31418374
53	0xbe0e8135	-0.13916476
54	0xbde047a7	-0.109511666
55	0xbd69d640	-0.05708909
56	0xbe5c0586	-0.21486482
57	0xba8ed46b	-0.0010897046
58	0xbd58419c	-0.052796945
59	0xbdad449a	-0.0846035
60	0x3c9e2427	0.019304348
61	0xbe8bb059	-0.2728298
62	0xbe7b96f3	-0.24569301
63	0xbd2709e7	-0.040780928
64	0x3d261a34	0.040552333
65	0xbde70009	-0.112793036
66	0xbe9d2ae9	-0.306968
67	0x3e19b501	0.15010454
68	0xbc797c42	-0.015227379
69	0x3e003faa	0.12524286
70	0xbd3ab578	-0.04558322
71	0xbd75f3de	-0.060047023
72	0xbe03b615	-0.12862428
73	0xbe097286	-0.13422593
74	0x3e0105b7	0.12599836
75	0xbe2b49fe	-0.16727445
76	0xbdc0b47c	-0.09409425
77	0xbd0339a4	-0.032037392
78	0xbe58369d	-0.21114583
79	0xbea7675c	-0.32696044
80	0x3d91b172	0.07113923
81	0x3e6f8f4a	0.23394504
82	0x3ec8223e	0.39088625
83	0x3b1ae380	0.0023634136
84	0x3d876122	0.066103235
85	0xbeb1430f	-0.34621474
86	0x3d4cc636	0.049993716
87	0x3b8aa1c2	0.004230709
88	0x3e1cf788	0.153288
89	0xbc29c124	-0.01036099
90	0x3e988fa9	0.29797104
91	0x3d448633	0.047979545
92	0x3d8b03f2	0.06787862
93	0xbe94100f	-0.28918502
94	0xbdaa3796	-0.083113834
95	0x3d531cb8	0.05154106
96	0xb5eb09fc	-1.751177e-06
97	0x3e00925c	0.12555832
98	0xbe0fa0f8	-0.14026248
99	0x3e1e7a61	0.15476371
100	0xbc9c6bfa	-0.019094456
101	0x3d5e1fe7	0.054229643
102	0x3c30e7b6	0.010797432
103	0x3e4124d0	0.18861699
104	0x3d759f09	0.05996612
105	0xbdfc20be	-0.123109326
106	0xbe3431e3	-0.17597155
107	0x3d53be27	0.051695015
108	0x3d439026	0.047744893
109	0xbd4ca1f2	-0.04995913
110	0x3e0e0ed6	0.13872847
111	0xbe62ec60	-0.22160482
112	0x3dcc54df	0.099771254
113	0x3cb38d36	0.02191792
114	0x3de4c867	0.11171036
115	0x3b978f2f	0.004625223
116	0xbe08963b	-0.13338558
117	0xbe761824	-0.24032646
118	0xbde18e49	-0.11013467
119	0xbd5713e0	-0.05250919
120	0x3e831fd9	0.25610235
121	0x3ece4c5f	0.40292642
122	0x3db5b0cd	0.08871613
123	0x3e28bc11	0.16477992
124	0xbba94c21	-0.005166546
125	0xbe4363d6	-0.19081053
126	0x3e349741	0.17635824
127	0xbdb8885b	-0.09010383

fc.weight f4 [54, 128]
0	0xbbb54917	-0.0055323946
1	0x3e5af639	0.21382989
2	0xbe02f5f7	-0.1278914
3	0x3db5744a	0.08860071
4	0x3e35caae	0.17753097
5	0xbe861c1b	-0.26193318
6	0x3daf2e65	0.08553771
7	0xbf132be1	-0.5748883
8	0xbdf39d2c	-0.118952125
9	0x3ef925f7	0.48661777
10	0x3e321ab0	0.17392993
11	0xbee11685	-0.43962494
12	0xbe671e2d	-0.22570105
13	0x3b272530	0.0025504343
14	0x3f3842d0	0.7197695
15	0x3d9757e4	0.07389811
16	0x3eb0fa53	0.34565982
17	0x3e10a942	0.14127067
18	0x3e52706c	0.20550698
19	0xbea6d5b7	-0.32584926
20	0x3e1d2273	0.15345173
21	0x3e559d0a	0.20860687
22	0x3dc2b14a	0.095064715
23	0x3d4d1020	0.050064206
24	0xbe46cbe5	-0.19413717
25	0x3eb700bd	0.3574275
26	0x3e979844	0.29608357
27	0xbe9b5625	-0.3033916
28	0x3e56ab79	0.20963849
29	0xbebb31d6	-0.3656146
30	0x3e291c2a	0.1651465
31	0xbedd06c0	-0.43169212
32	0x3de1a0ab	0.11016973
33	0x3db60971	0.088885196
34	0xbeb740f0	-0.3579173
35	0x3e5dc483	0.21656995
36	0x3ea7ceb8	0.327749
37	0xbeae2387	-0.3401148
38	0x3af9e0c5	0.0019064179
39	0xbe55d2be	-0.20881173
40	0x3aafb31b	0.0013404818
41	0xbb2eeda9	-0.002669195
42	0xbee89ff0	-0.45434523
43	0x3ea9d70a	0.33171874
44	0x3e3a8f60	0.18218756
45	0x3f0ae0d6	0.5424932
46	0x3eca1d50	0.3947549
47	0x3dcc45cb	0.099742495
48	0xbedef59f	-0.4354677
49	0x3e7bcc79	0.24589719
50	0xbea2b8ef	-0.31781718
51	0xbe3061bb	-0.17224781
52	0x3ecacf8b	0.39611468
53	0x3e3a1b34	0.1817444
54	0xbcf6b0dd	-0.030113632
55	0x3d884e84	0.06655601
56	0x3e86eb97	0.26351616
57	0xbe82d60c	-0.2555393
58	0x3c0b7ec0	0.008514106
59	0xbea0b456	-0.31387585
60	0x3bb03c11	0.005378254
61	0x3e38ec7f	0.18058966
62	0x3dcfa759	0.10139341
63	0x3ec18a6c	0.3780092
64	0x3d65c928	0.05610004
65	0x3e3e4d50	0.1858418
66	0xbe9a89d2	-0.30183274
67	0xbf008b45	-0.5021251
68	0x3e01e345	0.12684353
69	0xbdd252fc	-0.10269734
70	0x3ec9e464	0.3943206
71	0xbf05d759	-0.5228172
72	0xbda92ecb	-0.08260878
73	0x3e6c1c34	0.23057634
74	0xbc433be5	-0.011916135
75	0xbecb87ca	-0.39752036
76	0x3e427032	0.18988112
77	0x3e3210ae	0.17389175
78	0x3f25eac6	0.6481136
79	0xbea56f6e	-0.32311577
80	0x3dd81a42	0.10551883
81	0xbf132a65	-0.57486564
82	0x3f2c72c6	0.6736263
83	0xbea54f84	-0.32287228
84	0xbe1b280c	-0.15151995
85	0xbea44376	-0.3208272
86	0x3e933307	0.28749868
87	0xbea3a79c	-0.31963813
88	0x3e472322	0.19446996
89	0x3efe356f	0.49650142
90	0x3f25b99f	0.6473636
91	0xbd9d8725	-0.076917924
92	0xbd8989a8	-0.06715709
93	0xbe39f954	-0.18161517
94	0x3e63b124	0.22235543
95	0xbe53cb39	-0.20682992
96	0x3e922537	0.28544018
97	0x3edf95a0	0.43668842
98	0xbe6717ae	-0.22567627
99	0xbf08c3f3	-0.53423995
100	0x3e84f6dd	0.25969592
101	0xbe144a62	-0.144815
102	0x3e40ee47	0.18840896
103	0xbdbcb02b	-0.09213289
104	0xbe4bcd2e	-0.19902489
105	0xbd210308	-0.03930953
106	0x3e3e1c4a	0.18565479
107	0x3ec8822c	0.39161813
108	0x3d926b1e	0.07149337
109	0xbe5ccf40	-0.21563435
110	0x3e46581f	0.19369553
111	0x3e849166	0.2589218
112	0xbe4b9ae9	-0.19883312
113	0xbe8f5830	-0.2799697
114	0xbe6f88e7	-0.23392068
115	0x3de48a44	0.111591846
116	0x3f23f0e8	0.6403947
117	0x3e5e70ac	0.21722668
118	0xbeb751fb	-0.35804734
119	0x3f189301	0.5959931
120	0xbcc21115	-0.023689786
121	0xbebfecd2	-0.37485367
122	0xbe12bce0	-0.14329863
123	0x3e1b009d	0.15136953
124	0xbd5449a6	-0.05182805
125	0x3e01f70a	0.12691894
126	0x3e86e730	0.26348257
127	0x3eb6da26	0.3571331
128	0xbe575331	-0.21027829
129	0x3e4cf72f	0.20016168
130	0x3e787a3b	0.24265377
131	0xbe834c11	-0.25643972
132	0xbee1d607	-0.44108602
133	0x3e8d9865	0.2765533
134	0xbed1260a	-0.40849334
135	0xbd8b553c	-0.068033665
136	0xbdca1ce2	-0.0986879
137	0xbf57ebc4	-0.84344125
138	0x3cf3d21f	0.02976328
139	0x3e3b2755	0.18276723
140	0x3dda0c61	0.10646892
141	0x3dceb064	0.100922376
142	0xbeaf7d9f	-0.3427553
143	0x3e3ab63a	0.18233576
144	0x3ea910a2	0.33020502
145	0x3ef918e3	0.486518
146	0xbe159f11	-0.1461146
147	0xbe7dd326	-0.24787578
148	0x3e95276c	0.2913164
149	0x3f2bb39c	0.6707094
150	0xbec62bd0	-0.387053
151	0xbe44d600	-0.1922226
152	0x3ceccd05	0.028906355
153	0xbe6ff151	-0.23431899
154	0xbe48f3d8	-0.19624269
155	0x3f5cebaf	0.86297125
156	0x3da947f0	0.08265674
157	0x3eb9cf55	0.36290994
158	0xbe89e147	-0.26929685
159	0xbee377a1	-0.44427207
160	0x3e76a011	0.24084498
161	0xbe6cd602	-0.23128513
162	0x3e9d69db	0.30744824
163	0xbe884fea	-0.2662347
164	0x38d57b02	0.000101795435
165	0x3e32e9c4	0.17471987
166	0x3d625890	0.05526024
167	0xbe037d7a	-0.12840834
168	0xbd3aac2c	-0.045574352
169	0x3f0abb28	0.5419183
170	0x3e47e5cd	0.19521256
171	0x3eb55f2f	0.35424182
172	0x3de75404	0.112953216
173	0xbe96990f	-0.2941365
174	0xbcc0d01c	-0.023536734
175	0x3e77e24f	0.24207424
176	0x3f608bc2	0.87713253
177	0xbe8f4e6d	-0.27989522
178	0x3ec2440a	0.37942535
179	0x3e7b7000	0.24554443
180	0xbe0a2be8	-0.13493311
181	0xbd68f9bb	-0.056878787
182	0x3e8c95e1	0.274581
183	0xbedbf64e	-0.42961353
184	0x3da32176	0.079653665
185	0x3d51906d	0.051163126
186	0x3e3819e2	0.17978624
187	0x3eab9ea8	0.33519483
188	0x3ec9f4ca	0.39444572
189	0x3de4b477	0.111672334
190	0xbe5f0677	-0.2177981
191	0xbebb8d1d	-0.36631098
192	0xbe97dd5d	-0.29661074
193	0x3d482ab6	0.048868857
194	0x3e6b9f7d	0.23010059
195	0xbf53cb31	-0.8273192
196	0xbdac4302	-0.08411218
197	0x3e4b967e	0.19881627
198	0xbec0b717	-0.37639686
199	0x3e0887ef	0.13333105
200	0x3f21bc66	0.631781
201	0xbe5f0c9e	-0.21782157
202	0xbe955e5f	-0.29173562
203	0x3d447be0	0.0479697
204	0x3e782575	0.24233039
205	0xbdca3510	-0.09873402
206	0xbf20965e	-0.6272944
207	0x3df43338	0.11923832
208	0xbe3258b0	-0.17416644
209	0xbf28dbf0	-0.659606
210	0x3e0af67a	0.13570586
211	0x3d41c5e4	0.047307864
212	0x3eb330b4	0.34998095
213	0x3f160cd3	0.5861332
214	0x3e23847a	0.15968505
215	0x3ebf7be2	0.37399203
216	0xbb3afd1e	-0.0028532217
217	0xbe0e3e74	-0.13891011
218	0xbd136681	-0.035986427
219	0x3e7462ec	0.2386586
220	0xbeec0070	-0.46094084
221	0x3ef0506c	0.46936357
222	0xbe307b1c	-0.17234462
223	0xbd957051	-0.07296813
224	0xbf182e78	-0.59445906
225	0x3e697867	0.22799836
226	0xbe946800	-0.28985596
227	0xbecad4d6	-0.39615506
228	0xbe9b9369	-0.30385903
229	0x3f260f3d	0.64867
230	0xbc638682	-0.01388705
231	0xbf38c992	-0.7218257
232	0xbe2ecda9	-0.1707064
233	0x3e934328	0.28762174
234	0x3ee95836	0.45575112
235	0xbebabbba	-0.3647135
236	0x3ebebaa8	0.37251782
237	0x3e9d1d60	0.30686474
238	0xbe791648	-0.24324906
239	0xbe6f60fd	-0.23376842
240	0x3e8b0cc9	0.27158192
241	0xbda8214c	-0.08209476
242	0x3c0763a4	0.008263502
243	0xbd9b9fd0	-0.07598841
244	0xbf11745e	-0.5681819
245	0xbdb992e9	-0.09061224
246	0x3e903f3b	0.2817324
247	0x3e3fe192	0.18738392
248	0xbea85c6c	-0.32883012
249	0xbf3cd781	-0.7376633
250	0x3e1658e8	0.14682353
251	0x3f060f38	0.5236697
252	0xbf05f211	-0.5232249
253	0x3d01397b	0.03154896
254	0xbea4659e	-0.32108778
255	0xbcce27b3	-0.025165414

fc.bias f4 [54]
0	0x3ddcc9fe	0.107807145
1	0xbeeacb41	-0.45858195
2	0xbea41201	-0.32044986
3	0xbe814310	-0.25246477
4	0xbe37ca02	-0.17948154
5	0xbe9af354	-0.3026377
6	0xbe9dc874	-0.30816996
7	0xbe2059f4	-0.15659314
8	0x3e257e93	0.16161565
9	0xbf05cda5	-0.52266914
10	0xbe83590b	-0.25653872
11	0xbdd259a3	-0.10271003
12	0xbd6c6970	-0.05771774
13	0xbdd5f292	-0.10446657
14	0xbd653daa	-0.05596701
15	0xbe9880e8	-0.29785848
16	0xbf0f249d	-0.5591524
17	0xbe988305	-0.2978746
18	0xbc8323d5	-0.016008297
19	0xbe7740f1	-0.24145867
20	0xbe440514	-0.19142562
21	0xbe5cec48	-0.21574509
22	0xbec9e59d	-0.39432994
23	0xbf294f08	-0.6613622
24	0xbe830706	-0.25591296
25	0xbde2cd5d	-0.11074326
26	0xbf67f24c	-0.9060409
27	0xbf65a9d0	-0.8971224
28	0xbf72dc36	-0.94867265
29	0xbf79ed80	-0.9762802
30	0xbf76ea19	-0.96450955
31	0xbf7c2300	-0.98490906
32	0xbf7831c9	-0.96950966
33	0xbf561643	-0.8362772
34	0xbf705ab3	-0.93888396
35	0xbf5156a2	-0.81772816
36	0xbf60322b	-0.8757655
37	0xbf62e39f	-0.8862857
38	0xbf4ef691	-0.8084498
39	0xbf658b52	-0.8966571
40	0xbf631622	-0.88705647
41	0xbf55870d	-0.83409196
42	0xbf82ab82	-1.020859
43	0xbf6bf100	-0.9216461
44	0xbf5c12a4	-0.85965943
45	0xbf65889b	-0.8966157
46	0xbf6411d4	-0.89089704
47	0xbf6e78a6	-0.93152845
48	0xbf4d1578	-0.80110884
49	0xbf64cd25	-0.89375526
50	0xbf755941	-0.95839316
51	0xbf621ef0	-0.88328457
52	0xbf7571c0	-0.95876694
53	0xbea8e267	-0.3298523
