神经网络作业/A7/models/name_generation_rnn2_JP_doublenamekongge.pth (torch, 124052 bytes, 6 tensors)

rnn.weight_ih_l0 f4 [128, 54]
0	0x3f4c1e03	0.79733294
1	0xbf2e59e0	-0.6810589
2	0xbf9923b7	-1.1964024
3	0xbe340056	-0.17578253
4	0xbea8c652	-0.32963806
5	0x3e969fed	0.2941889
6	0xbeeaa451	-0.45828488
7	0xbeb9cbc5	-0.36288276
8	0x3ed6ec7c	0.41977298
9	0xbeda2eb6	-0.42613763
10	0xbe35073b	-0.1767854
11	0xbf23ad2b	-0.6393611
12	0xbf6bcba9	-0.92107636
13	0xbeab7f53	-0.33495578
14	0x3d2f4964	0.0427946
15	0xbe8ad98c	-0.271191
16	0x3d92dadd	0.07170651
17	0xbec8bfa7	-0.3920872
18	0xbf213a1b	-0.62979287
19	0xbfe2da13	-1.7722801
20	0x3f3573bd	0.7087973
21	0xbf9c7a37	-1.2224797
22	0xbd74e14b	-0.05978517
23	0x3db34463	0.08753278
24	0xbe3f4800	-0.1867981
25	0x3f3cbd40	0.7372627
26	0x3d015f52	0.031585045
27	0x3d12cb66	0.035838507
28	0x3d85ac31	0.065269835
29	0x3c8a2344	0.01686252
30	0x3d8b34d1	0.06797183
31	0xbd2f28ab	-0.042763393
32	0x3d473b22	0.048640378
33	0xbd8e62d2	-0.06952442
34	0xbd4978b3	-0.049187373
35	0xbd9aa421	-0.07550836
36	0x3da8742f	0.08225285
37	0xbd1d6e1d	-0.03843509
38	0x3c958778	0.018253073
39	0xbd2394f1	-0.039936963
40	0xbc86e100	-0.01646471
41	0xbb5f03c0	-0.0034029335
42	0xbd7f0813	-0.06226356
43	0x3d95b8d1	0.073106416
44	0xbdaad1f9	-0.0834083
45	0x3c3060e8	0.010765292
46	0xbd8f3926	-0.06993322
47	0xbda127ca	-0.07868917
48	0x3da3efcb	0.08004721
49	0x3d9a2909	0.07527358
50	0x3d4c19d2	0.04982931
51	0xbd8fd1b6	-0.07022421
52	0x3f13dc92	0.5775844
53	0x402132d1	2.5187266
54	0x3ec7a4ee	0.3899302
55	0xbe4d6bff	-0.20060728
56	0xbf89887a	-1.0744774
57	0x3e545891	0.2073691
58	0x3df55d8d	0.11980734
59	0xbf5f6532	-0.87263787
60	0x3e95fa62	0.2929259
61	0x3f314db7	0.6925921
62	0xbe1824ec	-0.14857835
63	0x3f88f84c	1.0700774
64	0xbf221757	-0.63316864
65	0xbf5d7cef	-0.8651876
66	0x3f2359f4	0.6380913
67	0xbfa70176	-1.3047321
68	0xbf0b80bd	-0.54493314
69	0x3dc83a44	0.09776738
70	0x3f864d40	1.0492325
71	0x3e0080a1	0.12549068
72	0x3e46673a	0.19375315
73	0xbfea3391	-1.8296987
74	0x3efceff8	0.49401832
75	0xbed690f4	-0.41907465
76	0xbf203dd3	-0.62594336
77	0x3efbf038	0.4920671
78	0xbf088224	-0.5332358
79	0x3ed3fb95	0.4140288
80	0x3c539bb8	0.012915544
81	0x3cc41450	0.023935467
82	0xbd868d90	-0.0656997
83	0xbd817300	-0.06320763
84	0xbbc0b1b0	-0.005880557
85	0x3da2f1ab	0.07956251
86	0x3da588d5	0.08082739
87	0xbd844493	-0.06458392
88	0xbd2e7222	-0.042589314
89	0xbc6e5370	-0.01454626
90	0xbc6d7830	-0.014493987
91	0x3d6c9502	0.057759292
92	0x3d4bccba	0.04975579
93	0xbd520516	-0.05127438
94	0xbd1992ac	-0.037493393
95	0xbd860157	-0.06543224
96	0x3cbf997c	0.023388617
97	0xbd8d51dd	-0.0690038
98	0x3d05b2d2	0.03264124
99	0x3d6d5626	0.057943486
100	0xbd175754	-0.036948517
101	0xbd16b471	-0.036793176
102	0xbc823590	-0.015894681
103	0xbd4551f9	-0.04817388
104	0xbda3b228	-0.07992965
105	0xbd4e1444	-0.050312296
106	0xc0023d70	-2.0349998
107	0x4037857c	2.8675222
108	0xbea89583	-0.32926568
109	0xbfa9224b	-1.321359
110	0x3e39c312	0.1814082
111	0x3f9c9a9c	1.2234683
112	0xbeba79c7	-0.36421034
113	0xbf073b64	-0.52825
114	0x3fcbdd9e	1.5927007
115	0x3e259d5c	0.16173309
116	0x3e3bc665	0.183374
117	0x3d81846f	0.06324088
118	0x4016f924	2.3589563
119	0x3e37dadd	0.17954583
120	0x3f4136df	0.7547435
121	0x40025c31	2.036877
122	0x3f1ed62f	0.6204557
123	0x3ce9610a	0.028488655
124	0x3e45ff24	0.1933561
125	0xbe3461f7	-0.17615496
126	0xbf587f1e	-0.84568965
127	0xbf44676e	-0.7672032
128	0x3f41ba30	0.75674725
129	0x3ccfba8a	0.025357503
130	0x3cfdac22	0.030965868
131	0xbf61bd70	-0.88179684
132	0xbe3ef360	-0.18647528
133	0xbf394317	-0.72367996
134	0x3c8477d8	0.016170427
135	0x3d5a0bfe	0.053234093
136	0x3d5b05f6	0.05347248
137	0xbd0baa3f	-0.034097906
138	0xbda873f8	-0.08225244
139	0xbcc77d8c	-0.024351858
140	0x3d2a806a	0.04162637
141	0x3c49a9b8	0.0123085305
142	0xbc8eae60	-0.017417133
143	0x3b899760	0.0041989535
144	0x3d182a6e	0.03714984
145	0xbd87185e	-0.065964445
146	0x3d848ee5	0.064725675
147	0x3c832ef0	0.016013592
148	0x3d6a372a	0.057181515
149	0x3d0156fe	0.031577103
150	0xbdac0a0e	-0.08400355
151	0xbbff2f90	-0.0077876523
152	0xbd083baa	-0.033260025
153	0xbc8a9c2c	-0.016920172
154	0x3d43ded6	0.047819935
155	0x3c3d80e8	0.011566378
156	0x3bc724e0	0.006077394
157	0x3db33519	0.08750362
158	0x3cbb5988	0.02286984
159	0xbd1b40a3	-0.03790344
160	0x3f7c5fa7	0.98583454
161	0x40642cba	3.56523
162	0xbdaef955	-0.0854365
163	0x3e43d792	0.19125202
164	0x3f2560ef	0.64601034
165	0x401a0f3c	2.4071798
166	0x3dc3ae82	0.09554769
167	0x3f81561c	1.0104403
168	0xbf68da30	-0.9095793
169	0xbf48e272	-0.7847053
170	0xbf452ca6	-0.77021253
171	0x3f1f71d9	0.6228309
172	0x3f2291e2	0.6350385
173	0x3f830c23	1.0238079
174	0x3e556e87	0.20842944
175	0x4030f07f	2.7646787
176	0xbf116a6c	-0.5680301
177	0x3ed829dd	0.4221944
178	0x3f45e3aa	0.7730051
179	0xbef6dd7e	-0.4821586
180	0x3f70d9c1	0.94082266
181	0x3f1da888	0.61585283
182	0x3fa09039	1.2544013
183	0x3d79bb88	0.06096986
184	0xbfc9bb50	-1.5760288
185	0xbfad40c2	-1.3535388
186	0x3f0163cd	0.5054291
187	0x403ce42a	2.951426
188	0x3d27a662	0.04093016
189	0xbd69158f	-0.056905326
190	0xbd992382	-0.07477476
191	0x3c4de210	0.0125661045
192	0x3d8984dd	0.06714795
193	0xbd1f6330	-0.038912952
194	0xbd2c477d	-0.042060364
195	0x3d30843a	0.04309485
196	0xbd8ccb08	-0.06874663
197	0xba847a00	-0.001010716
198	0x3c4aa5b8	0.012368612
199	0x3d2a6b72	0.041606374
200	0xbce99fb0	-0.028518528
201	0xbd164d34	-0.03669472
202	0xbd122e72	-0.035688825
203	0xbdb29745	-0.087202586
204	0xbcfdf536	-0.031000715
205	0xbd070602	-0.032964714
206	0xbba84e60	-0.005136296
207	0xbd5388ef	-0.051644262
208	0xbd135992	-0.035974093
209	0x3d46499a	0.048410036
210	0xbd817380	-0.06320858
211	0xbda06342	-0.07831432
212	0x3d318aa2	0.0433451
213	0x3cf80130	0.030274004
214	0x3cc80b7a	0.024419535
215	0x3fb720d9	1.4306899
216	0x3f4a7236	0.7908052
217	0xbf198a14	-0.59976315
218	0xbf304f9a	-0.6887146
219	0xbe989ba1	-0.29806235
220	0x3f164e5d	0.5871332
221	0xbfb5ebe8	-1.4212618
222	0xbf81857a	-1.0118859
223	0xbedb00e6	-0.42774123
224	0x3f23a3d3	0.6392185
225	0x3eb23c41	0.34811595
226	0x3d9417e0	0.07231116
227	0xbf75cc8d	-0.96015245
228	0x3f09cc1a	0.5382706
229	0xbec1a024	-0.3781749
230	0x3fb082a5	1.378987
231	0xbf647da4	-0.8925421
232	0xbf84294a	-1.03251
233	0x3ef95cd5	0.48703638
234	0xbf8578af	-1.0427455
235	0xbf0a9054	-0.5412648
236	0x3e236c33	0.15959243
237	0xbea8c5b0	-0.32963324
238	0xbe4b6ac1	-0.19864942
239	0xbf29660c	-0.66171336
240	0xbd88a5ae	-0.06672226
241	0xbfc4dfc9	-1.5380794
242	0x3cb0c000	0.021575928
243	0x3ba83700	0.0051335096
244	0x3bc9a450	0.006153621
245	0x3da157eb	0.07878097
246	0xbd374dce	-0.044751935
247	0xbd5d2e56	-0.053999268
248	0xbd3ab65a	-0.04558406
249	0x3bc910b0	0.0061360225
250	0xbd8540c1	-0.065064915
251	0x3d01d0ce	0.031693272
252	0x3d19913e	0.03749203
253	0xbd752e1a	-0.05985842
254	0x3d81e0f5	0.06341735
255	0x3c80a77c	0.015704863

rnn.weight_hh_l0 f4 [128, 128]
0	0xbdd5f2d8	-0.104467094
1	0xbc2c728d	-0.010525358
2	0x3e689353	0.2271245
3	0xbd7f0917	-0.062264528
4	0x3ade5e84	0.0016965424
5	0x3dc70cd4	0.09719244
6	0x3e4971cc	0.19672316
7	0xbb0f7f60	-0.002189599
8	0xbd518406	-0.051151298
9	0x3c615396	0.013752839
10	0xbd38d0c3	-0.045120966
11	0xbccaedaa	-0.02477153
12	0x3d96f417	0.07370775
13	0x3da73084	0.081635505
14	0xbe1f8595	-0.15578301
15	0x3d378feb	0.044814985
16	0xbd90cf60	-0.07070804
17	0x3e36db61	0.17857124
18	0xbdb72771	-0.0894307
19	0x3ceead5b	0.029135397
20	0x3d936b7d	0.07198236
21	0x3d19e507	0.037571933
22	0xbc854995	-0.016270438
23	0xbe3590e9	-0.1773106
24	0xbd6c1000	-0.057632446
25	0xbe066d31	-0.1312759
26	0xbe0e1bdf	-0.1387782
27	0x3b43fc15	0.0029904891
28	0x3cc89d8e	0.02448919
29	0xbe33f2f8	-0.17573154
30	0x3e269271	0.162668
31	0x3d1c6b33	0.03818817
32	0xbd9541f8	-0.07287973
33	0x3dcc3979	0.099718995
34	0x3df262ab	0.11835226
35	0x3cd52b03	0.026021486
36	0xbd345af0	-0.044032037
37	0xbda83aa9	-0.082143135
38	0x3da475d2	0.08030285
39	0xbdfbab6f	-0.12288558
40	0x3dd58b36	0.10426943
41	0x3e208f77	0.15679727
42	0x3d97335a	0.073828414
43	0x3e1b149b	0.15144579
44	0xbdf8cc37	-0.12148326
45	0xbe278a51	-0.16361357
46	0x3e3049d6	0.17215666
47	0xbd8cff88	-0.06884676
48	0x3d5e2410	0.05423361
49	0xbe076dda	-0.13225499
50	0xbc6daf02	-0.014507057
51	0x3e4c4683	0.19948773
52	0x3c021c41	0.007941307
53	0xbd91a8d6	-0.07112281
54	0x3d236a02	0.03989602
55	0xba3e8331	-0.0007267474
56	0x3de9963c	0.11405608
57	0xbe20adb2	-0.1569126
58	0xbeb878b7	-0.36029598
59	0xbe3d5629	-0.18489899
60	0xbe3ea63b	-0.186181
61	0xbe2a8226	-0.1665121
62	0x3b0dbb0d	0.0021626384
63	0x3da26f0d	0.079313375
64	0x3c8b2d42	0.016989354
65	0x3cd524a2	0.026018444
66	0x3e1cd340	0.1531496
67	0x3e055694	0.13021308
68	0x3d90cd11	0.07070363
69	0xbd52c88c	-0.051460788
70	0x3d0e59bb	0.034753542
71	0x3ca816af	0.020518629
72	0xbe32891f	-0.1743512
73	0x3e7fc715	0.24978288
74	0x3da7918e	0.08182059
75	0x3e3ae4e4	0.18251377
76	0x3dcd2a72	0.100178614
77	0x3b121490	0.0022290088
78	0xbd6d697a	-0.05796192
79	0xbd0c51f5	-0.034257848
80	0xbceadd7f	-0.02867007
81	0x3d82375b	0.063582145
82	0xbe27d91b	-0.16391413
83	0xbcb6ef27	-0.022330834
84	0x3d7ad28d	0.061235953
85	0x3d011b91	0.03152043
86	0x3e2dcbd0	0.1697228
87	0xbd27439a	-0.040835954
88	0xbe6d90fa	-0.23199835
89	0x3dadb15c	0.08481094
90	0x3da65c64	0.08123091
91	0x3d9e2b9c	0.077231616
92	0xbe61ed66	-0.22063217
93	0xbd29da09	-0.0414677
94	0x3d110a19	0.03541002
95	0x3ce9afc0	0.028526187
96	0x3d8b83be	0.06812237
97	0x3c803f72	0.015655253
98	0x3d806fde	0.06271337
99	0xbe0bb53d	-0.13643356
100	0xbd7945a5	-0.060857434
101	0xbdeea4b6	-0.1165251
102	0xbcb95133	-0.022621727
103	0x3c5b5476	0.013386836
104	0xbdcb9f84	-0.099425346
105	0x3db71b6e	0.08940779
106	0xbcc1e5ed	-0.023669207
107	0xbd68a184	-0.05679466
108	0xbe26ad75	-0.16277106
109	0x3e94ef68	0.29088902
110	0xbb5bffa0	-0.0033569112
111	0xbaa3592e	-0.0012462491
112	0xbe40a572	-0.18813112
113	0x3d850754	0.06495538
114	0xbe1aa2f4	-0.15101224
115	0xbc10f4b3	-0.008847403
116	0x3daef6cb	0.08543166
117	0x3d4aa2b7	0.049471583
118	0x3eb2d4cd	0.3492798
119	0xbdaa57b4	-0.08317509
120	0xbdbf5dfe	-0.093440995
121	0x3e42298c	0.18961161
122	0x3dc463ea	0.095893696
123	0xbe08c35f	-0.13355778
124	0x3e0cee37	0.13762747
125	0xbd86d6bd	-0.06583927
126	0x3d9ac49b	0.07557031
127	0xbd2a7939	-0.041619513
128	0x3d498bdf	0.049205657
129	0xbe0e437e	-0.13892934
130	0x3df5ba3b	0.11998411
131	0xbd4cb875	-0.0499806
132	0xbe1d7f47	-0.15380584
133	0x3ddc75c1	0.10764647
134	0x3e3522eb	0.17689101
135	0x3dbdf388	0.092749655
136	0x3dd06f00	0.101774216
137	0x3e9653ea	0.29360896
138	0x3dd87804	0.10569766
139	0xbde4cdca	-0.11172064
140	0xbe04fa76	-0.12986168
141	0xbe40b120	-0.18817568
142	0xbc77556a	-0.015096048
143	0x3e1c3f6a	0.15258566
144	0xbdfa2d45	-0.12215666
145	0xbe01bbf9	-0.12669362
146	0x3e019185	0.12653168
147	0xbd8153d3	-0.06314816
148	0x3ddf26b7	0.10896056
149	0xbe08fbde	-0.1337733
150	0x3e74120d	0.23835011
151	0x3d32898f	0.043588217
152	0xbecb2d87	-0.39683172
153	0x3e330708	0.17483151
154	0xbe559cd9	-0.20860614
155	0xbe5abfe4	-0.21362263
156	0x3d1ac2e0	0.037783504
157	0xbd66137d	-0.05617093
158	0xbdd904e8	-0.10596639
159	0xbe444cef	-0.19169973
160	0x3c7e0d07	0.015506036
161	0xbc59ef8b	-0.01330174
162	0xbe71dc54	-0.23619205
163	0x3d78f919	0.060784433
164	0xbc3bfd93	-0.011474031
165	0xbe5bd532	-0.21468046
166	0x3e94183c	0.2892474
167	0x3e1ae510	0.15126443
168	0x3e83176b	0.25603804
169	0x3d8fae81	0.07015706
170	0x3ce402d9	0.02783339
171	0xbdb4a149	-0.08819825
172	0x3ecc3885	0.3988687
173	0xbdbdf345	-0.092749156
174	0x3d8fb3bb	0.07016703
175	0x3c99710f	0.018730668
176	0x3d55be2b	0.05218331
177	0xbe981557	-0.2970378
178	0x3e179486	0.14802751
179	0x3cee128e	0.029061582
180	0x3e08eb7a	0.13371077
181	0xbe6bab79	-0.2301463
182	0x3e580d5d	0.21098848
183	0xbe9b06ba	-0.3027857
184	0x3df0d349	0.117590494
185	0x3b7b8367	0.0038377882
186	0xbda86925	-0.0822318
187	0xbd931d13	-0.0718328
188	0x3e83f203	0.25770578
189	0xbe8c7b2f	-0.27437732
190	0x3dac915f	0.08426165
191	0x3dafa9fe	0.08577345
192	0xbea36380	-0.3191185
193	0xbe04b644	-0.12960154
194	0x3d207db5	0.039182384
195	0x3e89e3b9	0.2693155
196	0x3e94d566	0.2906906
197	0xbe2d604a	-0.16931263
198	0x3da8c6d0	0.082410455
199	0x3e870899	0.26373747
200	0xbe5d45b8	-0.21608627
201	0x3e7bdfc6	0.24597082
202	0xbd4020aa	-0.04690615
203	0xbd3980b5	-0.04528876
204	0x3dece2a7	0.11566668
205	0xbe4c2397	-0.19935451
206	0x3de4e539	0.11176533
207	0x3e2f2559	0.17104091
208	0x3e329d09	0.17442717
209	0x3e202b31	0.15641476
210	0xbe248ba1	-0.16068889
211	0xbc041967	-0.008062697
212	0x3ea20a11	0.31648305
213	0x3d43ae78	0.04777381
214	0xbc9d15a0	-0.01917535
215	0x3e6b06e4	0.22951847
216	0x3f003c8d	0.50092393
217	0xbde9ad50	-0.1141001
218	0x3d73f09d	0.05955564
219	0xbe9e1df1	-0.30882218
220	0x3e79a90b	0.24380891
221	0x3dc276a4	0.09495285
222	0x3bc31239	0.0059531
223	0xbd026240	-0.03183198
224	0xbea0935e	-0.31362432
225	0xbe16a9e7	-0.1471325
226	0x3e24060b	0.1601793
227	0x3e90e6f1	0.28301194
228	0xbd260479	-0.04053161
229	0xbdc6faef	-0.097158305
230	0x3e040f08	0.12896359
231	0x3ee42592	0.44559914
232	0xbdddf576	-0.108378336
233	0xbe28998d	-0.16464825
234	0x3e349341	0.17634298
235	0x3ced450a	0.028963584
236	0x3e229e42	0.15880683
237	0xbe7e3612	-0.24825314
238	0x3b7f1935	0.0038924937
239	0x3e1e91d7	0.15485321
240	0x3e0235ff	0.1271591
241	0xbf18e663	-0.5972654
242	0x3ed480c9	0.41504505
243	0x3cbf58d2	0.023357783
244	0xbdb12b4b	-0.086508356
245	0xbe859bf4	-0.26095545
246	0xbc9eb04f	-0.01937118
247	0xbd5233a9	-0.0513188
248	0xbe01c544	-0.12672907
249	0x3ea46516	0.32108372
250	0xbe43e5e1	-0.1913066
251	0xbe4f3e1e	-0.2023854
252	0xbead04c3	-0.33792695
253	0xbebc1619	-0.3673561
254	0xbe1ab56a	-0.15108266
255	0xbd913fa9	-0.0709222

rnn.bias_ih_l0 f4 [128]
0	0xbe38ab20	-0.18034029
1	0xbed23957	-0.41059372
2	0x3e216685	0.15761764
3	0x3ee8de67	0.4548218
4	0x3d214d19	0.039380167
5	0x3d9005b9	0.070323415
6	0x3da6d429	0.08145935
7	0xbde60303	-0.11231043
8	0xbd9945db	-0.07484027
9	0x3e4d2530	0.20033717
10	0x3e6ca3a2	0.23109296
11	0xbd98b516	-0.074564144
12	0xbf065220	-0.5246906
13	0xbe862928	-0.26203275
14	0x3dbb64ac	0.09150061
15	0xbe4d1fc5	-0.2003165
16	0x3d85393e	0.06505059
17	0xbe498be2	-0.19682267
18	0x3e12d035	0.14337237
19	0xbda35c56	-0.07976596
20	0x3d2e91ec	0.04261963
21	0xbdd48c41	-0.10378314
22	0x3cf94ac7	0.030431164
23	0xbd0a2f7c	-0.03373669
24	0x3e0fdd6f	0.14049314
25	0xbd6c045a	-0.057621337
26	0xbeb18ac3	-0.3467618
27	0xbe00191d	-0.1250958
28	0x3b797f0a	0.0038070106
29	0xbd9242d8	-0.07141656
30	0x3dbec8c7	0.09315639
31	0xbd69e0ab	-0.057099026
32	0x3eae7342	0.3407231
33	0xbc872d6a	-0.016501147
34	0x3e1effeb	0.15527312
35	0xbe4f8a62	-0.20267633
36	0xbdccbf18	-0.09997386
37	0xbe1a7329	-0.15082993
38	0x3df1b722	0.11802508
39	0x3d3d3091	0.046188895
40	0xbe18cf7b	-0.14922898
41	0xbc0de8bd	-0.008661446
42	0x3d6cab27	0.05778041
43	0xbdd3db9f	-0.10344624
44	0x3c8b3cb2	0.016996715
45	0x3da6edcb	0.08150824
46	0xbe8ae55d	-0.27128115
47	0xbea754d4	-0.32681906
48	0xbe93bd91	-0.28855565
49	0xbd3b34eb	-0.045704763
50	0x3c947776	0.01812337
51	0xbe84568a	-0.25847274
52	0xbe5b1ef2	-0.21398523
53	0xbe7d39c5	-0.24729069
54	0x3eacb383	0.33730707
55	0x3d02ae8e	0.03190475
56	0xbcd2b070	-0.025718898
57	0xbe48fd7e	-0.1962795
58	0xbd39abe8	-0.04532996
59	0x3d6d3eb2	0.05792112
60	0xbd4138b2	-0.04717321
61	0xbd1ae832	-0.037819095
62	0xbd9f2b59	-0.0777194
63	0xbdd1e393	-0.102484845
64	0x3cb677a7	0.022273852
65	0xbca0cbf9	-0.019628512
66	0xbe5e269e	-0.21694419
67	0xbb9863eb	-0.004650583
68	0x3dc02dcf	0.09383737
69	0x3d17c37a	0.037051655
70	0x3d67d791	0.056602065
71	0x3e400768	0.18752825
72	0xbe5f7531	-0.21822049
73	0x3ec0df80	0.37670517
74	0x3e32fe03	0.1747971
75	0x3d2d6b62	0.042338736
76	0x3c8f1258	0.017464802
77	0xbddd6456	-0.10810153
78	0xbce2fefa	-0.027709473
79	0xbee5ed28	-0.44907498
80	0xbcc393e8	-0.023874238
81	0x3d8b8fe0	0.06814551
82	0x3e3117ca	0.17294231
83	0x3bb24bed	0.00544118
84	0x3d7f96a1	0.06239951
85	0xbe7ea099	-0.2486595
86	0x3c378d16	0.011203071
87	0xbe288249	-0.1645595
88	0x3e34b379	0.17646588
89	0xbd964f6d	-0.07339368
90	0x3ee3c26d	0.44484273
91	0xbcbb4453	-0.022859728
92	0x3d8a6acd	0.06758652
93	0xbe865452	-0.26236206
94	0x3e99fc3b	0.3007525
95	0x3e8fdef0	0.28099775
96	0xbda5c9ff	-0.08095168
97	0xbd735341	-0.05940557
98	0x3e8f55b4	0.27995074
99	0xbe80cc75	-0.25155988
100	0xbe0515d9	-0.12996615
101	0xbd5f0429	-0.054447327
102	0xbce2dc58	-0.027692959
103	0x3dfbd448	0.12296349
104	0xbd52a1f8	-0.051423997
105	0xbdd96fe6	-0.10617046
106	0xbe07b46b	-0.13252418
107	0x3ea1d199	0.31605223
108	0xbe3ad6f7	-0.18246065
109	0x3d248df8	0.040174454
110	0x3e75546c	0.23957986
111	0xbecc4c22	-0.39901835
112	0x3d936814	0.07197586
113	0xbde5d009	-0.1122132
114	0x3dfdd08b	0.12393292
115	0x3d569d06	0.052395843
116	0x3e57dd1f	0.21080445
117	0xbe899c07	-0.26876852
118	0xbc9e8ee6	-0.019355249
119	0x3ce14155	0.027496973
120	0x3aa8fa05	0.0012891894
121	0x3d9a2228	0.07526046
122	0xbe17bf27	-0.14819013
123	0x3d322578	0.043492764
124	0xbacdd186	-0.0015702702
125	0xbd91c440	-0.0711751
126	0x3e399475	0.18123038
127	0x3e3cd477	0.18440424

rnn.bias_hh_l0 f4 [128]
0	0xbd3dbcfd	-0.04632281
1	0xbeaeecb7	-0.34164974
2	0x3e579948	0.21054566
3	0x3edb8dfb	0.4288176
4	0x3c0f01d6	0.008728465
5	0x3df035fa	0.11729045
6	0x3df27681	0.11839009
7	0xbda03756	-0.078230545
8	0xbd7bfb9d	-0.061519254
9	0x3e1292c1	0.14313795
10	0x3e988028	0.29785275
11	0xbdfc24df	-0.1231172
12	0xbf01fe6a	-0.5077883
13	0xbe607809	-0.2192079
14	0x3de6629b	0.11249276
15	0xbe56e32b	-0.20985095
16	0x3e2dc561	0.16969825
17	0xbdbd8d9a	-0.09255524
18	0x3dc56d74	0.09640017
19	0xbda5f54e	-0.08103429
20	0xbc84cf2e	-0.016212072
21	0x3ce9e2d9	0.028550552
22	0xbcf1e153	-0.029526388
23	0x3c908adc	0.017644338
24	0x3d5435b9	0.051809046
25	0xbda3a068	-0.079895794
26	0xbe9287df	-0.28619286
27	0xbd36ef57	-0.044661846
28	0x3dcb5331	0.09927977
29	0xbe5539ba	-0.20822802
30	0x3dce047e	0.100594506
31	0xbd94379c	-0.07237169
32	0x3ed957ec	0.42449892
33	0xbcb7c5cf	-0.02243319
34	0x3db4bc3a	0.08824964
35	0xbe643451	-0.22285582
36	0x3cffb3fc	0.031213753
37	0x3c7771e0	0.0151028335
38	0x3e09f25c	0.13471359
39	0x3d456375	0.048190553
40	0xbe49971b	-0.19686548
41	0x3dabb5df	0.083842985
42	0x3c9b0705	0.018924246
43	0x3cd63ca0	0.026151955
44	0xbd9b727e	-0.07590197
45	0x3e25718c	0.16156596
46	0xbe5737cd	-0.2101738
47	0xbe9c6aff	-0.30550382
48	0xbe7f7874	-0.24948293
49	0x3d005652	0.03133232
50	0xbde2130a	-0.11038788
51	0xbe8e06ca	-0.27739555
52	0xbe5e918d	-0.2173521
53	0xbe362b13	-0.17789869
54	0x3eb609a9	0.35554245
55	0x3d378711	0.044806544
56	0x3c270906	0.010195022
57	0xbe71cc5a	-0.2361311
58	0x3d38646c	0.045017645
59	0x3d0c0525	0.034184594
60	0x3d8149c0	0.06312895
61	0xbe3ad283	-0.18244366
62	0xbe09e17d	-0.13464923
63	0xbdc08070	-0.093994975
64	0x3de57b9b	0.112052165
65	0xbd6a644a	-0.05722455
66	0xbe808ec8	-0.25108933
67	0xbc8a9ac8	-0.016919509
68	0xbcf44be1	-0.029821338
69	0x3da4543f	0.08023881
70	0x3d2055dd	0.039144386
71	0x3da41b93	0.08013072
72	0xbe12256c	-0.14272088
73	0x3ec52c02	0.38510138
74	0x3d29791f	0.041375276
75	0xbd033724	-0.032035008
76	0x3d6a2421	0.05716336
77	0xbe070b1e	-0.13187835
78	0xbc87bee2	-0.016570512
79	0xbee11bfb	-0.4396666
80	0x3daa4cf9	0.083154626
81	0x3e0bf292	0.13666752
82	0x3e1ecc46	0.15507612
83	0x3d96db33	0.07366028
84	0xbcb51f77	-0.02210973
85	0xbe8eee39	-0.27916124
86	0xbcdbb537	-0.026819808
87	0xbda0d497	-0.07853048
88	0x3e3e6239	0.18592156
89	0xbd9f3dce	-0.0777546
90	0x3ed7aebd	0.42125502
91	0x3d5cb7e3	0.053886306
92	0x3dbce00b	0.0922242
93	0xbe86af3e	-0.26305574
94	0x3ebb2458	0.36551166
95	0x3e6510ab	0.2236964
96	0x3d3494ee	0.044087343
97	0xbdbf3a13	-0.09337249
98	0x3e83f5fe	0.25773615
99	0xbdfba12b	-0.122866
100	0xbd9c2049	-0.076233454
101	0xbde36a59	-0.111042686
102	0xbdc35bba	-0.0953898
103	0x3e2ab02a	0.16668764
104	0xbe1d7ba0	-0.1537919
105	0xbdd6f461	-0.1049583
106	0xbd31592f	-0.043297943
107	0x3ec52575	0.3850514
108	0xbe948b9b	-0.2901276
109	0xbd68f9af	-0.05687874
110	0x3e4fb41a	0.20283547
111	0xbeaf597c	-0.3424796
112	0x3d3a050a	0.045414962
113	0x3b5ee5a8	0.0034011398
114	0x3d252578	0.040318936
115	0xbb555687	-0.0032552795
116	0x3e0e0349	0.1386844
117	0xbe9bb7f4	-0.30413783
118	0xbd70c175	-0.058778245
119	0x3d85e82b	0.06538423
120	0x3e1a539a	0.15070954
121	0x3d11daf1	0.03560919
122	0x3cc6e974	0.024281241
123	0x3d98f517	0.07468622
124	0xbd7f8796	-0.062385164
125	0xbd8b5d61	-0.0680492
126	0x3db49417	0.088173084
127	0x3e87471b	0.26421437

fc.weight f4 [54, 128]
0	0xbd972a49	-0.07381112
1	0xbd51334c	-0.05107431
2	0xbec7e0bf	-0.39038655
3	0x3eb8269e	0.35966963
4	0x3e234975	0.1594599
5	0xbe710adf	-0.23539303
6	0x3e8af1cb	0.27137598
7	0xbde64349	-0.112433024
8	0xbe3797c7	-0.17928992
9	0x3e0f71dd	0.14008279
10	0xbe26475e	-0.16238162
11	0xbe092dd2	-0.13396385
12	0xbef73be1	-0.4828787
13	0x3f01a2e8	0.506392
14	0x3ec2a76f	0.38018367
15	0xbd509dda	-0.05093179
16	0x3ebb5450	0.36587763
17	0x3e8c28ec	0.2737497
18	0x3e1d877f	0.15383719
19	0xbddfa778	-0.10920614
20	0xbe37efa5	-0.17962511
21	0x3ddfecf1	0.10933865
22	0x3dcc5bb7	0.09978431
23	0xbf2da139	-0.6782413
24	0x3d925fd7	0.07147186
25	0x3f01bed1	0.5068179
26	0x3ed7d974	0.4215809
27	0xbe25eff6	-0.16204819
28	0x3e9e8247	0.3095877
29	0x3e75ca36	0.24002919
30	0x3e83d76e	0.25750297
31	0xbe20fb8d	-0.15720959
32	0x3ed7ed24	0.4217311
33	0x3e908039	0.28222826
34	0xbf218767	-0.6309723
35	0x3e9fd900	0.31220245
36	0x3ed6c87c	0.41949832
37	0x3c4dd0b3	0.012561965
38	0xbe08c64d	-0.13356896
39	0xbe3a4142	-0.18188956
40	0xbe48e1d6	-0.196174
41	0xbe9013e6	-0.2814018
42	0xbdada9f8	-0.084796846
43	0xbe30ec83	-0.17277722
44	0x3e834960	0.25641918
45	0x3f156590	0.583581
46	0x3e05296e	0.13004085
47	0x3ef4449d	0.47708598
48	0xbea4968d	-0.3214611
49	0xbedb468e	-0.42827266
50	0xbef55ca2	-0.47922236
51	0xbd4b58c6	-0.049645208
52	0x3f24b8ce	0.6434449
53	0x3e5d6d9b	0.21623842
54	0xbf3a6885	-0.72815734
55	0xbd272932	-0.04081077
56	0xbde0ec77	-0.10982602
57	0xbdcc2217	-0.099674396
58	0xbde509d5	-0.11183516
59	0xbe7ba3bb	-0.24574177
60	0xbd332d27	-0.043744233
61	0xbea8a5b0	-0.3293891
62	0x3db20df3	0.08694067
63	0x3de2bf62	0.110716596
64	0x3ebf0aa2	0.373128
65	0x3db3992e	0.08769451
66	0xbe3675b6	-0.1781834
67	0xbee6cd4a	-0.45078498
68	0x3e221206	0.15827188
69	0xbc4b3230	-0.012402102
70	0xbe538203	-0.20655064
71	0xbdb7a049	-0.08966119
72	0x3dbd8495	0.09253804
73	0xbee70b9c	-0.45126045
74	0x3e9c50a2	0.30530268
75	0xbdcf112e	-0.10110699
76	0x3ece026d	0.40236226
77	0xbd8cc18f	-0.06872856
78	0xbdb2036c	-0.08692059
79	0xbeec009d	-0.46094218
80	0x3e2b0634	0.16701585
81	0x3d1ae24e	0.037813477
82	0x3f0caba1	0.54949385
83	0xbe2628de	-0.16226527
84	0xbe80d44a	-0.25161964
85	0xbe9f707b	-0.31140503
86	0x3e0b8bff	0.13627623
87	0x3d279a6b	0.04091875
88	0xbe1caefc	-0.15301126
89	0x3f231847	0.6370892
90	0x3ec81226	0.39076346
91	0xbdd3fa6e	-0.103505
92	0x3e178dd4	0.14800197
93	0xbe9d6ced	-0.30747166
94	0xbed0ae29	-0.40757874
95	0x3dce53a1	0.10074545
96	0x3f1a1436	0.6018709
97	0x3d829c6b	0.063774906
98	0x3da32775	0.0796651
99	0xbedadafd	-0.427452
100	0x3e87b979	0.26508692
101	0xbead9b28	-0.33907437
102	0x3ea0ea01	0.3142853
103	0xbe8d8a35	-0.27644506
104	0xbe3f4ff3	-0.18682842
105	0x3f00343a	0.5007969
106	0xbe7ead9d	-0.24870916
107	0x3f3734e3	0.71565074
108	0xbd75bff2	-0.059997506
109	0xbe1f9813	-0.15585355
110	0xbe7f1562	-0.249105
111	0x3f14e9e7	0.58169407
112	0xbebf69ff	-0.37385556
113	0x3e919880	0.2843666
114	0x3cc231d2	0.023705397
115	0xbc62700d	-0.01382066
116	0x3f199dae	0.60006225
117	0x3e72207e	0.23645207
118	0xbe1333b5	-0.14375193
119	0x3e4a9ce3	0.1978641
120	0x3ebf836a	0.37404948
121	0xbdb5f4c6	-0.088845775
122	0x3ea6380d	0.32464638
123	0xbd087270	-0.03331226
124	0xbe3d7d74	-0.18504888
125	0xbeddb12f	-0.43299243
126	0x3deb01d6	0.114749596
127	0x3e1d188d	0.15341397
128	0x3e94d234	0.29066622
129	0xbcb49436	-0.022043329
130	0x3d5c9b17	0.053858843
131	0xbd478379	-0.048709366
132	0x3c01267f	0.007882713
133	0xbe10f5d9	-0.14156283
134	0xbf0045f1	-0.5010672
135	0x3e9d7df8	0.3076017
136	0x3d2388e2	0.039925463
137	0xbec11c6a	-0.3771699
138	0xbed7d36d	-0.42153493
139	0xbe072615	-0.13198121
140	0x3e8213ec	0.25405824
141	0xbe859ca6	-0.26096076
142	0xbeafebf7	-0.34359714
143	0x3d7ff674	0.062490895
144	0x3cbc8012	0.023010287
145	0x3e44896a	0.19193044
146	0x3d9d20e0	0.07672286
147	0x3e600d32	0.21880034
148	0x3e1263d8	0.142959
149	0x3eff4140	0.4985447
150	0x3e20d289	0.15705313
151	0xbeafa633	-0.34306487
152	0x3e84dff5	0.25952116
153	0xbe9594c7	-0.2921507
154	0x3e30d084	0.17267042
155	0x3e167d76	0.14696297
156	0xbe72198f	-0.23642562
157	0xbeb67937	-0.35639355
158	0xbef84e02	-0.48497015
159	0x3cd70ddf	0.026251731
160	0x3db62fdf	0.088958494
161	0xbe978648	-0.29594636
162	0x3ebba08a	0.3664592
163	0x3eeefd67	0.46677706
164	0x3da74fa3	0.081694864
165	0x3f0d97ce	0.5530976
166	0xbe96d2ec	-0.29457796
167	0xbe9cde49	-0.3063834
168	0xbe9cb794	-0.3060881
169	0xbe16f466	-0.14741668
170	0xbee4f071	-0.44714692
171	0x3d6f234e	0.05838328
172	0x3cf18d97	0.02948646
173	0x3e0cd5a2	0.1375337
174	0x3d11e598	0.03561935
175	0x3db361b9	0.087588735
176	0x3e2adf02	0.16686633
177	0xbea65da6	-0.32493323
178	0x3e04fa0b	0.12986009
179	0xbe448b89	-0.19193853
180	0xb96a0fea	-0.00022321907
181	0xbe8bc897	-0.27301475
182	0xbd8c8434	-0.06861153
183	0xbda61e79	-0.08111281
184	0xbd8b48be	-0.06800984
185	0x3e91e10c	0.2849201
186	0xbcede204	-0.029038437
187	0x3e962cd0	0.29331064
188	0x3c103369	0.00880132
189	0x3f255667	0.64584965
190	0xbe8aaf4c	-0.27086866
191	0x3e1c4eff	0.1526451
192	0xbeae95e3	-0.3409873
193	0x3e322156	0.17395529
194	0xbecf3467	-0.40469667
195	0xbe81c381	-0.2534447
196	0x3e96086f	0.2930331
197	0x3cd09dd2	0.02546588
198	0x3ca7812f	0.020447342
199	0xbc89ce4e	-0.016822007
200	0xbaa765a6	-0.0012771382
201	0xbe973611	-0.29533437
202	0x3ef5bcbc	0.47995555
203	0xbcc6b75a	-0.02425735
204	0xbd7ee0ba	-0.062226035
205	0x3ec498be	0.38397783
206	0xbb535a66	-0.0032249927
207	0x3ea7ae10	0.32749987
208	0x3e2a0620	0.16603899
209	0x3d0ba9b2	0.03409738
210	0xbbad9e4e	-0.0052984124
211	0xbdcda075	-0.100403704
212	0xbe8f6a7f	-0.28010938
213	0x3c81f40f	0.015863447
214	0x3e757934	0.23972017
215	0xbe30a434	-0.17250139
216	0x3e50fcd8	0.20408952
217	0xbe5a8a9e	-0.21341941
218	0xbf09e3e5	-0.53863364
219	0x3e921c1e	0.28537077
220	0xbe8b708d	-0.27234307
221	0x3ea59eb2	0.32347637
222	0x3de6eb17	0.112753086
223	0x3f13d9e4	0.5775435
224	0xbe765187	-0.24054538
225	0xbe7d38d8	-0.24728715
226	0xbe21896c	-0.15775079
227	0x3e02f13b	0.12787335
228	0x3f51b9de	0.81924236
229	0x3f156f8a	0.5837332
230	0xbdc18216	-0.0944864
231	0xbf3f508e	-0.7473229
232	0x3ca6965a	0.020335365
233	0xbe75f4fc	-0.24019235
234	0xbe3e1e4b	-0.18566243
235	0xbeee6a80	-0.46565628
236	0x3e8cd30a	0.2750476
237	0x3f347f25	0.7050651
238	0xbe8a30fa	-0.2699049
239	0xbd90e4dc	-0.070749015
240	0x3f02c2e0	0.51078606
241	0xbe1a8cd9	-0.15092792
242	0xbeea4740	-0.45757484
243	0x3e16e89a	0.14737168
244	0x3eba8549	0.36429814
245	0xbd99683e	-0.07490586
246	0xbe796fbb	-0.24359028
247	0xbd08f6c5	-0.033438463
248	0xbd1b41c7	-0.037904527
249	0xbecf9681	-0.40544513
250	0xbb8b15a9	-0.0042445255
251	0xbe3252e7	-0.17414437
252	0x3e5f4f2b	0.21807544
253	0xbe44cfab	-0.19219844
254	0xbe98b678	-0.29826713
255	0xbe9ab0bb	-0.3021296

fc.bias f4 [54]
0	0x3b8318fa	0.00400078
1	0xbea75262	-0.3268004
2	0xbe846a0e	-0.25862163
3	0xbdb63714	-0.08897224
4	0x3cdc6cc8	0.02690734
5	0xbefc6d6b	-0.4930223
6	0xbe32dca2	-0.17466977
7	0xbe3b4abb	-0.18290226
8	0x3dd81abf	0.105519764
9	0xbeafa8f0	-0.34308577
10	0xbe3a7884	-0.18210036
11	0xbe7db7b2	-0.24777105
12	0xbe72bc51	-0.2370465
13	0xbe505567	-0.20345078
14	0xbd504f2f	-0.050856765
15	0xbdf1e5b2	-0.11811389
16	0xbf001ad6	-0.5004095
17	0xbe0e60e5	-0.1390415
18	0xbdc2d928	-0.095140755
19	0xbdb87cd9	-0.09008188
20	0xbe5b79a9	-0.21433128
21	0xbebc1162	-0.36732012
22	0xbe76c94e	-0.24100229
23	0xbed797dc	-0.42108047
24	0xbdbf76ac	-0.09348807
25	0xbdc45f07	-0.095884375
26	0xbf01b709	-0.50669914
27	0xbf0270a8	-0.5095315
28	0xbf0f5770	-0.55992794
29	0xbf1b2b98	-0.60613394
30	0xbf1236a6	-0.57114637
31	0xbf1c2c5e	-0.610052
32	0xbf1957e1	-0.5989972
33	0xbeed57ab	-0.46355948
34	0xbf05ce21	-0.5226765
35	0xbedcf55f	-0.43155953
36	0xbeeb1c5b	-0.4592007
37	0xbefe8ea5	-0.49718204
38	0xbedd87b1	-0.43267587
39	0xbf03b6e1	-0.51450926
40	0xbf01fb40	-0.50774
41	0xbee7f474	-0.4530369
42	0xbf11ab84	-0.5690234
43	0xbf063f86	-0.5244068
44	0xbef7b210	-0.48378038
45	0xbef7ac1f	-0.48373505
46	0xbf043d2a	-0.5165583
47	0xbef490ee	-0.47766823
48	0xbecb29db	-0.3968037
49	0xbf049a16	-0.51797616
50	0xbf101cf4	-0.5629418
51	0xbefbc4b1	-0.491735
52	0xbf07ad5e	-0.5299891
53	0xbeb6087a	-0.35553342
