神经网络作业/A7/models/name_generation_rnn2_AT_doublename.pth (torch, 124052 bytes, 6 tensors)

rnn.weight_ih_l0 f4 [128, 54]
0	0xbe4fd30b	-0.2029535
1	0x3f9cfe73	1.2265152
2	0xbe927c57	-0.2861049
3	0xbf01fd63	-0.5077726
4	0x3dfc51d2	0.123202935
5	0xbed2c75d	-0.41167727
6	0xbe42149e	-0.18953177
7	0xbeebf820	-0.46087742
8	0x3e99bb9e	0.30025953
9	0x3f2b33bf	0.66875833
10	0x3cab5b57	0.020917578
11	0x3dbf79b1	0.09349383
12	0xbfef7c66	-1.8709838
13	0x3e1ab896	0.15109476
14	0xbf0e4c27	-0.5558495
15	0x3b9f9726	0.004870313
16	0xbf9f171b	-1.2428926
17	0xbf82404b	-1.0175871
18	0xbe036fb9	-0.12835588
19	0xbf1d0774	-0.613395
20	0x3f6f075e	0.93370616
21	0x3eb678ef	0.3563914
22	0xbeae6c2c	-0.34066904
23	0x3e8f7110	0.28015947
24	0xbba5ec49	-0.005063568
25	0xbc5ec967	-0.013597823
26	0x3d015f52	0.031585045
27	0x3d12cb66	0.035838507
28	0x3d85ac31	0.065269835
29	0x3c8a2344	0.01686252
30	0x3d8b34d1	0.06797183
31	0xbd2f28ab	-0.042763393
32	0x3d473b22	0.048640378
33	0xbd8e62d2	-0.06952442
34	0xbd4978b3	-0.049187373
35	0xbd9aa421	-0.07550836
36	0x3da8742f	0.08225285
37	0xbd1d6e1d	-0.03843509
38	0x3c958778	0.018253073
39	0xbd2394f1	-0.039936963
40	0xbc86e100	-0.01646471
41	0xbb5f03c0	-0.0034029335
42	0xbd7f0813	-0.06226356
43	0x3d95b8d1	0.073106416
44	0xbdaad1f9	-0.0834083
45	0x3c3060e8	0.010765292
46	0xbd8f3926	-0.06993322
47	0xbda127ca	-0.07868917
48	0x3da3efcb	0.08004721
49	0x3d9a2909	0.07527358
50	0x3d4c19d2	0.04982931
51	0xbd8fd1b6	-0.07022421
52	0xbcfc2750	-0.030780464
53	0x402fceb8	2.746992
54	0x3d512031	0.05105609
55	0xbf319c4a	-0.69379103
56	0xbf97acfd	-1.1849667
57	0xbe7110cd	-0.23541565
58	0x3f32bcee	0.69819534
59	0x3d9a2313	0.07526221
60	0xbf1fdd66	-0.624472
61	0x3e751985	0.23935516
62	0xbfd690fe	-1.6762998
63	0xbe98990d	-0.29804268
64	0xbfd48031	-1.6601621
65	0x3e9108c5	0.28327003
66	0xbdd32f9d	-0.10311816
67	0x3f8c5e97	1.0966367
68	0xbf096215	-0.53665286
69	0xbf2e449e	-0.6807345
70	0x3ffb7685	1.9645544
71	0x3ee7b5f4	0.45256007
72	0xbfa35894	-1.2761407
73	0xbe2a2a1d	-0.16617627
74	0xbec5a985	-0.38605896
75	0xbfa924d4	-1.3214364
76	0x3e907d13	0.28220424
77	0x3d1c2e10	0.038129866
78	0xbfaad4f4	-1.3346238
79	0xbeb54a03	-0.3540803
80	0x3c539bb8	0.012915544
81	0x3cc41450	0.023935467
82	0xbd868d90	-0.0656997
83	0xbd817300	-0.06320763
84	0xbbc0b1b0	-0.005880557
85	0x3da2f1ab	0.07956251
86	0x3da588d5	0.08082739
87	0xbd844493	-0.06458392
88	0xbd2e7222	-0.042589314
89	0xbc6e5370	-0.01454626
90	0xbc6d7830	-0.014493987
91	0x3d6c9502	0.057759292
92	0x3d4bccba	0.04975579
93	0xbd520516	-0.05127438
94	0xbd1992ac	-0.037493393
95	0xbd860157	-0.06543224
96	0x3cbf997c	0.023388617
97	0xbd8d51dd	-0.0690038
98	0x3d05b2d2	0.03264124
99	0x3d6d5626	0.057943486
100	0xbd175754	-0.036948517
101	0xbd16b471	-0.036793176
102	0xbc823590	-0.015894681
103	0xbd4551f9	-0.04817388
104	0xbda3b228	-0.07992965
105	0xbd4e1444	-0.050312296
106	0xbb284b80	-0.0025679767
107	0xbfc0cd2f	-1.5062617
108	0x3f333b49	0.70012337
109	0x3fa14443	1.2598957
110	0x3ebabfc2	0.36474425
111	0xbf363da6	-0.7118782
112	0xbe8be0f1	-0.27320054
113	0x3e2f98aa	0.1714808
114	0x3fd4c5ef	1.6622905
115	0x3e4e8759	0.20168819
116	0x3fcc1ad4	1.5945687
117	0xbd5320a4	-0.0515448
118	0x3f1cd3be	0.6126059
119	0xbf27139a	-0.65264285
120	0x3ccb5b35	0.024823764
121	0x3e6d3adb	0.23166983
122	0x3f05fd5e	0.5233973
123	0x3f0ebd68	0.5575776
124	0x3fb89696	1.4420955
125	0x3c05d313	0.008168
126	0xbdf14a6b	-0.11781772
127	0xbfd13ad3	-1.6346077
128	0x3f0ed5e1	0.55795103
129	0xbf80b12e	-1.0054071
130	0xbf5df9f1	-0.86709505
131	0xbf1ab17b	-0.60427064
132	0x3f4ced3a	0.8004948
133	0xbf0a5b29	-0.5404535
134	0x3c8477d8	0.016170427
135	0x3d5a0bfe	0.053234093
136	0x3d5b05f6	0.05347248
137	0xbd0baa3f	-0.034097906
138	0xbda873f8	-0.08225244
139	0xbcc77d8c	-0.024351858
140	0x3d2a806a	0.04162637
141	0x3c49a9b8	0.0123085305
142	0xbc8eae60	-0.017417133
143	0x3b899760	0.0041989535
144	0x3d182a6e	0.03714984
145	0xbd87185e	-0.065964445
146	0x3d848ee5	0.064725675
147	0x3c832ef0	0.016013592
148	0x3d6a372a	0.057181515
149	0x3d0156fe	0.031577103
150	0xbdac0a0e	-0.08400355
151	0xbbff2f90	-0.0077876523
152	0xbd083baa	-0.033260025
153	0xbc8a9c2c	-0.016920172
154	0x3d43ded6	0.047819935
155	0x3c3d80e8	0.011566378
156	0x3bc724e0	0.006077394
157	0x3db33519	0.08750362
158	0x3cbb5988	0.02286984
159	0xbd1b40a3	-0.03790344
160	0xbb945100	-0.0045262575
161	0x3f372af6	0.7154993
162	0x3f32a202	0.69778454
163	0x3fde85ac	1.7384543
164	0xbea567b2	-0.32305676
165	0x3d5fcc09	0.054637942
166	0xbf46489f	-0.7745456
167	0xbe60d54f	-0.21956371
168	0x3ed32d1b	0.4124535
169	0x3f0b4e0d	0.5441597
170	0x3f666dea	0.90011466
171	0x3fd2c0e8	1.646512
172	0x3f111765	0.5667632
173	0xbe8ad5fd	-0.27116385
174	0x3d78f474	0.060780004
175	0x3d8fe493	0.07026019
176	0x3f6237cf	0.8836641
177	0x3f12ecc7	0.57392544
178	0x3f123225	0.57107764
179	0xbfab2731	-1.3371335
180	0x3f864832	1.0490782
181	0xbea6d653	-0.3258539
182	0xbf073e31	-0.5282927
183	0x3fb6d47d	1.4283596
184	0xbf95a1df	-1.1690024
185	0xbd1d3735	-0.038382728
186	0x3fcff4b3	1.6246551
187	0xbf8b306a	-1.087415
188	0x3d27a662	0.04093016
189	0xbd69158f	-0.056905326
190	0xbd992382	-0.07477476
191	0x3c4de210	0.0125661045
192	0x3d8984dd	0.06714795
193	0xbd1f6330	-0.038912952
194	0xbd2c477d	-0.042060364
195	0x3d30843a	0.04309485
196	0xbd8ccb08	-0.06874663
197	0xba847a00	-0.001010716
198	0x3c4aa5b8	0.012368612
199	0x3d2a6b72	0.041606374
200	0xbce99fb0	-0.028518528
201	0xbd164d34	-0.03669472
202	0xbd122e72	-0.035688825
203	0xbdb29745	-0.087202586
204	0xbcfdf536	-0.031000715
205	0xbd070602	-0.032964714
206	0xbba84e60	-0.005136296
207	0xbd5388ef	-0.051644262
208	0xbd135992	-0.035974093
209	0x3d46499a	0.048410036
210	0xbd817380	-0.06320858
211	0xbda06342	-0.07831432
212	0x3d318aa2	0.0433451
213	0x3cf80130	0.030274004
214	0x3d525632	0.051351734
215	0x40455028	3.0830173
216	0xbd58689f	-0.05283415
217	0xbf3ea3d5	-0.7446874
218	0xbf7c3cfc	-0.98530555
219	0x3e9ed3f5	0.31021085
220	0x3ef27744	0.47356617
221	0xbe732e8a	-0.23748222
222	0xbf9701ea	-1.1797459
223	0xbee74b64	-0.45174706
224	0x3fae7cac	1.3631797
225	0x3f5ab791	0.8543635
226	0xbecc7bdc	-0.39938247
227	0xbe27220c	-0.16321582
228	0xbda7e351	-0.08197654
229	0xbeb138ec	-0.3461374
230	0x3e9bde52	0.30443054
231	0xbeb6f333	-0.3573242
232	0xbf97d796	-1.1862667
233	0xbf45c327	-0.77250904
234	0xbc297358	-0.0103424415
235	0x3f754ec3	0.95823306
236	0xbe8824b2	-0.26590496
237	0x3f182ea6	0.5944618
238	0xbf6d98c8	-0.9281125
239	0xbfd47912	-1.6599448
240	0x3f8d329a	1.1031067
241	0xbf6882d8	-0.9082465
242	0x3cb0c000	0.021575928
243	0x3ba83700	0.0051335096
244	0x3bc9a450	0.006153621
245	0x3da157eb	0.07878097
246	0xbd374dce	-0.044751935
247	0xbd5d2e56	-0.053999268
248	0xbd3ab65a	-0.04558406
249	0x3bc910b0	0.0061360225
250	0xbd8540c1	-0.065064915
251	0x3d01d0ce	0.031693272
252	0x3d19913e	0.03749203
253	0xbd752e1a	-0.05985842
254	0x3d81e0f5	0.06341735
255	0x3c80a77c	0.015704863

rnn.weight_hh_l0 f4 [128, 128]
0	0xbe019082	-0.12652782
1	0x3e88a3a2	0.26687342
2	0x3d047e2d	0.032346893
3	0xbe3d470d	-0.18484135
4	0x3d8442da	0.064580634
5	0xbe85c585	-0.26127258
6	0xbdb82603	-0.08991625
7	0xbe36d519	-0.17854728
8	0xbd8db485	-0.06919197
9	0xbdac45cf	-0.084117524
10	0xbd9f6f02	-0.07784845
11	0x3d12894f	0.03577548
12	0x3daca27c	0.08429429
13	0xbd64b731	-0.055838767
14	0xbca34970	-0.019932479
15	0xbdc9b063	-0.09848096
16	0xbdf17348	-0.11789566
17	0x3bf3fd30	0.007445954
18	0xbcdeb4ac	-0.02718576
19	0x3e2d321a	0.16913643
20	0xbe45d9ad	-0.19321318
21	0xbd20ba27	-0.03924003
22	0x3e23ffb5	0.16015513
23	0xbe09f714	-0.13473159
24	0x3d608365	0.054812808
25	0xbe340051	-0.17578246
26	0x3e0a74fb	0.13521187
27	0xbe1238ac	-0.14279431
28	0x3d90ada9	0.07064373
29	0x3c6e6f1c	0.014552858
30	0xbe1e9234	-0.1548546
31	0x3e467e88	0.19384205
32	0xbcf0c976	-0.029392939
33	0x3e50e9f7	0.2040175
34	0x3dda16e3	0.106488965
35	0xbe933f85	-0.287594
36	0xbe166887	-0.14688312
37	0xbc83e4c4	-0.016100295
38	0xbd8bbd79	-0.068232484
39	0xbcbfb840	-0.023403287
40	0xbe1657e0	-0.14681959
41	0xbdca181a	-0.09867878
42	0x3e26d30c	0.16291445
43	0xbb180bfa	-0.0023200498
44	0xbc3ffd4f	-0.011718108
45	0xbe3567d3	-0.17715387
46	0x3d24f082	0.04026843
47	0xbe64858f	-0.22316574
48	0xbe122fef	-0.14276098
49	0xbe65fdc2	-0.22460082
50	0x3d8f7452	0.07004608
51	0xbe4f7919	-0.20261039
52	0x3ebd9aec	0.3703226
53	0xbe1082ce	-0.14112398
54	0xbe413310	-0.18867135
55	0xbd9d263c	-0.07673308
56	0x3df8c21a	0.12146397
57	0xbe4f54b6	-0.20247158
58	0xbdeef0ca	-0.116670206
59	0xbe768e77	-0.24077784
60	0xbf23cec7	-0.6398739
61	0x3a18161b	0.0005801634
62	0xbe16e86d	-0.14737101
63	0x3e5dca58	0.2165922
64	0xbe0c3693	-0.13692693
65	0xbdb977e5	-0.09056071
66	0x3c5e8c33	0.013583231
67	0xbe822bcb	-0.25424036
68	0xbe49e2ac	-0.19715375
69	0x3eddace6	0.43295974
70	0x3c8f596f	0.0174987
71	0x3d9cc9ca	0.07655676
72	0xbcc80aa4	-0.024419136
73	0x3de6fdf1	0.11278904
74	0xbe0b5ef0	-0.13610435
75	0x3da7b2c3	0.08188393
76	0x3e047947	0.12936889
77	0x3e514fed	0.20440646
78	0xbe5dd5a5	-0.2166353
79	0xbd657203	-0.056016933
80	0xbe9f6d78	-0.31138206
81	0x3d653fd6	0.05596908
82	0xbd92537c	-0.0714483
83	0xbca42140	-0.020035386
84	0x3e524a1e	0.20536086
85	0x3dab7cf9	0.08373446
86	0xbc4e33eb	-0.01258562
87	0x3d199868	0.03749886
88	0xbecc3227	-0.39882013
89	0xbd1b6583	-0.037938606
90	0x3c008e69	0.007846453
91	0x3d1c8f6f	0.038222726
92	0x3e709da8	0.23497641
93	0x3e3d5f9c	0.18493503
94	0xbe3d0f80	-0.18462944
95	0xbecb9e93	-0.3976942
96	0xbe3cbd99	-0.18431701
97	0xbd4ce68e	-0.05002456
98	0x3de6e9d0	0.11275065
99	0xbea68015	-0.32519594
100	0xbdcdb06d	-0.10043416
101	0xbc154ddf	-0.009112804
102	0xbe416df4	-0.188896
103	0xbe0fd293	-0.14045171
104	0xbdceb8c7	-0.10093837
105	0x3e8d38e2	0.2758246
106	0x3caba8ec	0.020954572
107	0xbd82a370	-0.063788295
108	0xbd95a3d3	-0.073066376
109	0x3e5da113	0.21643476
110	0xbd4c884a	-0.049934663
111	0xbb5e2e5f	-0.003390215
112	0x3e276fa1	0.16351177
113	0xbde604ba	-0.1123137
114	0xbceec023	-0.029144352
115	0xbe1601fe	-0.14649197
116	0xbf0aa505	-0.5415805
117	0x3d8202e5	0.06348208
118	0x3d87ee8a	0.066372946
119	0xbda5bd7a	-0.080927804
120	0xbd0f0b82	-0.034923084
121	0xbc5e9946	-0.013586348
122	0xbd78319d	-0.06059419
123	0x3e81219c	0.25220954
124	0x3e4cdafd	0.20005412
125	0xbc498e6d	-0.012302023
126	0x3e65723b	0.22406857
127	0x3dbc1a88	0.09184748
128	0xbc86c2aa	-0.016450245
129	0xbbacea15	-0.005276928
130	0xbe9f45be	-0.31107897
131	0xbe0022d4	-0.12513286
132	0xbe44f2db	-0.19233267
133	0x3d9f527b	0.07779404
134	0x3df38da2	0.11892249
135	0x3e08eb5c	0.13371032
136	0x3ca77961	0.02044362
137	0xbd96e5cb	-0.07368048
138	0x3e9863d4	0.29763663
139	0xbe1a1e95	-0.15050729
140	0xbe2f1a62	-0.17099908
141	0xbdf29bdf	-0.11846136
142	0x3ddb3ff1	0.10705555
143	0x3ea52662	0.32255846
144	0x3e5c5c95	0.21519692
145	0xbd4453c7	-0.04793146
146	0x3d4055a4	0.046956673
147	0xbe06a82d	-0.13150091
148	0x3d8f488c	0.06996259
149	0xbea4a3e2	-0.32156283
150	0x3ce0863d	0.02740776
151	0xbe88cbea	-0.26718074
152	0x3d9bcbc0	0.076072216
153	0xbe19811a	-0.14990655
154	0x3d947f2a	0.07250817
155	0xbceec0c9	-0.029144662
156	0x3da787d5	0.08180205
157	0xbd572426	-0.05252471
158	0xbdec7784	-0.11546233
159	0xbebd1800	-0.36932373
160	0xbdf45d4c	-0.119318575
161	0xbe7d90b3	-0.2476223
162	0x3e480ae0	0.19535398
163	0x3d67b64d	0.05657034
164	0xbd4a8df4	-0.049451783
165	0xbe04c14d	-0.12964363
166	0xbd939e02	-0.07207872
167	0x3e0a15e9	0.1348492
168	0x3d77fdcb	0.06054477
169	0x3e4a94c0	0.19783306
170	0x3e366263	0.17810969
171	0x3e209f06	0.15685663
172	0xbe69ff97	-0.22851406
173	0xbe6131be	-0.21991631
174	0xbddfbd73	-0.109248064
175	0xbdf154e2	-0.11783768
176	0x3d623ef8	0.055235833
177	0x3d855b85	0.065115966
178	0xbdb2a9ab	-0.08723768
179	0x3df22951	0.11824287
180	0x3e6a0b42	0.22855857
181	0xbe2131d2	-0.15741661
182	0x3ea77847	0.32708952
183	0xbe0508bd	-0.12991615
184	0xbe1edce0	-0.15513945
185	0x3dfc72b3	0.12326565
186	0xbdbf9197	-0.09353941
187	0xbe86f3a6	-0.26357764
188	0x3d80a32c	0.062811226
189	0xbe75ce39	-0.24004449
190	0xbe0edb93	-0.13950948
191	0xbd4bc7a3	-0.049750935
192	0xbde8d325	-0.113683976
193	0xbc2faa50	-0.010721758
194	0x3e98554e	0.29752582
195	0xbde452c5	-0.111485995
196	0x3eeefa86	0.4667551
197	0x3d239c73	0.039944123
198	0xbe044ac5	-0.12919147
199	0x3da62f90	0.081145406
200	0xbde10bc5	-0.10988573
201	0xbcb9c131	-0.022675129
202	0x3da67a22	0.08128764
203	0xbe7dfbef	-0.24803136
204	0x3dd4d93c	0.10392997
205	0xbea8116e	-0.32825798
206	0x3e580b62	0.21098092
207	0x3ebbac68	0.36654973
208	0xbe457327	-0.19282208
209	0x3c4dcc16	0.012560865
210	0xbdc7c6a0	-0.097546816
211	0x3e7e084c	0.24807853
212	0xbe83884b	-0.2568992
213	0x3db01a9d	0.08598826
214	0xbe877c55	-0.26462045
215	0x3d405714	0.046958044
216	0x3edb5b24	0.42842972
217	0xbe11cb79	-0.14237775
218	0x3e40f9f4	0.1884535
219	0x3df194b4	0.11795941
220	0xbea443f9	-0.3208311
221	0x3e0c2078	0.13684261
222	0x3d645674	0.05574651
223	0x3d7a7b7b	0.061152916
224	0xbe00fe1d	-0.12596937
225	0x3e74da2c	0.23911351
226	0xbea9976e	-0.33123344
227	0xbd4099b5	-0.047021586
228	0x3d8f98bd	0.070115544
229	0xbe6ad2a9	-0.22931923
230	0x3e99da76	0.30049485
231	0xbd282532	-0.041051097
232	0xbe800548	-0.2500403
233	0x3dedca46	0.11610846
234	0xbdd52ac2	-0.10408546
235	0xbaef953e	-0.001827873
236	0xbc896891	-0.016773494
237	0x3d4403da	0.047855236
238	0x3df71362	0.12064244
239	0x3d0285a6	0.03186574
240	0x3c305b39	0.010763937
241	0xbe80db25	-0.25167194
242	0x3e5a471e	0.21316192
243	0xbe6a900f	-0.22906516
244	0xbea9f45c	-0.33194244
245	0xbdd2ef04	-0.10299495
246	0x3d552f68	0.052047163
247	0xbdb6227e	-0.088932976
248	0xbe828495	-0.25491777
249	0xbe57b109	-0.21063627
250	0xbe0c7c2e	-0.13719246
251	0x3e980b17	0.2969596
252	0xbe1e1750	-0.1543858
253	0xbea0a3bf	-0.31374928
254	0x3d62ecef	0.05540174
255	0xbe888b49	-0.26668766

rnn.bias_ih_l0 f4 [128]
0	0xbe61aa6d	-0.22037669
1	0xbf0c1a59	-0.54727703
2	0x3dcc9c65	0.099907674
3	0x3ec19666	0.37810057
4	0xbe1c7a61	-0.15281059
5	0x3e8fac8e	0.28061336
6	0x3cebbf9b	0.028777888
7	0xbe1b51bb	-0.15167896
8	0xbdc0d662	-0.0941589
9	0x3e934c68	0.2876923
10	0x3e19d213	0.15021543
11	0xbd621c95	-0.05520304
12	0xbecf4b15	-0.4048697
13	0xbce6b69c	-0.028163247
14	0xbd95a6d1	-0.07307208
15	0xbbd0783f	-0.0063619907
16	0x3cdc4f90	0.026893407
17	0xbe710428	-0.23536742
18	0x3db81673	0.08988657
19	0xbddcf8bf	-0.10789632
20	0xbca07e2a	-0.01959141
21	0xbc1a9376	-0.0094345715
22	0xbd36dc07	-0.04464343
23	0x3e222f22	0.15838292
24	0xbd6528b6	-0.055947028
25	0x3dc316ed	0.09525857
26	0xbe265ab4	-0.16245538
27	0xbd5125a7	-0.0510613
28	0x3d33ff4c	0.043944642
29	0x3e1a9bc6	0.15098485
30	0xbd02fefb	-0.03198145
31	0xbde73907	-0.11290174
32	0x3e1d1124	0.1533857
33	0x3c78c224	0.0151830055
34	0x3e5b106f	0.21392988
35	0x3d6fd8c3	0.05855633
36	0xbdd68361	-0.10474277
37	0xbe5bc533	-0.21461944
38	0x3e88c0a3	0.2670947
39	0x3dc6b071	0.09701622
40	0xbe00642a	-0.1253821
41	0xbd93ce80	-0.07217121
42	0x3cf5246b	0.029924592
43	0xbe000236	-0.12500843
44	0xbd8eb610	-0.069683194
45	0xbc4f5ec3	-0.01265687
46	0xbe1b331f	-0.1515622
47	0xbea205b3	-0.31644973
48	0xbc7e25e6	-0.015511965
49	0x3d4e6e96	0.05039843
50	0x3e3e05c6	0.1855689
51	0xbdc62e5d	-0.09676812
52	0xbe806597	-0.25077507
53	0xbdc86e1e	-0.09786628
54	0x3e6bf7bd	0.23043723
55	0x3c334008	0.010940559
56	0xbe0675a9	-0.13130821
57	0xbd906b05	-0.07051662
58	0xbd383f60	-0.044982314
59	0x3db61ee2	0.08892609
60	0xbe273b5c	-0.16331238
61	0xbdd1c31f	-0.102422945
62	0xbbdbbaca	-0.0067056166
63	0xbe3ac01f	-0.18237351
64	0xbd869147	-0.06570678
65	0x3cb63161	0.022240343
66	0xbe60f06e	-0.21966717
67	0xbdae9052	-0.08523621
68	0x3e07e130	0.13269496
69	0x3e066ab0	0.13126636
70	0x3dd85c60	0.10564494
71	0x3df2adca	0.11849554
72	0xbec71352	-0.38881928
73	0xbda7d633	-0.08195152
74	0x3c6dbb30	0.014509961
75	0x3ddb05cb	0.10694464
76	0xbe719095	-0.2359031
77	0xbe16f8fc	-0.14743418
78	0xbd9d67e4	-0.07685831
79	0xbeea6e4c	-0.45787275
80	0xbda1c984	-0.07899764
81	0x3e771740	0.24129963
82	0x3e8eb833	0.27874908
83	0xbdcb9f57	-0.09942501
84	0xbca60eb8	-0.02027069
85	0xbe8da9e6	-0.27668685
86	0x3cc1b94f	0.023647932
87	0xbe3c5aa8	-0.18393958
88	0x3eb4cfc2	0.35314757
89	0xbcfa0224	-0.030518599
90	0x3ec18e4a	0.3780387
91	0xbe88112a	-0.26575595
92	0x3d602813	0.054725718
93	0xbe159d23	-0.14610724
94	0x3d968a0f	0.07350551
95	0x3d29c7d9	0.041450355
96	0xbe44f995	-0.19235833
97	0x3dea2851	0.11433471
98	0x3d9f8eee	0.077909335
99	0x3d488525	0.0489551
100	0xbdc91160	-0.09817767
101	0x3e74b6bf	0.23897837
102	0x3e3ae33c	0.18250746
103	0x3d9b3464	0.07578352
104	0x3e01185c	0.12606949
105	0xbddd1a0a	-0.10795982
106	0xbe79fbbb	-0.24412434
107	0x3cab3ee5	0.020904014
108	0x3d7c39b7	0.06157848
109	0x3d5b703d	0.053573836
110	0x3e7c7564	0.24654156
111	0xbe47e80e	-0.19522116
112	0x3e816957	0.2527568
113	0xbd6b3b5b	-0.057429653
114	0x3e489e71	0.1959169
115	0x3dcb5128	0.09927589
116	0x3e07f80e	0.13278219
117	0xbe0c6e67	-0.1371399
118	0xbb54799f	-0.0032421125
119	0xbd47538d	-0.048663665
120	0xbc74d89b	-0.014944221
121	0x3e83527b	0.25648865
122	0xbdd9221d	-0.1060221
123	0xbc4117e3	-0.01178548
124	0xbd086288	-0.03329709
125	0xbde0d037	-0.10977214
126	0x3eb888ed	0.36041966
127	0xbd5c9156	-0.05384954

rnn.bias_hh_l0 f4 [128]
0	0xbdb0dcf6	-0.08635895
1	0xbef4e7a0	-0.47832966
2	0x3e1c80e8	0.15283549
3	0x3eb445fc	0.35209644
4	0xbe3bdda0	-0.18346262
5	0x3ea7b89f	0.32758042
6	0x3d869221	0.065708406
7	0xbdf0d82c	-0.117599815
8	0xbda58e3a	-0.08083768
9	0x3e6c06ad	0.23049422
10	0x3e5e2ee6	0.21697578
11	0xbdd47e1c	-0.10375616
12	0xbec6a3ba	-0.38796788
13	0x3c7037dd	0.014661756
14	0xbd5551ee	-0.052080087
15	0xbc823a09	-0.015896814
16	0x3e06b2e2	0.13154176
17	0xbe063eb9	-0.13109864
18	0x3d2fc68a	0.04291395
19	0xbddf91b4	-0.109164625
20	0xbda09c47	-0.078423075
21	0x3dfbb24e	0.12289868
22	0xbdd638fa	-0.10460086
23	0x3e56cc39	0.20976342
24	0xbe141a3c	-0.14463133
25	0x3d9578bc	0.07298419
26	0xbdd0aa75	-0.10188762
27	0x3cf0a017	0.029373212
28	0x3e0ec366	0.13941726
29	0x3c683ae8	0.014174201
30	0xbcc90f17	-0.024543328
31	0xbe03404c	-0.12817496
32	0x3e72d9d5	0.23715909
33	0x3c179173	0.009250986
34	0x3e166e51	0.1469052
35	0x3d1d30e2	0.038376696
36	0x3cd8a440	0.026445508
37	0xbd476b9b	-0.048686605
38	0x3e914c17	0.28378364
39	0x3dcac9cf	0.09901773
40	0xbe312bff	-0.1730194
41	0x3ca6920e	0.020333316
42	0xbc125663	-0.008931729
43	0x3b966ae5	0.0045903795
44	0xbe267bbf	-0.16258143
45	0x3d8a09f4	0.0674018
46	0xbdb94026	-0.090454385
47	0xbe971c07	-0.2951357
48	0x3cc104a8	0.02356179
49	0x3e027e7d	0.12743564
50	0x3d69b4b0	0.057057083
51	0xbdecef7b	-0.11569115
52	0xbe821ee1	-0.25414184
53	0xbce942a2	-0.028474156
54	0x3e7ea432	0.24867323
55	0x3cc3510f	0.023842363
56	0xbdc35d72	-0.09539308
57	0xbde208c2	-0.11036827
58	0x3d39d115	0.04536541
59	0x3d85825c	0.06519005
60	0xbd59215f	-0.05301034
61	0xbe7cfa40	-0.24704838
62	0xbd82535a	-0.06363554
63	0xbe320ebc	-0.17388433
64	0x3cc5306c	0.02407094
65	0xbc7b95f2	-0.015355574
66	0xbe81f3b0	-0.2538123
67	0xbdc7b0ec	-0.09750542
68	0x3c140a1a	0.0090356115
69	0x3e32a3bc	0.17445272
70	0x3db49b78	0.08818716
71	0x3c35d38d	0.011097801
72	0xbea06b7d	-0.31332007
73	0xbd96a3f0	-0.07355487
74	0xbdf387e5	-0.11891154
75	0x3d0568f5	0.032570798
76	0xbe48ea03	-0.19620518
77	0xbe2f51ba	-0.1712102
78	0xbd8697cd	-0.065719225
79	0xbee59d2c	-0.44846475
80	0x3ce5a1ff	0.028031347
81	0x3e9ea0de	0.30982107
82	0x3e85927c	0.2608832
83	0xbcffa3d0	-0.031206042
84	0xbdd696bd	-0.1047797
85	0xbe9d47cf	-0.30718848
86	0xbc6b8508	-0.014374979
87	0xbdc88526	-0.09791021
88	0x3eb9a72c	0.36260355
89	0xbd0eddff	-0.03487968
90	0x3eb57a9a	0.354451
91	0xbe418c2d	-0.18901129
92	0x3da28933	0.07936325
93	0xbe1652f4	-0.14680082
94	0x3e0d95b0	0.13826632
95	0xbc81dd08	-0.015852466
96	0xbd89defa	-0.067319825
97	0x3da497c9	0.08036763
98	0x3d6420e9	0.055695448
99	0x3e35e9aa	0.17764917
100	0xbd360b8d	-0.04444461
101	0x3e3ac2cc	0.18238372
102	0x3deb2209	0.11481101
103	0x3df4c0ea	0.11950858
104	0x3cc228ff	0.02370119
105	0xbdda9e85	-0.106747665
106	0xbe1e9dad	-0.15489836
107	0x3db81e73	0.08990183
108	0xbd3cc800	-0.046089172
109	0xbd32171a	-0.043479063
110	0x3e56d504	0.20979697
111	0xbe0e02f8	-0.1386832
112	0x3e679ff6	0.22619614
113	0x3d6e536b	0.058185022
114	0x3de5ff33	0.11230316
115	0x3d32b008	0.043624908
116	0x3d787937	0.060662474
117	0xbe30a655	-0.1725095
118	0xbd2ec199	-0.042665098
119	0xbc308f5b	-0.010776366
120	0x3e09b417	0.13447605
121	0x3e5e0a8c	0.21683711
122	0x3d8816a9	0.06644947
123	0x3c9efbd3	0.019407189
124	0xbdc0bded	-0.094112255
125	0xbdda694c	-0.10664615
126	0x3e88e370	0.2673602
127	0x3cd4ac64	0.025961109

fc.weight f4 [54, 128]
0	0xbe74d08f	-0.23907684
1	0x3e4e4952	0.20145157
2	0xbe135e7e	-0.14391515
3	0x3e99866d	0.2998537
4	0xbed07ae5	-0.4071876
5	0xbe602ad1	-0.21891333
6	0x3e45f900	0.19333267
7	0xbef42fac	-0.4769262
8	0xbe815de8	-0.25266957
9	0x3eb11682	0.34587485
10	0xbe65efec	-0.22454804
11	0xbdd549d5	-0.10414473
12	0xbe7ecd95	-0.24883111
13	0x3da3bd72	0.07995118
14	0x3f175dc7	0.5912747
15	0x3e0ae58e	0.1356413
16	0xbdec3a76	-0.11534588
17	0x3e43f8f5	0.19137938
18	0xbe0b6fd4	-0.13616878
19	0xbe6eb97d	-0.23312946
20	0xbce27533	-0.027643776
21	0x3e185f55	0.14880116
22	0xbd94b3b8	-0.07260841
23	0xbe1680b5	-0.14697535
24	0x3d89af6f	0.067229144
25	0x3e070b28	0.1318785
26	0x3d806422	0.06269099
27	0xbe5ad3c1	-0.2136984
28	0x3e4eb312	0.20185497
29	0xbdae5990	-0.085131764
30	0x3d72b45a	0.059254028
31	0xbe06356b	-0.13106315
32	0x3ed66901	0.41876987
33	0xbefb5eab	-0.49095663
34	0xbca33077	-0.01992057
35	0x3e835476	0.25650376
36	0x3e474f5a	0.19463864
37	0xbe96919d	-0.2940797
38	0x3d5321fe	0.05154609
39	0xbdf3f0a4	-0.11911133
40	0x3e0815d2	0.13289574
41	0x3e2d714f	0.16937755
42	0x3edad53c	0.4274081
43	0x3e8f4e16	0.27989262
44	0x3e44b9ec	0.19211549
45	0x3e86e3e2	0.26345736
46	0x3ec24dca	0.37949973
47	0x3e20ab1e	0.15690276
48	0xbea5ce98	-0.3238418
49	0xbd053595	-0.032521803
50	0xbe3e8d03	-0.18608479
51	0xbe705df7	-0.23473345
52	0x3ecc7deb	0.39939818
53	0x3e081952	0.13290909
54	0xbf0bd9e6	-0.5462936
55	0x3e13ed36	0.14445958
56	0x3eae522e	0.34047073
57	0xbeb15381	-0.3463402
58	0xbe92465f	-0.28569314
59	0xbe1572fd	-0.14594646
60	0x3e797d27	0.24364148
61	0xbf065d1f	-0.5248584
62	0x3bab820d	0.005234009
63	0x3e9e1d6a	0.30881816
64	0x3ed6f023	0.41980085
65	0xbee2be50	-0.44285822
66	0xbebebcb5	-0.37253347
67	0xbe4c7b44	-0.19968897
68	0x3e5fe3dc	0.21864265
69	0xbf354eb6	-0.7082323
70	0xbe26fc2f	-0.16307138
71	0xbc9c93d6	-0.019113462
72	0x39545d73	0.00020252708
73	0x3d20a2e1	0.039217833
74	0xbe80d128	-0.25159574
75	0xbd88feab	-0.06689199
76	0x3f0fbde2	0.56149113
77	0x3dc54dfd	0.09634016
78	0x3f3cb804	0.73718286
79	0xbe7b8d0f	-0.24565528
80	0xbe8f7ef3	-0.28026542
81	0xbef40432	-0.4765945
82	0x3ef41f79	0.47680262
83	0xbe91ae45	-0.2845327
84	0xbdee0add	-0.11623166
85	0xbe19600a	-0.14978042
86	0x3dac18e8	0.08403188
87	0xbec64132	-0.38721615
88	0x3eb562a1	0.3542681
89	0x3eaf12ef	0.34194133
90	0x3e3b91a4	0.18317276
91	0xbe848fbf	-0.2589092
92	0x3e3deda5	0.18547685
93	0xbf178040	-0.5918007
94	0x3dcaaca0	0.09896207
95	0x3d940d8b	0.072291456
96	0x3eb51feb	0.35375914
97	0x3e9f8714	0.31157744
98	0xbdec9e23	-0.115536
99	0xbeb6ff40	-0.35741615
100	0x3e67fe43	0.22655587
101	0xbe92540b	-0.28579745
102	0x3eefb537	0.46817943
103	0xbe787405	-0.24263008
104	0xbe99f4e8	-0.3006966
105	0xbd016a1c	-0.031595334
106	0xbe1dee92	-0.15423039
107	0x3da6806c	0.08129963
108	0xbcd2b927	-0.025723053
109	0xbe7933fd	-0.24336238
110	0x3cdf8a17	0.027287526
111	0x3ea4d137	0.32190868
112	0xbd802f43	-0.062590145
113	0x3e61ce4e	0.22051355
114	0x3d6726c3	0.05643345
115	0x3e1de4db	0.15419333
116	0x3da572fa	0.08078571
117	0x3ea49be2	0.3215018
118	0x3bfbbc9c	0.007682396
119	0x3ed82a5e	0.42219824
120	0xbddc5716	-0.10758798
121	0xbede9284	-0.43471158
122	0x3ed493c0	0.41518974
123	0xbd2a2a06	-0.041543983
124	0xbf0bea1d	-0.54654104
125	0x3e141ac5	0.14463337
126	0xbe523e97	-0.20531689
127	0x3e16f40a	0.14741531
128	0xbdec2afc	-0.11531636
129	0x3ecbe363	0.3982192
130	0x3d6686bd	0.05628084
131	0xbf081013	-0.5314953
132	0x3e09fc25	0.13475092
133	0x3ca76757	0.020435018
134	0xbea37c38	-0.3193071
135	0x3e6a0fff	0.22857665
136	0x3ee2785f	0.4423246
137	0xbe584bd9	-0.21122684
138	0x3cd0a69a	0.025470067
139	0x3e7e67b0	0.24844241
140	0x3ec4144b	0.38296732
141	0xbe4e1e89	-0.20128836
142	0xbdceb94d	-0.10093937
143	0x3ed2d28f	0.41176268
144	0xbeb778b9	-0.35834292
145	0x3efe2e77	0.49644825
146	0xbd8f757c	-0.0700483
147	0xbdf579b4	-0.11986104
148	0xbd1d7d6d	-0.038449693
149	0xbe2a1f16	-0.16613421
150	0xbeff38ad	-0.49847928
151	0x3e02b818	0.12765539
152	0x3e311308	0.17292416
153	0xbea6bffd	-0.3256835
154	0x3d192167	0.03738537
155	0x3ecf5cbb	0.40500435
156	0x3ebc76de	0.36809438
157	0x3f00a8d3	0.50257605
158	0xbe453d43	-0.1926165
159	0xbd8fbfca	-0.07019003
160	0x3af63ab3	0.0018785804
161	0xbe8f5a43	-0.27998552
162	0x3d04b6ba	0.032400824
163	0xbe7fea38	-0.24991691
164	0xbdcf4f12	-0.10122503
165	0x3eb0597d	0.34443274
166	0xbd8cec95	-0.06881062
167	0x3c9ed3a6	0.019388031
168	0x3e249d71	0.16075684
169	0x3f112393	0.56694907
170	0x3e686c9b	0.2269768
171	0x3d27e9f7	0.04099461
172	0xbe49f365	-0.19721754
173	0x3d41a547	0.04727676
174	0xbe3e6912	-0.18594769
175	0x3efb0fe0	0.4903555
176	0x3ea6a50c	0.32547796
177	0xbe663dcd	-0.22484513
178	0x3f1989a5	0.59975654
179	0x3db20277	0.086918764
180	0x3ed9c7d1	0.4253526
181	0xbe8e96e4	-0.27849495
182	0xbc76bca9	-0.0150596285
183	0xbf1d67e1	-0.6148663
184	0x3e948901	0.29010776
185	0x3ea4be5f	0.32176492
186	0x3da02c47	0.07820945
187	0x3e75a6a7	0.23989354
188	0x3ee039bf	0.43794057
189	0x3de52cae	0.111901626
190	0xbe285354	-0.16438037
191	0xbe3fc85c	-0.18728775
192	0xbe24b279	-0.16083707
193	0xbda2dbe1	-0.07952095
194	0x3d9220e7	0.07135182
195	0x3d1a6eea	0.037703432
196	0xbcce7d30	-0.025206178
197	0x3e32f834	0.17477494
198	0xbdc6abd5	-0.09700743
199	0x3f38bc91	0.7216273
200	0x3e917178	0.28406882
201	0xbe4f2ff5	-0.20233138
202	0xbeeed2b5	-0.46645132
203	0xbd04a866	-0.03238716
204	0x3e8bb167	0.27283785
205	0x3ea11c89	0.31467083
206	0x3bd2dcaa	0.0064349966
207	0x3f039806	0.51403844
208	0x3d80f17e	0.06296061
209	0xbefbb4ec	-0.4916147
210	0xbe43c97f	-0.19119833
211	0x3ef3ebff	0.47640988
212	0xbe8051b7	-0.25062343
213	0xbbc18650	-0.005905904
214	0xbea146f8	-0.31499457
215	0x3e73dec0	0.23815441
216	0xbef9e020	-0.48803806
217	0xbe7020c0	-0.23449993
218	0x3ddab8a0	0.10679746
219	0x3e5f223f	0.21790408
220	0xbe9fdaef	-0.3122172
221	0x3eb6e61c	0.35722435
222	0xbcc49bb1	-0.02400002
223	0xbea9d938	-0.33173537
224	0xbdf2f447	-0.118629985
225	0x3ef33005	0.47497573
226	0xbe485e86	-0.19567308
227	0xbec0e876	-0.37677354
228	0xbd45cf93	-0.04829366
229	0xba16a47e	-0.0005746557
230	0x3d457553	0.048207592
231	0xbdd5dd49	-0.104425974
232	0x3ea4cccc	0.32187498
233	0x3e74c91a	0.23904839
234	0x3e81becb	0.25340876
235	0xbd3c6aa5	-0.04600014
236	0x3e135f0e	0.14391729
237	0x3efa0a54	0.48836005
238	0xbe509ea9	-0.20373024
239	0xbeca5853	-0.3952051
240	0xbe5419bc	-0.20712942
241	0xbe844592	-0.25834328
242	0x3e37017a	0.17871657
243	0x3ee3da5e	0.44502538
244	0x3dd9ce40	0.10635042
245	0x3da1c021	0.07897974
246	0x3d6dde60	0.0580734
247	0x3ea6673b	0.32500634
248	0xbed6da31	-0.41963342
249	0x3cd95d84	0.02653385
250	0x3e8892a8	0.2667439
251	0xbe1a5445	-0.15071209
252	0xbefb19d6	-0.4904315
253	0x3dd74e05	0.10512928
254	0xbe84de53	-0.2595087
255	0xbe3549fc	-0.17704004

fc.bias f4 [54]
0	0x3df0f65d	0.1176574
1	0xbe0fd71b	-0.140469
2	0xbebab775	-0.36468092
3	0xbe6d8100	-0.23193741
4	0xbc163208	-0.009167202
5	0xbe8e7972	-0.2782703
6	0xbe6a8d5e	-0.2290549
7	0xbe3100e2	-0.17285493
8	0xbc2313fb	-0.009953494
9	0xbea0ec8a	-0.31430465
10	0xbe5007f9	-0.20315541
11	0x3c6ca255	0.014443
12	0xbe23fa0a	-0.16013351
13	0xbe522195	-0.20520623
14	0x3d211b0b	0.03933243
15	0xbe48d4ca	-0.19612423
16	0xbee487db	-0.446349
17	0xbe59e803	-0.21279912
18	0xbdff8063	-0.1247566
19	0xbe4a55bd	-0.19759269
20	0xbe3a7001	-0.18206789
21	0xbdd7efb1	-0.105437644
22	0xbeaef8f3	-0.34174308
23	0xbefd261d	-0.4944314
24	0xbe93b0f1	-0.28845933
25	0xbe4982b6	-0.19678769
26	0xbf1226a5	-0.57090217
27	0xbf12773f	-0.57213205
28	0xbf1c4e7a	-0.61057246
29	0xbf289ee7	-0.65867466
30	0xbf229aba	-0.63517344
31	0xbf2ae6b5	-0.6675828
32	0xbf21ed83	-0.6325304
33	0xbf031ff7	-0.5122065
34	0xbf17fdd9	-0.59371716
35	0xbef4800b	-0.4775394
36	0xbf09243e	-0.53570926
37	0xbf124966	-0.5714325
38	0xbeef3c69	-0.46725777
39	0xbf10b015	-0.5651868
40	0xbf1563ec	-0.58355594
41	0xbef77f9a	-0.4833954
42	0xbf310316	-0.69145334
43	0xbf12037b	-0.5703656
44	0xbf0ccaf5	-0.5499719
45	0xbf10dfe0	-0.56591606
46	0xbf13e700	-0.57774353
47	0xbf167693	-0.5877468
48	0xbee72d28	-0.4515164
49	0xbf1036e2	-0.56333745
50	0xbf219004	-0.63110375
51	0xbf0e2197	-0.55520004
52	0xbf2863fa	-0.6577755
53	0xbedb9a06	-0.42890948
