神经网络作业/A7/models/name_generation_rnn2_AT_doublenamekongge.pth (torch, 124052 bytes, 6 tensors)

rnn.weight_ih_l0 f4 [128, 54]
000000 33 78 89 be 7a ac 05 3f 9f 81 6f be f2 da b0 3e
       -0.26849517 0.52216303 -0.2338929 0.34542042
000010 89 bf d3 be eb 6e 4e bf 88 6a 65 bf 57 6c fd be
       -0.41357067 -0.80638 -0.8961568 -0.4949672
000020 dd cf cc 3e 6d 38 74 3e c5 44 0c 3e 94 20 38 3e
       0.40002337 0.2384965 0.13698108 0.17981178
000030 3a 39 bc bf 55 16 80 3d 82 ad d5 3d 16 1b b5 bf
       -1.4704964 0.062542595 0.104334846 -1.4148891
000040 a7 be a2 be 7b 17 00 bf 5a 7b 44 be 9c 18 9b bf
       -0.3178608 -0.5003583 -0.1918768 -1.2116885
000050 1f ad 67 3f 59 c8 9c bd c1 70 83 3e 61 82 4b bd
       0.90498537 -0.07655401 0.25671962 -0.049684886
000060 2f 86 83 3f 06 85 48 3f 52 5f 01 3d 66 cb 12 3d
       1.0275325 0.7832798 0.031585045 0.035838507
000070 31 ac 85 3d 44 23 8a 3c d1 34 8b 3d ab 28 2f bd
       0.065269835 0.01686252 0.06797183 -0.042763393
000080 22 3b 47 3d d2 62 8e bd b3 78 49 bd 21 a4 9a bd
       0.048640378 -0.06952442 -0.049187373 -0.07550836
000090 2f 74 a8 3d 1d 6e 1d bd 78 87 95 3c f1 94 23 bd
       0.08225285 -0.03843509 0.018253073 -0.039936963
0000a0 00 e1 86 bc c0 03 5f bb 13 08 7f bd d1 b8 95 3d
       -0.01646471 -0.0034029335 -0.06226356 0.073106416
0000b0 f9 d1 aa bd e8 60 30 3c 26 39 8f bd ca 27 a1 bd
       -0.0834083 0.010765292 -0.06993322 -0.07868917
0000c0 cb ef a3 3d 09 29 9a 3d d2 19 4c 3d b6 d1 8f bd
       0.08004721 0.07527358 0.04982931 -0.07022421
0000d0 08 7b 51 3f b7 75 e7 bf a2 09 44 3f e6 e1 34 bf
       0.81828356 -1.8082799 0.765772 -0.70657194
0000e0 dc 1e 9f bc ac a5 c3 3d 8e ee 1c 3f 9e 50 5e 3e
       -0.019423895 0.09553084 0.61301506 0.2171044
0000f0 b3 62 4f bf ed 1f 4d bd 8b 74 f2 bf 34 c2 4e bf
       -0.8100998 -0.050079275 -1.8941816 -0.8076508
000100 b6 8f 93 bf b8 a8 8b 3e 62 eb 63 bf 36 27 8a 3f
       -1.1528232 0.2727716 -0.8903104 1.0793216
000110 c4 cf b6 be 15 22 1c 3e eb 26 42 3f a3 06 a3 3e
       -0.35705388 0.15247376 0.75840634 0.31841
000120 10 8c 54 bf 95 f3 3b bf 43 b4 b7 be a5 ee 86 bf
       -0.8302622 -0.7341855 -0.35879716 -1.0541579
000130 5b 26 05 bd 3a 23 33 bf f4 eb a0 bf 3b b4 04 bf
       -0.03250728 -0.69975626 -1.2572007 -0.5183751
000140 b8 9b 53 3c 50 14 c4 3c 90 8d 86 bd 00 73 81 bd
       0.012915544 0.023935467 -0.0656997 -0.06320763
000150 b0 b1 c0 bb ab f1 a2 3d d5 88 a5 3d 93 44 84 bd
       -0.005880557 0.07956251 0.08082739 -0.06458392
000160 22 72 2e bd 70 53 6e bc 30 78 6d bc 02 95 6c 3d
       -0.042589314 -0.01454626 -0.014493987 0.057759292
000170 ba cc 4b 3d 16 05 52 bd ac 92 19 bd 57 01 86 bd
       0.04975579 -0.05127438 -0.037493393 -0.06543224
000180 7c 99 bf 3c dd 51 8d bd d2 b2 05 3d 26 56 6d 3d
       0.023388617 -0.0690038 0.03264124 0.057943486
000190 54 57 17 bd 71 b4 16 bd 90 35 82 bc f9 51 45 bd
       -0.036948517 -0.036793176 -0.015894681 -0.04817388
0001a0 28 b2 a3 bd 44 14 4e bd 80 23 6e bf 1d af a5 c0
       -0.07992965 -0.050312296 -0.9302292 -5.177626
0001b0 a4 75 a7 3c 4b ae a4 be d8 68 8c 3e f9 f4 87 bf
       0.020441838 -0.32164225 0.2742374 -1.0621635
0001c0 0a bb 17 bf ef 19 c3 3e 68 51 04 40 49 70 5b 3f
       -0.59269774 0.38105723 2.0674686 0.8571821
0001d0 9a 47 fb 3f 88 c3 1a 3e 64 02 58 3f d5 33 84 be
       1.9631226 0.15113652 0.8437865 -0.25820795
0001e0 10 45 09 be ae f3 a3 bf 4a 94 20 3f 83 c7 06 3f
       -0.13405252 -1.280874 0.6272627 0.5264818
0001f0 6e 94 91 3f 80 40 2a 3f f7 f2 7e bd 9a 99 c6 bf
       1.1373422 0.6650467 -0.062243428 -1.5515625
000200 f4 d6 b7 3b 80 68 70 3f 49 7a 14 3f e6 bc 1c 3e
       0.005610341 0.93909454 0.5799909 0.15306434
000210 4b 40 cb 3e 73 52 a2 3e d8 77 84 3c fe 0b 5a 3d
       0.3969749 0.3170353 0.016170427 0.053234093
000220 f6 05 5b 3d 3f aa 0b bd f8 73 a8 bd 8c 7d c7 bc
       0.05347248 -0.034097906 -0.08225244 -0.024351858
000230 6a 80 2a 3d b8 a9 49 3c 60 ae 8e bc 60 97 89 3b
       0.04162637 0.0123085305 -0.017417133 0.0041989535
000240 6e 2a 18 3d 5e 18 87 bd e5 8e 84 3d f0 2e 83 3c
       0.03714984 -0.065964445 0.064725675 0.016013592
000250 2a 37 6a 3d fe 56 01 3d 0e 0a ac bd 90 2f ff bb
       0.057181515 0.031577103 -0.08400355 -0.0077876523
000260 aa 3b 08 bd 2c 9c 8a bc d6 de 43 3d e8 80 3d 3c
       -0.033260025 -0.016920172 0.047819935 0.011566378
000270 e0 24 c7 3b 19 35 b3 3d 88 59 bb 3c a3 40 1b bd
       0.006077394 0.08750362 0.02286984 -0.03790344
000280 cd a9 2d 3e c2 83 0c bf ac b4 80 be 76 ed 0c 40
       0.16959305 -0.54888546 -0.25137842 2.2019935
000290 c9 3e 21 3e dc 62 10 bf f0 30 21 3e 47 1f 90 3f
       0.15746607 -0.5640085 0.15741324 1.1259545
0002a0 1d 67 ae 3f 2b 20 7a 3f 3d d2 d4 3f ee a0 ab 3f
       1.3625218 0.97705334 1.662666 1.3408487
0002b0 d9 14 cf 3e c4 71 c7 be a3 65 0e bf 64 35 7b 3e
       0.40445593 -0.38953984 -0.55623835 0.24532086
0002c0 bd 26 a7 3e 1e c5 8f be 59 35 94 3f 76 e1 37 bf
       0.32646742 -0.28080076 1.157878 -0.718284
0002d0 40 2b 40 be 90 17 af 3e 7e b2 7b be 13 bf a9 bc
       -0.18766499 0.34197664 -0.24579808 -0.020720994
0002e0 dd 13 ad be 12 16 43 be b3 5d 8f 3f 2b 45 45 bf
       -0.33804217 -0.19051388 1.120047 -0.77058667
0002f0 62 a6 27 3d 8f 15 69 bd 82 23 99 bd 10 e2 4d 3c
       0.04093016 -0.056905326 -0.07477476 0.0125661045
000300 dd 84 89 3d 30 63 1f bd 7d 47 2c bd 3a 84 30 3d
       0.06714795 -0.038912952 -0.042060364 0.04309485
000310 08 cb 8c bd 00 7a 84 ba b8 a5 4a 3c 72 6b 2a 3d
       -0.06874663 -0.001010716 0.012368612 0.041606374
000320 b0 9f e9 bc 34 4d 16 bd 72 2e 12 bd 45 97 b2 bd
       -0.028518528 -0.03669472 -0.035688825 -0.087202586
000330 36 f5 fd bc 02 06 07 bd 60 4e a8 bb ef 88 53 bd
       -0.031000715 -0.032964714 -0.005136296 -0.051644262
000340 92 59 13 bd 9a 49 46 3d 80 73 81 bd 42 63 a0 bd
       -0.035974093 0.048410036 -0.06320858 -0.07831432
000350 a2 8a 31 3d 30 01 f8 3c c4 06 5c bf a6 28 47 3e
       0.0433451 0.030274004 -0.85947824 0.194491
000360 08 f1 17 3f 7e e1 17 bf 8b bf 4d bf b6 3c ac be
       0.5935216 -0.5932845 -0.80370396 -0.3364007
000370 3d be 66 3f e4 dc d1 be 35 c9 15 bf 3a 68 54 be
       0.9013403 -0.4098884 -0.5851014 -0.20742884
000380 d2 9b 9a 3f 00 a2 e6 3e fe ca a1 bd 7d 81 79 bf
       1.2078803 0.4504547 -0.07900046 -0.9746321
000390 b6 fb 46 bd 17 10 cf be 72 b5 c6 3f c7 d0 cb 3d
       -0.048579894 -0.40441963 1.5524123 0.099519305
0003a0 80 81 99 bf 1a 73 72 be 27 73 13 bf 49 b0 b6 3e
       -1.1992645 -0.2367672 -0.57597584 0.3568137
0003b0 19 e0 a1 3f 86 7b 3e 3e cc 63 ba be 86 04 9b bd
       1.2646514 0.18601808 -0.36404264 -0.07569222
0003c0 e7 74 40 bf 70 6d 7d be 00 c0 b0 3c 00 37 a8 3b
       -0.7517838 -0.24748778 0.021575928 0.0051335096
0003d0 50 a4 c9 3b eb 57 a1 3d ce 4d 37 bd 56 2e 5d bd
       0.006153621 0.07878097 -0.044751935 -0.053999268
0003e0 5a b6 3a bd b0 10 c9 3b c1 40 85 bd ce d0 01 3d
       -0.04558406 0.0061360225 -0.065064915 0.031693272
0003f0 3e 91 19 3d 1a 2e 75 bd f5 e0 81 3d 7c a7 80 3c
       0.03749203 -0.05985842 0.06341735 0.015704863

rnn.weight_hh_l0 f4 [128, 128]
000000 d1 dc c9 bd c0 35 ab 3b 73 59 49 3e 14 12 54 3d
       -0.098565705 0.0052249134 0.19663028 0.051775053
000010 28 1a 59 be 91 b0 87 3d 52 aa 73 3e 92 13 f3 3c
       -0.21201384 0.06625474 0.23795441 0.029672418
000020 9c 72 3c be 0f a3 6b bd 34 d3 12 3e af 85 35 be
       -0.18403095 -0.05752855 0.1433838 -0.17726777
000030 7f 72 77 3d 22 5d cd bc 45 41 8d 3b b3 28 be bd
       0.060411926 -0.025068823 0.0043107593 -0.092851065
000040 c1 9a 9e be b1 dc dc 3e 2b 15 1b bd 9f c6 49 bd
       -0.30977443 0.43137124 -0.037861984 -0.049261685
000050 ec 9a a3 bd e6 06 1a be 47 fc c8 3e d4 43 a7 bd
       -0.079885334 -0.15041694 0.39254972 -0.08167234
000060 8b 51 c2 3d 54 90 45 3c 1a bd 34 3d 78 97 80 be
       0.09488209 0.012058336 0.044125654 -0.2511556
000070 06 a5 53 3e 52 a6 ba bc 30 8f 18 3d 7e 9e 4a bd
       0.2066842 -0.022784386 0.03724593 -0.049467556
000080 b5 54 3c bc 77 40 49 3e 55 ff 45 be a6 f4 c5 3d
       -0.011494805 0.19653498 -0.19335683 0.096658036
000090 95 78 ac 3d f8 f7 a6 3d 5e cc 9b bd 26 69 df bd
       0.08421437 0.08152765 -0.07607339 -0.10908727
0000a0 49 4e 3e be 51 05 51 bc b3 74 4b 3d df b8 23 be
       -0.18584551 -0.012757615 0.04967184 -0.15988491
0000b0 09 e5 33 3e 58 59 cc bc a6 5b e5 bb dd ca b3 bd
       0.17567839 -0.024944946 -0.0069994507 -0.087789275
0000c0 64 8e 0b be 43 d9 c7 bd 40 42 fe bd d8 32 16 3e
       -0.13628536 -0.09758236 -0.1241498 0.14667833
0000d0 cf fa d5 3d d4 9e 6c 3d 4d 08 6a bd 5f 5c da 3d
       0.104482286 0.057768658 -0.057136822 0.1066215
0000e0 a9 df 98 bd 41 d9 c6 bd be 95 3b bd 8d 9e 21 bd
       -0.07464535 -0.09709407 -0.045797102 -0.039457846
0000f0 6f af 07 be d2 0c 91 bd b3 c3 01 be 73 3a 88 3d
       -0.13250516 -0.070825234 -0.1267231 0.06651773
000100 36 17 86 bd c0 25 bb 3d 6c 96 84 3d ed 99 f7 3d
       -0.06547396 0.091380596 0.06474003 0.12089906
000110 5d a3 4a be cf e9 ed 3d e6 be fa 3c 5e 50 f6 3d
       -0.1978888 0.11616861 0.030608606 0.120270476
000120 00 b0 02 be 41 92 02 3e a9 55 81 be d7 76 37 3c
       -0.12762451 0.12751104 -0.25260666 0.011197767
000130 5f 7b 2f 3d 78 11 e1 3d 24 61 d8 3b 2b c4 98 3d
       0.042842265 0.1098966 0.006603377 0.07459291
000140 79 90 d2 be 1f ca de bc 95 c0 d7 bd 30 a1 95 bd
       -0.4112585 -0.027195988 -0.10534779 -0.07306135
000150 bf 11 00 3d 21 ea 57 be 90 f7 cd 3d 2c ea 1b 3e
       0.031266924 -0.21085407 0.100569844 0.15226048
000160 48 1f d8 bd 2f 06 15 be 08 cf a9 be d8 41 c0 3d
       -0.105528414 -0.1455314 -0.33165765 0.09387559
000170 28 35 7b 3d 6b 9a ce bc ac ef 49 3e 2e e8 04 3e
       0.06132999 -0.025220117 0.19720334 0.12979195
000180 5d ea b3 3d 5c 86 12 3d d2 d6 a3 bd 50 e6 33 3c
       0.087849356 0.035772666 -0.07999958 0.010980204
000190 ed dd 35 be b1 3a a3 bb 42 18 c1 3d 6f 9f 20 be
       -0.17760439 -0.004981362 0.09428455 -0.15685819
0001a0 c2 5b ad bd 13 b6 37 3e c9 f2 1e bd 6b 72 06 bd
       -0.08464767 0.1794055 -0.038805757 -0.03282396
0001b0 34 19 12 3c 28 a1 cf 3d 45 c1 a6 3d bb a1 91 be
       0.008917142 0.1013816 0.08142332 -0.28443703
0001c0 65 18 9a 3b f2 ac 92 3e 3d fd 86 be 08 fb aa 3d
       0.004702615 0.28647572 -0.2636508 0.08348662
0001d0 9b 00 07 3d 63 7a 9e 3a b9 f1 1f 3e 7a 42 02 3e
       0.03295956 0.0012090917 0.15619554 0.12720671
0001e0 c7 ee 49 bd 6f e3 2b be 24 13 00 3e 48 3e 1d be
       -0.04929998 -0.16785978 0.12507302 -0.1535579
0001f0 0e f5 54 3d 55 32 36 3c 20 1e 11 3e a2 7d e8 3d
       0.051991515 0.0111203985 0.14171648 0.113520876
000200 82 39 f4 bd 55 e7 0a 3b 58 a1 88 be f9 2a 0d bf
       -0.11925031 0.0021195014 -0.26685596 -0.55143696
000210 8c de 12 3e b3 0d b5 3c 71 e1 d5 3c 5c 70 57 3c
       0.14342707 0.022101259 0.026108475 0.013149347
000220 f5 a2 64 3e 28 31 93 3d 2e da 0d 3e 91 1e 66 be
       0.22327788 0.0718711 0.1385276 -0.22472598
000230 8a 2e 86 be 5a 14 c6 3d 56 35 51 3d 74 ea c4 3d
       -0.2620738 0.096718505 0.051076256 0.09615031
000240 d1 ca 8b 3e 3c 93 b1 be 8f 35 26 3e 67 19 50 bd
       0.27303174 -0.34682643 0.16231368 -0.050805476
000250 20 da 49 bc 2b 38 24 be 55 3c 3b 3d 9f 85 91 be
       -0.012320071 -0.16037051 0.045711834 -0.28422257
000260 79 d6 2a be cd a2 c8 bd ce 5e 09 3e 96 e5 a8 be
       -0.16683377 -0.09796677 0.13415071 -0.3298766
000270 32 4c 99 bd c6 8f 40 3d cb c0 56 3e a5 cd b0 be
       -0.07485236 0.047012113 0.20971982 -0.34531894
000280 c5 4a 29 be 95 f8 12 3d a6 ac b2 bd 00 7c 52 be
       -0.16532429 0.035881598 -0.08724336 -0.20555115
000290 ed 7b 60 3e b3 90 00 3d fa 8d 54 3d 2c 8d 8f bd
       0.21922274 0.031387996 0.051893212 -0.07009348
0002a0 68 20 a9 be 25 ae 54 3e ee 64 33 3e 16 58 24 bc
       -0.33032537 0.20769556 0.1751897 -0.010030767
0002b0 47 dc 57 bc c3 b5 1e 3e f0 9b 78 be 21 5d 6f bd
       -0.013175077 0.15499024 -0.24278235 -0.058438424
0002c0 8a 16 89 3e 55 d8 d8 bd 91 b3 b7 ba bd 99 51 3e
       0.26775008 -0.10588137 -0.0014015307 0.20468803
0002d0 5e c9 60 3e 4b ba dc bc be b4 2a be 9c b1 e9 3d
       0.21951815 -0.0269443 -0.1667051 0.114108294
0002e0 a9 75 3d be 75 4d 53 3d de f2 00 3c 82 c3 c5 be
       -0.18501915 0.05158754 0.007870404 -0.38625723
0002f0 be b2 bd 3e 58 ea 55 bf ec 1f 3c be ca 28 47 be
       0.37050432 -0.83560705 -0.18371552 -0.19449154
000300 a1 b8 ff 3c 4e e3 28 be 8f 1f 15 3e cf 03 55 be
       0.031215968 -0.1649296 0.1456282 -0.20802234
000310 e6 96 7a 3e 91 55 08 3e f0 19 8a be 9f 8c 7e bd
       0.24471626 0.13313891 -0.26972914 -0.062145825
000320 7f 10 4c be 39 7f 21 be d1 74 b8 bd ee 05 d5 bb
       -0.19928168 -0.15771188 -0.09006656 -0.006500951
000330 4f b5 8e 3d 30 51 01 bc a3 af 1b be b0 30 33 3e
       0.069681756 -0.007892892 -0.15203719 0.17499042
000340 94 f9 9b be aa 01 7b bd 9b 9a 37 3e 27 cc 7f 3e
       -0.3046385 -0.061280884 0.17930071 0.24980222
000350 1b f6 02 3e 2b 66 23 bd db 2b b5 3a f5 4d 3b bd
       0.12789194 -0.039892357 0.0013822274 -0.045728642
000360 3b 09 5e bc 65 37 93 bc 98 eb 03 3e 69 5a 81 bd
       -0.013552005 -0.01797075 0.1288284 -0.063160725
000370 a1 c7 97 be ea cd 1e 3e 71 d5 7d 3e ca 33 21 3d
       -0.29644492 0.15508237 0.24788453 0.03935603
000380 64 3b 22 be 3c bb 0f be be eb dc 3b 51 ff 8a 3e
       -0.15842968 -0.14036268 0.00674197 0.27147916
000390 8f 72 31 bd 58 86 ce 3d 24 53 34 3e ae 8f a8 bd
       -0.043322142 0.10084218 0.1760984 -0.0823053
0003a0 8a 94 a5 be be 65 b3 3a 2f 1e f4 3d 8d c8 75 3e
       -0.3233989 0.0013686938 0.119198196 0.24002285
0003b0 ec 4d 8e be a0 4e dc bc 23 96 2a be 51 3d 59 3d
       -0.27793825 -0.02689296 -0.16658835 0.05303699
0003c0 21 8d 11 3e 1a ab e8 be 0d eb 94 3d a0 f1 6b bc
       0.14213993 -0.4544304 0.07271395 -0.01440087
0003d0 06 5d 49 be 80 a5 bb bd 3c f0 f2 bd 95 4e a1 3d
       -0.19664392 -0.09162426 -0.11862227 0.078763165
0003e0 bd b0 61 3d 02 cf 60 3e ab e2 10 3d 78 e0 ba 3d
       0.05510019 0.21953967 0.035372417 0.09124845
0003f0 36 11 19 be 14 71 35 bb 22 f1 21 bb c7 dd 89 be
       -0.14947972 -0.0027685808 -0.0024710377 -0.26927015

rnn.bias_ih_l0 f4 [128]
000000 09 78 38 be 8c 49 05 bf c7 d4 fa 3c 95 89 00 3f
       -0.1801454 -0.5206535 0.030619038 0.50209934
000010 b0 ac c0 bb b2 72 b9 3e 5f 40 42 3b 6c 37 36 bd
       -0.005879961 0.36220318 0.002964042 -0.04448645
000020 d0 d7 41 bc 0b 53 2c 3e 29 5e a2 3c 0a 57 94 bd
       -0.011831239 0.16828553 0.01982029 -0.07243164
000030 08 a6 b3 be 9e 24 e1 bd 28 96 6d 3a 19 ea 2c bd
       -0.3508761 -0.10993312 0.00090632075 -0.04221544
000040 db 09 ea 3c 93 fa 21 be 54 bf c9 3d 89 8d 06 be
       0.028569153 -0.15818243 0.09850946 -0.13139929
000050 69 a1 3d 3d 31 15 d9 bd 1e 71 ae 3d 76 de 27 3e
       0.04629651 -0.10599745 0.08517669 0.16393456
000060 2c f4 19 3d e6 e6 f3 3d 06 37 cc bd d4 6e 21 be
       0.037586376 0.11909275 -0.099714324 -0.15764934
000070 9e 90 b2 3d 92 45 ce 3d 22 ef ca bd 42 6b 0d bd
       0.0871899 0.10071863 -0.09908892 -0.034526117
000080 35 19 46 3e 80 d8 c1 3d 2b dd a1 3e 85 80 29 3e
       0.19345553 0.09465122 0.3161405 0.16552933
000090 68 a1 eb bd ed ad 56 be 8d ae 43 3e 5c aa 1b bc
       -0.11505395 -0.20964785 0.19109555 -0.009501066
0000a0 ed c7 d8 be 94 3a 31 be 45 34 6a 3d c0 ba be 3d
       -0.4234003 -0.17307502 0.057178754 0.093129635
0000b0 d2 49 58 bd 7d 2a 38 3d 9e 46 71 be 72 fc 3c be
       -0.052804776 0.044962395 -0.23562095 -0.18455675
0000c0 43 08 9c bd a0 51 cb bd ff a1 ff 3d 90 f9 46 be
       -0.07618763 -0.09927678 0.1248207 -0.19431138
0000d0 97 67 5a be 6e 86 65 be 7c 49 e5 3d 2f ff 75 bc
       -0.21328579 -0.22414562 0.11195657 -0.015014454
0000e0 d2 5f a6 be 74 6e 29 be 56 0b 06 be 52 9e 4a 3d
       -0.3249498 -0.16546041 -0.13090262 0.049467392
0000f0 20 e8 04 be 58 9b ec bc 66 91 9b bd e4 9d d8 bd
       -0.12979174 -0.028882667 -0.07596092 -0.1057699
000100 a6 b6 f9 bd 8e 76 8e bd c0 78 1f be 49 03 38 be
       -0.121930405 -0.06956206 -0.15573406 -0.17970003
000110 29 58 a3 3d 58 3f ec 3d 4b 94 57 3d 26 d8 ef 3b
       0.079757996 0.11535519 0.052631658 0.007319468
000120 a4 7c d5 be 8e 54 56 be ef c4 d3 3d ae e9 9b bc
       -0.41696656 -0.20930693 0.103402965 -0.019032326
000130 02 eb db bd b9 6a a8 be 38 35 5c bc 95 a8 a7 be
       -0.107381836 -0.32893923 -0.013440423 -0.32745805
000140 5b 65 d2 3c 2e 4f c3 3d 4e 07 8e 3e 6f a4 d6 bc
       0.025683096 0.09536587 0.27739948 -0.026201455
000150 37 e3 d8 3d eb b8 f6 bd 2b c1 c7 3d e9 e4 8f be
       0.10590213 -0.12046989 0.09753641 -0.28104332
000160 6c d1 c6 3e 7e 35 08 3d c5 fe 93 3e 6b 14 8f bd
       0.3883165 0.03325414 0.2890531 -0.06986316
000170 f5 d9 bf 3d 50 cd 1d be 22 d9 ba bc b6 4b f2 3d
       0.09367744 -0.15410352 -0.022808615 0.11830847
000180 c5 ba c4 bd fc 9f 17 3e 1a 36 3b 3d 7b 5c 87 3d
       -0.09605936 0.14807123 0.045705892 0.06609436
000190 a8 9b 3f be b1 31 15 3e bc ab 9b 3d 9f 7e 9d 3d
       -0.18711722 0.14569737 0.07601115 0.07690167
0001a0 ea 46 88 3d 7e 00 2d be b6 1f 3e be 8f b0 de bd
       0.06654151 -0.16894719 -0.18566784 -0.1087352
0001b0 6c 5a 65 3d 09 84 b4 3b 58 ec 3f 3e 66 4e 53 be
       0.055994436 0.005508904 0.18742502 -0.20635375
0001c0 43 e7 99 3d 3d 8b 48 be e1 97 c3 3d ea d0 8c 3d
       0.07514813 -0.19584365 0.09550453 0.06875785
0001d0 75 0c 0b bb c4 52 2f be 18 9b 8c 3d d3 c2 81 bb
       -0.0021217142 -0.17121416 0.06865519 -0.0039599924
0001e0 dc 65 f9 3d 09 67 67 3e 84 b4 96 bd bc 13 2c 3e
       0.12177631 0.22597899 -0.073586494 0.16804403
0001f0 ed 8d 3f bc ab f3 a3 bd 78 fb 80 3e da ae d4 3d
       -0.011691553 -0.0800546 0.25191855 0.10384913

rnn.bias_hh_l0 f4 [128]
000000 c6 ef 3c bd 71 46 e7 be a2 1a ab 3d d4 c2 f3 3e
       -0.046127103 -0.4517093 0.08354689 0.4760958
000010 72 a2 15 bd cb 7e d1 3e 96 68 23 3d a6 81 2a bc
       -0.036531873 0.40917048 0.039894663 -0.010406887
000020 c7 56 c3 3a 42 81 e3 3d 16 51 b1 3d 81 c6 f7 bd
       0.0014903181 0.11108638 0.08658044 -0.120984085
000030 a2 fe aa be 97 6f 89 bd c8 63 b3 3c 13 f8 53 bd
       -0.33397394 -0.06710737 0.021898165 -0.051750254
000040 1a 6a 08 3e 9b d3 5c bd 2c 18 53 3d 03 da 07 be
       0.13321725 -0.05391274 0.051536724 -0.13266759
000050 04 61 4d bc 2d be d7 3c 83 98 ce 3c bb 7b 5c 3e
       -0.012535337 0.0263358 0.025219208 0.21531574
000060 77 4c 51 bd 9c 48 c6 3d 51 59 20 bd ce 22 9e bd
       -0.051098313 0.09681818 -0.03914768 -0.07721482
000070 22 0c 3b 3e 14 d5 13 bd 62 b3 bb bd 45 fa 4b bd
       0.18266347 -0.03609188 -0.09165074 -0.049799222
000080 04 f1 8d 3e 35 b2 b5 3d 3a 18 7f 3e 78 d6 14 3e
       0.27722943 0.08871881 0.24911585 0.14534938
000090 14 2c 84 3c 5b 0d 33 bd 8f c5 54 3e 2f be f5 bb
       0.0161343 -0.04371391 0.20778488 -0.0074994783
0000a0 f0 2b f1 be 03 02 a5 bd d6 18 96 3c ee 12 64 3e
       -0.47103834 -0.08057024 0.01832239 0.22272846
0000b0 3b 33 15 be 79 05 00 3e 87 b3 32 be fe 28 27 be
       -0.14570324 0.12502088 -0.17451297 -0.16324231
0000c0 41 04 18 bd 85 2f b6 bc ab da 71 bb 1d 5a 5a be
       -0.03711343 -0.022239456 -0.0036904018 -0.21323438
0000d0 32 da 5d be 64 77 1e be 31 51 05 3e 31 6e 0a bb
       -0.21665266 -0.15475231 0.13019253 -0.0021122808
0000e0 85 fc 93 be 27 3d 52 be e1 1c 26 bd 82 ca d2 3c
       -0.28903595 -0.2053114 -0.040554885 0.025731329
0000f0 11 a9 9f bc f5 ab 31 be cf 14 08 be 2f 3b c7 bd
       -0.019489797 -0.17350753 -0.13289188 -0.09728085
000100 02 b2 03 bd 6c 75 db bd f7 6f 42 be 84 93 44 be
       -0.032152183 -0.10715756 -0.18988024 -0.19196898
000110 56 d1 33 bd f2 58 22 3e aa 12 10 3d c8 f5 cc bd
       -0.04390081 0.15854242 0.03517405 -0.100078166
000120 cf d4 ae be 81 bb 4d be 47 e9 f5 bc a9 4b bf bd
       -0.34146735 -0.20091058 -0.030018462 -0.09340603
000130 99 9d 8a bd 3e 97 b4 be b0 d5 16 bb 70 d7 a2 be
       -0.067683406 -0.3527164 -0.0023015551 -0.3180499
000140 44 e5 07 3e bd d1 27 3e 90 e1 84 3e d4 1a 2c 3d
       0.13271052 0.16388603 0.2595334 0.042017773
000150 72 40 af 3c 18 98 1a be 2b c4 73 3d 3a b2 47 be
       0.021393035 -0.15097082 0.059513252 -0.19501582
000160 d1 a8 cb 3e 80 b1 ec 3c cf ea 87 3e 4d 8d e1 3b
       0.39777234 0.028893232 0.26546332 0.0068832994
000170 17 4f f2 3d 24 83 1e be 98 d5 2b 3d 60 e1 79 3d
       0.118314914 -0.15479714 0.041951746 0.06100595
000180 24 65 ed 3c 0c af e9 3d d1 71 c0 3c d1 76 47 3e
       0.028978892 0.11410341 0.023491772 0.19478919
000190 da 95 08 be 27 7b b6 3d af 3b 08 3c e2 0a f7 3d
       -0.13338414 0.08910208 0.008315011 0.120626226
0001a0 2e bf 12 bd ac c2 2b be 50 83 c5 bd c6 c3 22 bd
       -0.035826854 -0.1677348 -0.096441865 -0.039737485
0001b0 86 a8 53 bd 82 7b bb bd af 4b 1a 3e 18 69 19 be
       -0.05167439 -0.091544166 0.15067933 -0.14981496
0001c0 cf 02 47 3d cc 4e a4 bd 8e ce 42 3c 8d be 56 3c
       0.048586663 -0.08022842 0.011890067 0.013106954
0001d0 4a 0c 98 bd 9a 8a 53 be 92 79 ef 3c 23 f7 0a 3d
       -0.07424219 -0.20658341 0.029232774 0.033927094
0001e0 3f da 8a 3e 83 cc 3e 3e 91 84 ca 3d 8e 04 4c 3e
       0.27119634 0.18632703 0.09888566 0.19923612
0001f0 5b 7e 94 bd ba 8c 9d bd 68 ac 22 3e 48 11 3c 3e
       -0.07250663 -0.07692857 0.1588608 0.18365967

fc.weight f4 [54, 128]
000000 ee 9a a0 bd c5 12 cb bd ec de d5 be fa a3 07 3e
       -0.078420505 -0.099156894 -0.41771638 0.13246146
000010 5d 1a 92 be ca c2 9b be c4 cf 2f 3e 59 e2 d5 be
       -0.2853574 -0.3042205 0.171691 -0.41774252
000020 7b a0 af 3d 53 0a 1d 3d 2f 3a 60 3c 19 29 c7 be
       0.08575531 0.038339924 0.013685747 -0.38898543
000030 27 eb 06 be 63 33 a8 bd fb 90 1e 3f 97 19 7b 3d
       -0.13175641 -0.08212926 0.6193997 0.0613037
000040 30 d7 11 3f a8 01 63 bd 6b ed 07 3f d5 af 56 be
       0.56968975 -0.0554215 0.53096646 -0.20965512
000050 39 5a b4 3d f9 7f d7 3e 05 3a ce 3d c3 68 90 be
       0.08806271 0.42089823 0.1006966 -0.28204927
000060 8a 42 92 3c 41 9a 99 3e dd bb e2 3e e2 ea 27 bf
       0.017853994 0.300005 0.44283953 -0.6559278
000070 47 b8 53 3e da 28 c4 be 4d 16 90 3d 9d 23 50 be
       0.20675765 -0.38312417 0.070355035 -0.20326085
000080 7f 75 c9 3e 52 89 fc bc 04 14 fa be be 20 0e 3e
       0.39347455 -0.030827198 -0.48843396 0.13879678
000090 fd 40 bd bc 54 57 89 bd 4e a9 b3 bd 5e 0e b3 3c
       -0.023102278 -0.0670611 -0.08772527 0.021857437
0000a0 88 8c 19 3e 3e 0e 10 3e 87 dc e0 3d 3f 37 c1 3e
       0.14995015 0.14067933 0.10979562 0.37737462
0000b0 cf 64 4d 3e 4a ee 4e 3f 4d 11 f7 3e 1c 7d be 3d
       0.20057987 0.8083235 0.48255387 0.093012065
0000c0 c8 c9 9f be 0f 4a 08 3e dd 55 ce be d4 a0 bc be
       -0.31208634 0.13309501 -0.40299883 -0.36841452
0000d0 c1 c9 0a 3e ee d4 a9 3e b6 d4 63 3d a4 6c 95 be
       0.13553526 0.33170265 0.05562278 -0.2918445
0000e0 7b f8 f5 3d 39 79 00 bf d4 b2 28 bd bb a7 28 3d
       0.120102845 -0.5018497 -0.04118617 0.041175585
0000f0 a3 4c f3 bb b2 a3 40 be e2 6d a1 bd ee 2c ba 3e
       -0.0074249073 -0.18812445 -0.078822866 0.36362404
000100 0e 4f 06 3d 08 9f fc bd 05 13 49 bd af ed c1 be
       0.032790236 -0.1233502 -0.049090404 -0.3787665
000110 77 0f 04 3e 2f 04 8f be 7e e4 7c 3d 6d 59 36 be
       0.12896524 -0.2793288 0.061741345 -0.1780755
000120 94 f5 ca 3d a2 03 fc bc 61 ea bc be fc 8e d9 bd
       0.099101216 -0.030763451 -0.36897567 -0.10622975
000130 54 9f aa 3e 57 ec 03 bd f4 9c 47 3d 1c 41 f7 bd
       0.33324683 -0.032207813 0.048733667 -0.120729655
000140 d3 33 2f bd b8 37 b1 be 03 8f 25 3f bf d1 b1 3d
       -0.042774033 -0.34612823 0.64671344 0.08682584
000150 23 36 6c be ad 4f 08 3e b6 be 3c 3e 50 27 3f 3c
       -0.23067527 0.13311644 0.18432125 0.011667088
000160 e1 46 46 3e e0 29 cc 3d 3b 87 bf 3e c6 b0 63 be
       0.19362976 0.099689245 0.3740786 -0.22235402
000170 9b b0 8f 3e 2d ca 88 be 49 58 85 3e 8a b7 66 3e
       0.28064427 -0.26716748 0.2604392 0.22530952
000180 6e c7 b1 3e c0 4b 7d 3d 93 81 7a bd 8a 12 ce be
       0.34722465 0.06183982 -0.061158728 -0.4024852
000190 11 b1 da 3d 1d 6d f2 be 51 e8 3a 3e d3 5a 3a be
       0.10678304 -0.47348872 0.18252684 -0.18198709
0001a0 b5 58 ae be 0f 10 17 3e 16 5a d4 bd 89 9a f2 3e
       -0.34052053 0.1475222 -0.10368745 0.47383526
0001b0 b5 1c 04 3f 4d e2 db be 98 39 cb be 93 1b 10 3f
       0.51606303 -0.4294609 -0.39692378 0.56292075
0001c0 95 f9 b6 bd b4 f1 fc 3d 14 07 25 be c7 53 df bc
       -0.08934323 0.12350789 -0.16115981 -0.027261628
0001d0 a8 44 6f 3e 37 9e 6f 3e 27 44 72 bd af c0 ef 3e
       0.23366034 0.23400198 -0.059147026 0.46826693
0001e0 63 91 3e bd 78 a1 e2 be cd 60 38 3f ac 0d e9 3e
       -0.04652537 -0.44263816 0.72022706 0.45518243
0001f0 3d 42 36 bf d0 74 82 3e 60 44 1a be 74 1d aa 3e
       -0.7119482 0.25479746 -0.15065145 0.33225596
000200 9e e8 89 bc e1 6f 92 3e 1d f7 88 bc be ef 03 bf
       -0.016834553 0.28600982 -0.016719395 -0.5153769
000210 a2 be 70 3e c5 51 36 3c 7a 64 2d bf de 42 2d be
       0.2351022 0.011127894 -0.6773144 -0.16920039
000220 25 e0 77 3e 54 26 01 bf d7 03 03 be d8 ab 8d 3e
       0.24206598 -0.5044911 -0.12794434 0.2767017
000230 19 4f 16 be b3 a5 fe bd 66 e2 50 3d 9d f1 b8 3e
       -0.14678611 -0.12433948 0.05099716 0.36121836
000240 07 7e 6d be 36 dd b4 be 2e 77 da bd 74 89 b5 be
       -0.23192607 -0.3532502 -0.10667263 -0.3545643
000250 ca d0 1f bd 32 f1 f3 3e 62 6d 69 be 08 70 a0 bd
       -0.039017476 0.47644955 -0.22795632 -0.07833868
000260 12 54 27 3e ae 9a a9 bd d9 70 c0 be ec f3 ee 3e
       0.16340664 -0.08281456 -0.37586096 0.46670473
000270 89 6a 67 bd 72 e2 2b 3e 8c 8a 45 be a0 ae 69 3d
       -0.056498084 0.16785601 -0.19291133 0.0570513
000280 96 e5 e3 3e 68 a8 3d be 78 a3 0e be e8 b9 3f 3e
       0.44511098 -0.18521273 -0.13929546 0.18723261
000290 a4 dc 1a be b3 aa 60 3c 2e a7 cf be ba 17 aa be
       -0.1512323 0.013712573 -0.40557235 -0.33221227
0002a0 ac 06 b0 3e 0f 0c 41 3f 2a 30 0d 3e db 03 d8 3e
       0.3438009 0.75409025 0.13787904 0.4219044
0002b0 8f 8b 73 3d 16 09 83 be 12 21 e5 3c 9d 53 d9 bd
       0.059459265 -0.2559287 0.02796987 -0.10611651
0002c0 34 75 b9 3e a7 cd a7 be bb c5 77 3d 10 4e 11 bd
       0.3622223 -0.32774088 0.060491305 -0.035474837
0002d0 ee 17 ca 3e a8 c2 9b bb 90 65 45 3e b4 f5 35 be
       0.39471382 -0.0047534294 0.19277024 -0.1776951
0002e0 63 6f 21 3e c4 a4 b6 3e a7 c9 4b 3e fd 24 cb 3e
       0.15765147 0.3567258 0.19901143 0.39676657
0002f0 1d fa 93 3e 83 46 9c 3e 33 ef 84 be 34 ff 29 bd
       0.2890176 0.30522546 -0.25963745 -0.041503146
000300 d2 ac 65 be bb 48 83 3d c4 45 d3 3e 70 8d 1d 3e
       -0.22429207 0.064103566 0.41264164 0.15385985
000310 a8 38 1d be c8 49 bc 3e 40 33 23 3e 13 81 a5 3e
       -0.15353644 0.3677504 0.15937519 0.32325038
000320 aa dc 72 3e 5b 61 cf bc 37 32 e2 bd 63 24 86 3e
       0.23716989 -0.025314977 -0.11044734 0.26199636
000330 bb 6f 88 3e 00 69 3a bf 7d 70 23 bf 86 27 43 3f
       0.26647744 -0.7281647 -0.6384352 0.7623218
000340 6e b3 d5 3d fb fa 32 bf c0 1e 4c bf df 1c 80 3e
       0.10434614 -0.69914216 -0.7973442 0.25022027
000350 c4 71 03 3e 28 7d a3 3e 65 10 06 bd cd 67 c0 be
       0.12836367 0.31931424 -0.03273048 -0.37579194
000360 de 5f ba be bf 3d f3 be fd 92 bd be f2 bb d0 3e
       -0.36401266 -0.47508046 -0.37026206 0.4076839
000370 37 65 01 bf c5 90 23 3f 50 04 ef 3d 64 87 56 3c
       -0.50545067 0.63892776 0.116707444 0.013093803
000380 c4 eb 9a be 06 08 74 3d 36 43 92 3e de ef 9f be
       -0.30258 0.059577964 0.28566903 -0.31237692
000390 c0 c5 38 3e 0c 60 b3 3c 0b 99 97 bd ca 56 2b be
       0.18044186 0.021896385 -0.074022375 -0.16732326
0003a0 a0 78 64 3c 4c de df 3e 03 2e f9 3e 9f 6a ab be
       0.013944775 0.43724287 0.48667917 -0.33479783
0003b0 ea 8e b7 3e 99 0c d3 3e 5a 18 13 3e c9 b0 bc bd
       0.35851222 0.4122055 0.14364758 -0.092134066
0003c0 56 35 e5 3e c4 0c 47 3e 44 f3 5e bd 66 e9 03 3d
       0.44767255 0.19438463 -0.054431215 0.032205008
0003d0 e7 0f 03 3c 0a d2 12 be c6 40 98 be 6c 78 87 3e
       0.007999397 -0.14337936 -0.29736918 0.26459062
0003e0 60 20 f2 bd 5a 79 d2 be 94 7e d2 bd 4f 68 d5 3e
       -0.11822581 -0.4110821 -0.10278049 0.41681144
0003f0 8e 91 9f bd e0 36 a7 bd 54 bc c6 be 51 e9 82 3d
       -0.07791434 -0.081647635 -0.38815558 0.06392158

fc.bias f4 [54]
000000 21 c5 00 3d c0 5a 70 be c7 df 93 be b1 8a 6e be
       0.031437997 -0.23472118 -0.28881666 -0.23295094
000010 38 5c 30 be c1 7a 92 be 38 33 1c be d7 03 25 be
       -0.17222679 -0.2860928 -0.15253913 -0.16114746
000020 a1 3b 02 3d 5f d5 82 be 1d 65 6b be 00 1b 8a 3b
       0.031795148 -0.25553414 -0.2298779 0.0042146444
000030 ec ae 89 be 3c b2 8e be 1a ae b0 3d 6c b7 3d be
       -0.26891267 -0.27870357 0.08626957 -0.18527001
000040 70 4b 1c bf 27 34 7e be e0 26 35 be 21 60 5f be
       -0.6105261 -0.24824582 -0.17690611 -0.21814014
000050 5c ab 04 be fd 7a 69 bd 89 06 80 be c0 7d fc be
       -0.12955993 -0.057002056 -0.25004986 -0.4931469
000060 ef 8c 38 be cb 37 c0 bd e8 1d 26 bf c1 0c 21 bf
       -0.18022512 -0.09385642 -0.64889383 -0.62910086
000070 19 06 2f bf d4 93 39 bf 2c 98 31 bf 8d b3 3c bf
       -0.6836868 -0.7249119 -0.6937282 -0.7371147
000080 1e 13 33 bf 28 2b 1a bf 75 39 28 bf 8f 3f 0a bf
       -0.69951046 -0.602221 -0.6571267 -0.5400323
000090 a1 7a 15 bf 55 e9 1e bf a4 2b 09 bf 9c e1 1f bf
       -0.5839024 -0.62074786 -0.53582215 -0.6245363
0000a0 74 5d 24 bf 50 d7 0c bf 18 41 3d bf 72 ba 22 bf
       -0.642051 -0.5501604 -0.7392745 -0.6356574
0000b0 05 e8 1d bf 5e 1d 1f bf 70 36 22 bf 05 e4 22 bf
       -0.6168216 -0.62154186 -0.63364315 -0.6362918
0000c0 df 18 03 bf 39 39 1f bf c4 2a 33 bf 5f 77 1e bf
       -0.51209825 -0.6219669 -0.6998713 -0.61900896
0000d0 51 8e f6 be 78 23 01 bf
       -0.48155454 -0.50444746
