神经网络作业/A7/models/name_generation_rnn2_CN_doublenamekongge.pth (torch, 124052 bytes, 6 tensors)

rnn.weight_ih_l0 f4 [128, 54]
00000000: 52bb 3bbe ed06 ed3e 1f85 a1be 94f3 62be
00000010: 6500 6abd 13fc c5be 0f26 8ebc 364a 42be
00000020: 4436 c4be 0efe 0ebe 1178 303f 76db b43e
00000030: 8846 c6bf dd82 f6bd 151d e63e 97d9 26bf
00000040: 4ac2 b6be cf04 2abf 9308 8c3e fe3e 21bf
00000050: 6eef 633e 1ecf 55be d625 713f e8ba 3fbf
00000060: 5972 1e3e 8768 96be 525f 013d 66cb 123d
00000070: 31ac 853d 4423 8a3c d134 8b3d ab28 2fbd
00000080: 223b 473d d262 8ebd b378 49bd 21a4 9abd
00000090: 2f74 a83d 1d6e 1dbd 7887 953c f194 23bd
000000a0: 00e1 86bc c003 5fbb 1308 7fbd d1b8 953d
000000b0: f9d1 aabd e860 303c 2639 8fbd ca27 a1bd
000000c0: cbef a33d 0929 9a3d d219 4c3d b6d1 8fbd
000000d0: f639 9b3f c77e 5b40 1237 323f ea84 1abe
000000e0: a174 9fbf 376b c8be c756 633f e07b b4bf
000000f0: 75c9 cabf 9070 b13e c4e3 233f f518 943e
00000100: 9229 29bf 5502 5e3f 5092 7dbe 98d4 d33e
00000110: b154 613f d580 5fbf c7d4 713f 0145 a6bf
00000120: f8e7 59bf a25e d0bf ca65 5dbf 3134 1fbf
00000130: 3d70 41bf 140a cb3e 53ee d1bf d379 aabd
00000140: b89b 533c 5014 c43c 908d 86bd 0073 81bd
00000150: b0b1 c0bb abf1 a23d d588 a53d 9344 84bd
00000160: 2272 2ebd 7053 6ebc 3078 6dbc 0295 6c3d
00000170: bacc 4b3d 1605 52bd ac92 19bd 5701 86bd
00000180: 7c99 bf3c dd51 8dbd d2b2 053d 2656 6d3d
00000190: 5457 17bd 71b4 16bd 9035 82bc f951 45bd
000001a0: 28b2 a3bd 4414 4ebd a84c 5dbf fa42 ccbf
000001b0: 2015 a03f 3c0e 063f f00c b8bf c62d 873e
000001c0: 3ba9 003f 8a7a 2f3f af4f 5b3f 3aa6 ef3f
000001d0: 7c16 77bd b3b9 263d 5fac 9a3e 61aa 7c3f
000001e0: a313 d7bd 2a99 cebe 968f 55bf eeb9 343f
000001f0: 469b 1c3f 4d69 ad3e 847b c2be 8d4b c5be
00000200: e5df ce3e f605 a3bf 677b b1be 1f44 143f
00000210: 9b1a c93f 169c c43e d877 843c fe0b 5a3d
00000220: f605 5b3d 3faa 0bbd f873 a8bd 8c7d c7bc
00000230: 6a80 2a3d b8a9 493c 60ae 8ebc 6097 893b
00000240: 6e2a 183d 5e18 87bd e58e 843d f02e 833c
00000250: 2a37 6a3d fe56 013d 0e0a acbd 902f ffbb
00000260: aa3b 08bd 2c9c 8abc d6de 433d e880 3d3c
00000270: e024 c73b 1935 b33d 8859 bb3c a340 1bbd
00000280: 7381 38bf 1a1d 443f 5e7a 803f e379 e73e
00000290: ac63 95bd 4a9f c73e 6fa6 113c fbcc cf3e
000002a0: d0b9 bfbe 4283 8d3f 86f5 983f 0a2c 063e
000002b0: 0f46 41bf be6f 7a3e 50aa ff3e 845b f9be
000002c0: bce8 953e b266 95bf fa43 8bbe 7182 b43f
000002d0: 5bed 16bf 79c9 bfbe 4c02 8ebf cdab dcbf
000002e0: 6503 a83f f3cc 353e 385e 243e e497 9cbf
000002f0: 62a6 273d 8f15 69bd 8223 99bd 10e2 4d3c
00000300: dd84 893d 3063 1fbd 7d47 2cbd 3a84 303d
00000310: 08cb 8cbd 007a 84ba b8a5 4a3c 726b 2a3d
00000320: b09f e9bc 344d 16bd 722e 12bd 4597 b2bd
00000330: 36f5 fdbc 0206 07bd 604e a8bb ef88 53bd
00000340: 9259 13bd 9a49 463d 8073 81bd 4263 a0bd
00000350: a28a 313d 3001 f83c d014 6bbe 47b2 6e3f
00000360: c206 9c3f 1b3a b33e e905 8dbe e14f dfbc
00000370: f9f0 433e 0100 ed3e 8966 86bf 874d 543e
00000380: 35ac 503d 06e6 063f 50f8 0dbe f782 15bf
00000390: 9153 c43d d8a5 3dbe e8f2 2a3f 8728 7cbf
000003a0: 692e a63e d056 7abe 9969 febe 6da4 c7be
000003b0: 1626 963f a2ae 14bd c868 4a3f 03ff d43e
000003c0: 5b9f 55be e317 a2b9 00c0 b03c 0037 a83b
000003d0: 50a4 c93b eb57 a13d ce4d 37bd 562e 5dbd
000003e0: 5ab6 3abd b010 c93b c140 85bd ced0 013d
000003f0: 3e91 193d 1a2e 75bd f5e0 813d 7ca7 803c
-0.18333176 0.46294346 -0.31546876 -0.2216323 -0.057129283 -0.3866888 -0.017352132 -0.18973622
-0.3832265 -0.13964102 0.68933207 0.35323685 -1.5490274 -0.12036679 0.44944063 -0.65175766
-0.35695106 -0.6641359 0.27350292 -0.62986743 0.22259304 -0.2087979 0.9419836 -0.7489457
0.15473308 -0.29376623 0.031585045 0.035838507 0.065269835 0.01686252 0.06797183 -0.042763393
0.048640378 -0.06952442 -0.049187373 -0.07550836 0.08225285 -0.03843509 0.018253073 -0.039936963
-0.01646471 -0.0034029335 -0.06226356 0.073106416 -0.0834083 0.010765292 -0.06993322 -0.07868917
0.08004721 0.07527358 0.04982931 -0.07022421 1.2127063 3.4296129 0.6961528 -0.15089765
-1.2457467 -0.39144298 0.88804287 -1.4100304 -1.584273 0.3465619 0.6401942 0.2892529
-0.66079056 0.8672231 -0.24762845 0.41373134 0.88019854 -0.8730596 0.944653 -1.2989808
-0.8511958 -1.627888 -0.8648344 -0.6218901 -0.7556189 0.39656126 -1.6400856 -0.083240174
0.012915544 0.023935467 -0.0656997 -0.06320763 -0.005880557 0.07956251 0.08082739 -0.06458392
-0.042589314 -0.01454626 -0.014493987 0.057759292 0.04975579 -0.05127438 -0.037493393 -0.06543224
0.023388617 -0.0690038 0.03264124 0.057943486 -0.036948517 -0.036793176 -0.015894681 -0.04817388
-0.07992965 -0.050312296 -0.86445093 -1.595794 1.2506447 0.5236547 -1.4378948 0.2640211
0.50258225 0.68546355 0.8566846 1.8722603 -0.060324177 0.04070444 0.30209634 0.9869748
-0.10501792 -0.4035123 -0.8342222 0.70596206 0.6117443 0.338694 -0.3798486 -0.38534203
0.40405193 -1.2736194 -0.3466446 0.57916445 1.5711244 0.38400334 0.016170427 0.053234093
0.05347248 -0.034097906 -0.08225244 -0.024351858 0.04162637 0.0123085305 -0.017417133 0.0041989535
0.03714984 -0.065964445 0.064725675 0.016013592 0.057181515 0.031577103 -0.08400355 -0.0077876523
-0.033260025 -0.016920172 0.047819935 0.011566378 0.006077394 0.08750362 0.02286984 -0.03790344
-0.72072524 0.76606905 1.0037344 0.4521018 -0.072944015 0.38988715 0.0088897785 0.40586075
-0.3744645 1.1055682 1.1949928 0.13102737 -0.75497526 0.24456689 0.49934626 -0.48702633
0.29279125 -1.1671965 -0.272003 1.4102308 -0.58955926 -0.374584 -1.1094451 -1.723993
1.3126036 0.17753963 0.16051567 -1.2233853 0.04093016 -0.056905326 -0.07477476 0.0125661045
0.06714795 -0.038912952 -0.042060364 0.04309485 -0.06874663 -0.001010716 0.012368612 0.041606374
-0.028518528 -0.03669472 -0.035688825 -0.087202586 -0.031000715 -0.032964714 -0.005136296 -0.051644262
-0.035974093 0.048410036 -0.06320858 -0.07831432 0.0433451 0.030274004 -0.22957158 0.9324078
1.2189562 0.35005268 -0.27543572 -0.027259769 0.19134893 0.46289065 -1.0500041 0.207327
0.05094548 0.5269474 -0.13864255 -0.5840296 0.095862515 -0.18520296 0.66776896 -0.9849934
0.32457283 -0.24447179 -0.4968994 -0.38992634 1.1730373 -0.036299355 0.79066133 0.41600809
-0.2086157 -0.00030916845 0.021575928 0.0051335096 0.006153621 0.07878097 -0.044751935 -0.053999268
-0.04558406 0.0061360225 -0.065064915 0.031693272 0.03749203 -0.05985842 0.06341735 0.015704863

rnn.weight_hh_l0 f4 [128, 128]
00000000: cb53 47be 5c57 a23d d2f2 693e 44a0 2d3d
00000010: a86c a13d 41f7 5c3e 5aad 00bd 60be 773e
00000020: 08a7 1c3e cbd2 15be f33f b43d bf6c 90bd
00000030: deaf 8ebe 99fb 38bd b0b4 2c3d abba abbc
00000040: ff64 1bbe 28e4 7d3d 5471 0fbe c2bb 103d
00000050: 9531 37be 2693 ac3d 22d6 9f3e 02c9 d2be
00000060: db45 f9bd e07b 133d 11a4 783b ba29 acbe
00000070: 14af bdbd 9f07 72be df2a 9139 911a adbd
00000080: bd1b 543a abb2 783e 30bf a43d 6168 fcbc
00000090: a37c cbbc 71b4 b23d 079d 8dbe 62ec 24be
000000a0: e1a3 b2bd 8c3e 6c3d 236f 04be cd05 f43c
000000b0: 6887 613d 2f72 91bd 07eb 273e cbbb 10bd
000000c0: 8efd eabd e8c1 cd3d f4ff 49be 789d eebd
000000d0: bcb0 92bc 8948 dbbc f9c6 7cbb 8617 b2bd
000000e0: b412 233e 4b1b cebd e400 3fbe 7124 553e
000000f0: deb6 17be 96db d63d 7336 aa3d 4f4e 6e3d
00000100: 33ae 483e 697b 983d c087 0d3e 5683 c1bd
00000110: 3955 c3bc 1eb8 cc3d 6b20 2b3e 2345 973d
00000120: 4685 44be 23bc 143e 7195 813b 420b e43d
00000130: a490 123e 5aea a43d beb1 813c 9cd9 05be
00000140: 57b3 1cbe 0a71 3a3e 216f cf3d ea0c 1bbd
00000150: 8c5b 2c3e 075a 0abd 422c 473e 6ffd b03d
00000160: 8803 40be bf05 80bc ff5b 38be f472 d3bd
00000170: 17bb d7bc 2cbc 133e 371f 1e3d 8a00 9e3d
00000180: 3614 863c 6dde b43d f20f 273c 57fd 17be
00000190: 8f69 8abe d1f6 84bd 53cb 453c 6076 833e
000001a0: 741f 0f3e ee67 253e 854d bfbd 3b1c 19bd
000001b0: 0d96 513d 58c0 8ebd 4cba aa3c fbda c2bd
000001c0: 69de 513b d2ae 9c3c d487 d13c fd1a b6bd
000001d0: c10e 1bbe 3ae2 4d3e 1a0c 8b3e 6491 8f3c
000001e0: 6f78 003c 89b6 91bb f504 4dbd 8cda d23d
000001f0: 293b 903d 42a0 c3bd 4f56 cf3c 00d2 5cbe
00000200: 8e37 4d3e 2fb4 103d 9664 403c 2b31 c73d
00000210: f61e f7bc 4f2d 53bd abf3 87bd e218 3bbb
00000220: 7e83 05bd d286 59be 1163 12be 0850 caba
00000230: 0504 973d eaca febd 2737 cb3d 57ef 5a3e
00000240: 4c9d a4bd 366c 8b3c 4542 3bbe 6988 4f3c
00000250: 7b37 01be dfa4 1dbe 5b0c c5bc 965a 6e3d
00000260: b5a3 4bbd 828e 053e 2147 013e 087f 15bd
00000270: 9107 c8bd cd09 a5bd ad8b debe 3b37 353b
00000280: 325e 3d3d 5078 f4bd fd5b 23be e7ad be3d
00000290: c684 403e fe95 6ebe 4117 08be bb96 1ebc
000002a0: ebd7 cc3d 77e1 e43d 3fc6 9a3d 632f 68bd
000002b0: 121a 123e 3444 4fbe 6fb2 9f3d 60b2 68bd
000002c0: 9e0e 453e 2525 023e 4372 d4bd 8c6c ed3d
000002d0: a7e7 c63e 9d1f bf3c 2990 223e f8ba 9bbd
000002e0: 6ca2 5e3e bc41 573e 6cc0 bb3d 53c0 823b
000002f0: 251a 503e 6e2a 2a3b 2a17 81bd d66b 9dbc
00000300: f392 4d3d 0947 fbbb b34f bb3d 0c77 253d
00000310: 3183 e4bd 433d f1bd 95b1 b3bd 5fce d9bd
00000320: 7342 a23e d5e3 cbbd 07e9 a3bd 3bc0 913d
00000330: 732b c93d 7123 e23c f502 97be 6a53 753c
00000340: 7f49 c73d d50a 403e 58c3 6ebe 4421 0a3e
00000350: d536 773e c473 913d a2a0 7c3d 9ff5 353e
00000360: 50aa fcbd 6825 0cbd 6853 7b3e 60fc a3be
00000370: e225 c0bd 2a3f d8bb 2441 66bd 4ee2 f4bd
00000380: d9c4 adbd eb7d 083d efb1 85bc fca2 843d
00000390: 5c81 b63a 9301 09bc 6345 303e 3560 f5bd
000003a0: e580 0a3d 22b4 9c3e 0f15 86bd cddf 2b3e
000003b0: 85cc 9c3e d623 103e 087c 043e 22a5 673d
000003c0: 4c2c 7e3e d948 dbbd 4a40 b8bd 1ab0 c1be
000003d0: 1bb1 913c 0036 45bd e0fa 78bd 0e35 a0bd
000003e0: 3a48 b9bc 2ce7 31be 3213 e1bc 7242 35bc
000003f0: 8b12 653c b3ee 84bd e576 28be 627a aebd
-0.19465558 0.07926819 0.22846535 0.04238917 0.07882053 0.21578695 -0.03141532 0.24193716
0.15298092 -0.14631192 0.0880126 -0.07051992 -0.2786855 -0.045161817 0.042164505 -0.020963034
-0.15175246 0.061985165 -0.14008075 0.03533531 -0.17890008 0.08426504 0.31218058 -0.41168982
-0.12171527 0.03600681 0.0037939588 -0.33625585 -0.09261909 -0.2363572 0.00027688497 -0.08452333
0.00080912915 0.24286906 0.080442786 -0.03081149 -0.024839705 0.08725823 -0.27658865 -0.16105798
-0.08722664 0.057676837 -0.1293302 0.029787922 0.055060774 -0.07101857 0.1639825 -0.035335343
-0.11474143 0.1004675 -0.19726545 -0.116511285 -0.01790654 -0.026767986 -0.0038570745 -0.08695893
0.15925103 -0.100637995 -0.18652683 0.20814683 -0.14815852 0.104911014 0.083111666 0.05818015
0.19597702 0.074454136 0.13821316 -0.094488785 -0.023844348 0.09996055 0.16711585 0.07386234
-0.19191465 0.14524893 0.0039545824 0.1113496 0.14312989 0.080525115 0.015831824 -0.13071293
-0.15302788 0.18207183 0.10128618 -0.037854113 0.16831797 -0.033777263 0.19450477 0.086420886
-0.18751347 -0.01562774 -0.18003844 -0.1032466 -0.026334329 0.1442725 0.038603988 0.077149466
0.01636706 0.08831487 0.010196673 -0.14842735 -0.2703366 -0.06492389 0.012072402 0.2567625
0.13976842 0.16152927 -0.093409576 -0.03738044 0.05116849 -0.069702804 0.020840786 -0.095144235
0.0032023436 0.01912633 0.025577463 -0.08891866 -0.15142347 0.2010583 0.2715767 0.017525382
0.007841214 -0.0044468087 -0.050053556 0.10295591 0.07042534 -0.09552051 0.02530971 -0.21564484
0.20040724 0.035328086 0.011742732 0.09726175 -0.03016613 -0.05155688 -0.06638273 -0.0028548767
-0.032596104 -0.21242836 -0.14295603 -0.0015435228 0.073738135 -0.124410465 0.09922629 0.21380363
-0.080378145 0.017019372 -0.18286999 0.0126668 -0.1261882 -0.15394925 -0.024053743 0.05819186
-0.04971667 0.13042644 0.1262479 -0.0364981 -0.09767068 -0.0805851 -0.4346594 0.0027651328
0.04623241 -0.1193701 -0.1595306 0.09310513 0.18800649 -0.23299405 -0.1329012 -0.009679492
0.100021206 0.111758165 0.07557344 -0.056685816 0.14267758 -0.20240861 0.077977054 -0.056810737
0.19243857 0.12709482 -0.10373356 0.11592969 0.38848612 0.023330504 0.15875305 -0.07604021
0.21741647 0.2102117 0.09167561 0.003990212 0.20322473 0.0025965231 -0.06303246 -0.01921646
0.05018897 -0.00766838 0.09146061 0.040396735 -0.11157835 -0.11779263 -0.087741055 -0.10635065
0.31691322 -0.09955565 -0.08003431 0.07116743 0.098227404 0.02760479 -0.29494444 0.014973501
0.09730815 0.18754132 -0.23316705 0.13489252 0.2414201 0.07102159 0.06167663 0.17769478
-0.12337172 -0.03421536 0.24543536 -0.32028484 -0.093822256 -0.0065993266 -0.056214467 -0.11957227
-0.08484811 0.03332321 -0.016320197 0.06476399 0.001392405 -0.008362192 0.17213969 -0.11981241
0.03381433 0.3060618 -0.06546985 0.16784592 0.30624786 0.1407617 0.12937939 0.056553967
0.24821585 -0.10707254 -0.08996637 -0.37829667 0.017784646 -0.0481472 -0.060786128 -0.078226194
-0.022617448 -0.17373341 -0.027474973 -0.011063205 0.013981472 -0.06490841 -0.16451605 -0.085194364

rnn.bias_ih_l0 f4 [128]
00000000: e51e 69bc 824a 08bf cfa1 ca3d ac51 9d3e
00000010: 85f2 a43d ac12 0e3e 3bcc 193e 7c93 6dbe
00000020: cf06 91bd fc3e b0bc 8778 63bd 610e 5ebe
00000030: e244 f1be 78f5 ab3c 41b1 b2b9 2433 8dbe
00000040: 4e43 523e c75f bdbd 20bb 113d 61c9 2fbe
00000050: e452 df3d ded1 b7bd ec57 8c3d b3d4 da3d
00000060: 5c91 32bd 1d82 593e 9421 37be de0c 54be
00000070: 300f 9d3d 02f0 123e e5b2 233e 36e9 833d
00000080: e252 1ebe 4a66 d53d 89c2 8bbc ed58 8fbe
00000090: 85fd 493d 4882 21be 132c 923e 62a0 a4bc
000000a0: 2587 eebe b6c0 38be 3b8f 21bb f74f 4abe
000000b0: a9f8 203d ec6d e63d 9fe0 abbd 3c0f 72be
000000c0: 6d13 6c3c 9216 99bd a2d5 2d3e 6b20 17bd
000000d0: 16ea 4bbe 5bb3 42be 2419 3b3e daaa 0c3e
000000e0: 7197 82bc 169d 16be 2984 933d 3d6c 203d
000000f0: 2c0d afbd 0a36 e9bc 05ef b13d cc3a 18be
00000100: fd4b 18be beeb d9ba c2e3 873b dac4 5cbe
00000110: 1e9f 983d 9efe 673e f068 2c3c 5624 283c
00000120: e448 debe 57be 43be ac38 863d 4186 66bd
00000130: 646a 0ebe 1b40 4fbb 3a5d 05be 1adc 76be
00000140: ae1d c4bc 27f9 043e c330 8e3e aea5 0f3d
00000150: 859b 093e e3f0 83be e414 4b3d b550 623c
00000160: ac00 853e fe88 49be 060b bb3e d0a4 6cbd
00000170: 74c0 42bd eac6 acbe 2e75 e7bd 8a69 383e
00000180: 7910 44bd b195 2a3d 630e 903d d1e1 c63d
00000190: ebca 27be c56e 04bd df30 133e 1b1f f0bc
000001a0: ab78 4ebe bd33 90bd 11d3 edbc e8dd babd
000001b0: 1731 40bd cb41 33bd efaf 993e a64e 6ebe
000001c0: 0b15 043e d72d 0cbe 7002 823d c840 09bd
000001d0: 9beb 423d fadf a2bd 1da6 073c 36ae 06be
000001e0: 95a7 293e 512b 5e3e b625 793d 582d 293c
000001f0: aa61 1fbd ca0a d9be a9b8 473e 8c3a dfbc
-0.014228557 -0.5323869 0.09894144 0.30726373 0.080540694 0.1387431 0.15019314 -0.23200792
-0.07081377 -0.021514408 -0.055534866 -0.21685173 -0.47122866 0.020991072 -0.0003408287 -0.2757808
0.20533487 -0.09246784 0.035578847 -0.17166664 0.10904482 -0.08975576 0.06852707 0.106851004
-0.043595657 0.2124104 -0.17883903 -0.20708033 0.076689124 0.14349368 0.15986212 0.06440966
-0.15461305 0.10419901 -0.017060535 -0.27997532 0.04931404 -0.15772355 0.2854925 -0.020096008
-0.46587482 -0.18042263 -0.0024652022 -0.19757067 0.03929964 0.11251435 -0.083924524 -0.23638624
0.014408928 -0.07475008 0.16976026 -0.03689615 -0.19913515 -0.19013731 0.18271309 0.1373705
-0.015941354 -0.14708361 0.07202942 0.039165724 -0.08547434 -0.02846815 0.086881675 -0.14866179
-0.14872737 -0.0016626043 0.004147024 -0.21559468 0.07452224 0.22655722 0.010523066 0.010262569
-0.43414986 -0.19115578 0.06553778 -0.05628038 -0.13907772 -0.0031623903 -0.13023844 -0.241074
-0.023939934 0.12985669 0.27771577 0.035070114 0.13438232 -0.2576972 0.04958047 0.013813187
0.25977075 -0.19681165 0.36531848 -0.057774365 -0.04754682 -0.3374551 -0.11301647 0.1800901
-0.047867272 0.041646663 0.07033994 0.0971104 -0.16386001 -0.0323322 0.14374112 -0.029311707
-0.20163219 -0.07041118 -0.029031308 -0.091243565 -0.046921816 -0.043763917 0.3001704 -0.2327219
0.12898652 -0.13689362 0.06348121 -0.033509046 0.047587972 -0.079528764 0.008279351 -0.13152394
0.16567834 0.21696211 0.06082698 0.010325752 -0.0389115 -0.42391044 0.19504036 -0.027249597

rnn.bias_hh_l0 f4 [128]
00000000: 2f54 f53d 2148 edbe 9783 1b3e 3701 903e
00000010: 7958 4c3d cc2a 3e3e 179d 3f3e c8ad 4abe
00000020: 757d 6bbd 6a34 a1bd 00ed 373c 1be3 87be
00000030: 739d e8be d2b1 823d 6f2c a93c c914 92be
00000040: 0fb6 9e3e 0d5a 413c b8ae 3abc dc15 31be
00000050: 28ac 4d3d 4966 2e3d 1a67 0c3c 4f07 223e
00000060: 6a74 07be f7b2 423e 5f38 f2bd 6baf 01be
00000070: 204b 303e 70fd da3b cb50 2b3e 8943 493d
00000080: 4914 91bd 1640 c93d 8334 acbd dcad 99be
00000090: a7d5 383e 1983 063c 79b7 9a3e 7f3a 94bc
000000a0: 7775 03bf eb0d b4bd cc40 29bd a834 8bbd
000000b0: f08a 5bbd cb31 453e 2bea babc d03b 5cbe
000000c0: d310 5b3d 15db 153b 20f4 283d 2aa2 64bd
000000d0: ad5c 4fbe e448 f7bd 86c5 4d3e e1e0 193e
000000e0: 709e a33c fc6b 3fbe 5c46 263e 66cc 7c3c
000000f0: de63 cb3c 653f 31be 2c5d f53c 4489 0fbe
00000100: b975 71bd 83cd 20bd f7be f5bc 1955 69be
00000110: 9743 49bd fc1b 8a3e 343d e3bb 81ee c6bd
00000120: 16a1 b7be 3d25 3bbe be06 8bbd 56ca 05be
00000130: 1e88 cbbd 8baf dcbc c3ea f3bd c839 6dbe
00000140: 5a2a aa3d be23 4b3e 0f0b 853e 8189 d33d
00000150: fe47 4c3d c78e 93be 235d 3d3c b779 cc3d
00000160: 27d8 893e 3400 4ebe 67f7 ae3e ff69 9b3c
00000170: 37ab bbbc d721 adbe ada8 45bd 4e77 fb3d
00000180: 240c 9e3d 259f fb3b 9d1f 453d 7339 673e
00000190: 148b e1bd 5d1f b6bd 45bd 9b3d 9226 6c3c
000001a0: f2a5 9bbe 2cb8 8dbd b48e 763d 533b b6bc
000001b0: 9c4c 1ebe 6832 10be f4df 863e a069 34be
000001c0: 7dc4 d13d 8d51 aebc acee a4bc 9699 b6bd
000001d0: ecf6 c8bc 7e4f ebbd eb20 ffbc a1c4 bfbd
000001e0: 8254 a13e e490 353e d4e5 6e3e 9c0f 2a3d
000001f0: 883d ccbd 0c71 d7be 21de d03d 5c4a 573d
0.11978947 -0.46344092 0.15186916 0.28125927 0.04988906 0.18571013 0.18712269 -0.19792855
-0.057492692 -0.07871325 0.011225939 -0.26540455 -0.45432624 0.06381573 0.02065107 -0.28531483
0.30998275 0.011801255 -0.011394195 -0.17293495 0.05021301 0.042578015 0.008569503 0.158231
-0.13228002 0.19013582 -0.11827158 -0.12664573 0.17216158 0.006683044 0.16730039 0.049136672
-0.07083947 0.098266765 -0.08408453 -0.30015457 0.18050252 0.008209967 0.30218104 -0.0180943
-0.5135111 -0.08791717 -0.04132156 -0.06797153 -0.053599298 0.19257276 -0.022816738 -0.21507192
0.05348284 0.0022866179 0.04124844 -0.055818714 -0.20250197 -0.1207445 0.2009488 0.1502719
0.01997301 -0.18693537 0.16237777 0.015429592 0.024827894 -0.1730934 0.029951654 -0.14017206
-0.05895016 -0.03925849 -0.029998286 -0.22786368 -0.049136724 0.26974475 -0.006934786 -0.0971346
-0.35865086 -0.18275924 -0.06788395 -0.13065466 -0.09938072 -0.026939174 -0.119100116 -0.23166573
0.08308859 0.19837853 0.25985 0.10328961 0.049873345 -0.28819868 0.01155785 0.09984153
0.26922724 -0.20117265 0.34173128 0.018971441 -0.02290879 -0.3381488 -0.048256565 0.12278615
0.077171594 0.0076788836 0.048125852 0.22580509 -0.11012855 -0.08892701 0.0760446 0.014413493
-0.30400044 -0.069198936 0.060194686 -0.022245085 -0.15458912 -0.14081728 0.26342738 -0.17618418
0.10242555 -0.02127912 -0.020133339 -0.08916013 -0.024531804 -0.11489771 -0.031143626 -0.09363676
0.31509787 0.17731053 0.2332986 0.041518793 -0.09972674 -0.42078435 0.10198618 0.05256115

fc.weight f4 [54, 128]
00000000: 364f 88be 2bec 32bf 6bd9 4ebe 6d07 993e
00000010: c1ff a2bd 8c08 b9bd c31f 1dbd e540 40be
00000020: 4ff8 923e 0001 9a3e 9ec6 45be c7bb c03d
00000030: 91c9 883e a2db 3bbb 2b94 963d 23a0 113e
00000040: 726d 6a3e 8a88 d53d d0bc bd3e eaaf 21bf
00000050: 7257 3cbe 80c1 bb3d e96b 8dbe 5c6c 32be
00000060: 0074 2e3c c056 b73e 74db be3d d600 853d
00000070: 47df 6b3d 9a73 85be 0583 8e3d 5a21 d7be
00000080: e917 eb3d e737 20be 6169 89be bc81 493e
00000090: dc55 d2bb 349b 23be bd63 ec3d e038 8abc
000000a0: bab1 983d 22f9 78be 8e4d 22bd 70cf 5f3d
000000b0: 66f4 333e d9fc 9a3d 2914 653e 0acd 163e
000000c0: f6a2 873c 84cc 483d 9aeb 62be e9b3 1dbf
000000d0: 0901 a53e 7c75 213d 9c31 603e ed51 203e
000000e0: 3097 67bc 0b06 89be 7873 01be 5495 883d
000000f0: 189e 4dbd 6ebe 033e 7165 1e3d 22e9 e73e
00000100: 220c 813e 7111 91bd 931c e8be 77e4 6dbe
00000110: f80f 023e f2a4 cf3d 93f3 393d 99ab 303e
00000120: a90a 47bd 166f 273d cb44 d8be b769 fe3d
00000130: 6f7a ae3e 43b5 54bd 54fa c13d 2ea3 76be
00000140: f454 ea3c 3a4f 01bd baa1 993e fe72 70bc
00000150: 172c 3a3e d346 c2be ffc9 1b3e 213d 6fbe
00000160: 8f51 083e f8b5 f63e d95e c43e 9951 1ebe
00000170: 138d bb3e c70c 15bf d133 783e 8b91 843e
00000180: 6a12 22be 7cec c03e 82a3 b8be c222 83be
00000190: 03ab 093e e1c5 afbe 54b7 8fbc b30c c2be
000001a0: ca7c d3be b99a 913d c4ec 82be db03 943e
000001b0: dd28 243e 5201 f8bd e450 20be 1589 3d3d
000001c0: d1ce a13d aaf2 843d cc2a ae3e d48e adbe
000001d0: 1459 6a3e 014f 8a3e 4f82 9abe 871b c83e
000001e0: 033b 86be d71c 2ebf 0397 b13d 0489 333f
000001f0: 6ad1 b7be 38aa 963e 69e8 e13d 375e d53d
00000200: 8bc3 b2bd 1570 ec3e 085e 3dbd f6a9 f2bd
00000210: 6c61 983d c585 043d 7f2a 2cbf b0e0 eb3d
00000220: 3f1a f03a 6cdb 89be 4ca7 81bd 048c 0ebd
00000230: a76d 833e 017d fc3d c43d d53d eb16 ae3d
00000240: d5d6 fb3d db15 a03e 43e5 28bd fff2 02be
00000250: 3f33 ef3e 0619 cf3d c95c c0bd 17ff 7e3d
00000260: 697e 8d3e 137b a0bd 1b5b 30be 229c c93e
00000270: 18fe 99bd c4c1 9f3c 60ea a6bd 0b45 ef3d
00000280: 997d 78be 4c52 71be 4271 63be c949 ee3d
00000290: 842e cc3d 2866 af3e ec26 8cbe 8b74 ecbe
000002a0: c78e 31be b028 aa3e 79c9 92bd 570b 003f
000002b0: 0c42 823e c2ad f5bc 0e6a f0bd a40b 2dbe
000002c0: 1a9e 1c3e e95a a23d 7cd3 d83d fc79 ac3d
000002d0: ac39 043f 168a 8bbd 3a73 b63d e9c6 983d
000002e0: 7ec1 733e 7457 9fbd 18a1 07be 2c43 993d
000002f0: 4e0e ba3d dd04 d13e 2945 b73c 5c07 a3bd
00000300: 3c89 acbe 1eb0 a7bc 8b35 ba3e 2f3a 99bb
00000310: 3fda 16be 6f84 4d3c 4e94 5bbd 7ea6 763e
00000320: 1e81 f13e a843 013e dadf 1bbe 2f57 dbbd
00000330: 83d7 803c 270d 8d3c e0ef 0a3d e9fc 063e
00000340: eebe 2c3d fb24 0dbd 8ece bebd 85b0 463e
00000350: 984d dfbd 3880 08be 60d9 51be 45b7 1fbf
00000360: 51d7 033d 8384 383e c4f1 20be 4f10 ee3e
00000370: b72c 31be e185 c03e fdf5 03be bf0d 77bd
00000380: 170e 0dbd 2d2e b93e d8f1 d2bd e7ab 17be
00000390: 732a 6d3e e327 9e3e d35f c5be 9f02 27be
000003a0: e11e 90bd 0e34 c8bd 69f6 85be ee0d f93c
000003b0: 972c 013e e043 013f bfa7 8a3e d61b 2e3e
000003c0: f6c5 1ebe e1f1 323d 4876 21be 5137 54be
000003d0: bce1 ca3e 7eb4 82be 2cf0 b5be 579e 423e
000003e0: 2d48 9b3d 4ff4 11be 5c26 be3e 6a28 aaba
000003f0: 4136 e8ba bd2f 053e 60f2 07bd dd03 69be
-0.26622933 -0.69891614 -0.20200126 0.29888478 -0.079589374 -0.09034833 -0.03836037 -0.18774755
0.2870507 0.30078888 -0.19314048 0.09410816 0.26716283 -0.0028664847 0.073524795 0.14221244
0.22893313 0.104264334 0.37058115 -0.6315905 -0.18392733 0.091677666 -0.2762139 -0.17424148
0.010647774 0.35808372 0.09319201 0.064943 0.05758598 -0.2606476 0.06958584 -0.42017633
0.1147917 -0.15646325 -0.2683821 0.19678396 -0.0064189266 -0.15977174 0.11542461 -0.016872823
0.07455774 -0.24313787 -0.039624743 0.054641187 0.175737 0.07567758 0.22370972 0.14726654
0.016557198 0.049023166 -0.22160187 -0.61602646 0.32227352 0.039418682 0.21893924 0.15656252
-0.014135167 -0.26762423 -0.12641704 0.06669107 -0.050199598 0.12865612 0.03867096 0.45295054
0.2520457 -0.07083405 -0.453343 -0.23231684 0.12701404 0.10138883 0.045398306 0.1725296
-0.04859415 0.040877424 -0.42239985 0.12422507 0.34077784 -0.051930677 0.094715744 -0.24085686
0.028604962 -0.031569697 0.300062 -0.014675854 0.18180881 -0.3794466 0.15213774 -0.23363163
0.13312362 0.48185706 0.38353613 -0.15460815 0.3663107 -0.5822262 0.24238516 0.2589229
-0.15827337 0.37680423 -0.36062247 -0.25612456 0.13444142 -0.34330657 -0.017543472 -0.37900314
-0.41306144 0.07109589 -0.25571263 0.2890919 0.16031213 -0.12109627 -0.15655857 0.04627331
0.07900775 0.06491597 0.34017026 -0.33898032 0.22885543 0.270134 -0.30177543 0.39083502
-0.26216897 -0.68012756 0.08671381 0.70130944 -0.35901958 0.29426742 0.11030657 0.10418361
-0.08728703 0.46179262 -0.046232253 -0.11848824 0.07440457 0.032354135 -0.67252344 0.11517465
0.0018318369 -0.26925218 -0.063307375 -0.034801498 0.25669596 0.1232853 0.104121715 0.08500465
0.12296835 0.31266674 -0.041234266 -0.12788008 0.46718785 0.10112195 -0.09392697 0.06225499
0.27635506 -0.078359745 -0.17222254 0.39376932 -0.07519168 0.019501574 -0.08150172 0.11683091
-0.24266662 -0.2356655 -0.22211173 0.11635167 0.0996981 0.34257627 -0.27373445 -0.46182665
-0.17339621 0.33234167 -0.07167334 0.50017303 0.25441015 -0.02999008 -0.11738978 -0.16898972
0.15294686 0.07927496 0.105872124 0.08421704 0.516505 -0.06813447 0.089086965 0.07459814
0.2380428 -0.07780352 -0.13245046 0.07483515 0.0908476 0.40824023 0.022371845 -0.07960388
-0.33698452 -0.020469721 0.36368975 -0.0046761255 -0.14731692 0.012543782 -0.05360823 0.24086949
0.4716882 0.12623465 -0.15222111 -0.10709988 0.015727764 0.017218186 0.03392017 0.13182415
0.042174272 -0.034459095 -0.09316741 0.19403274 -0.10903472 -0.13330162 -0.20493078 -0.6238902
0.032187764 0.18019299 -0.15717226 0.46496817 -0.17302214 0.37602141 -0.12886806 -0.060315844
-0.034437265 0.36168042 -0.10300034 -0.1481167 0.23160724 0.30889806 -0.3854967 -0.16309594
-0.0703714 -0.09775554 -0.2616456 0.03040215 0.12614666 0.50494194 0.27081105 0.17002806
-0.15505204 0.043687705 -0.15767777 -0.20724227 0.39625347 -0.2552833 -0.355348 0.19005714
0.07582126 -0.14253353 0.3713864 -0.0012982015 -0.0017716364 0.13006492 -0.03319013 -0.2275538

fc.bias f4 [54]
00000000: cf66 cc3d 21b4 5fbe 5efb a7bd 70ad 04be
00000010: ee12 3dbe 219d 99be 0a1c 58bd 670a b3bd
00000020: c7e6 28bd 091e a7bd 85a6 ecbe 580c 2ebb
00000030: c9dd 2dbe 6027 03be 0c62 65bd 36ab 24be
00000040: 3b17 fdbd 5dd1 c53b df21 21be f291 0ebe
00000050: de6a d0bd 8376 21be 9c9b dcbd 90cd 8abe
00000060: 6f70 89bc 9f2c 89be 2fa5 15bf 3607 1ebf
00000070: e93a 26bf 534c 34bf 346e 2abf d29f 32bf
00000080: 4408 2abf dcc0 0fbf 723a 24bf c125 09bf
00000090: c70f 0cbf 8aec 19bf d306 06bf c08f 19bf
000000a0: 7f49 23bf dad9 08bf 9ba0 37bf fb2b 1ebf
000000b0: 0226 13bf 20be 10bf 9b66 17bf 565f 1dbf
000000c0: f2b9 fcbe 725f 20bf 1e71 2dbf 6e9e 14bf
000000d0: 08a0 5abe 0ab0 79be
0.09980547 -0.21846057 -0.08202241 -0.12956786 -0.18464252 -0.30002692 -0.052761115 -0.087422185
-0.04123571 -0.081600256 -0.46220794 -0.002655765 -0.16979136 -0.12807989 -0.056001708 -0.16080937
-0.123579465 0.006036921 -0.15735577 -0.13922861 -0.10176633 -0.15767865 -0.10771868 -0.27109957
-0.016777245 -0.26791856 -0.58455175 -0.61729753 -0.6493364 -0.7042896 -0.66574407 -0.69775116
-0.6641886 -0.56153655 -0.6415168 -0.5357323 -0.54711574 -0.60126555 -0.5235416 -0.5998497
-0.6378402 -0.53457415 -0.7172944 -0.6178586 -0.5747987 -0.5654011 -0.5914094 -0.61473596
-0.49360615 -0.6264564 -0.6775073 -0.58054245 -0.2135011 -0.2438356
