神经网络作业/A7/models/default_model/name_generation_rnn_AT_signalname_doubleend.pth (torch, 123988 bytes, 6 tensors)

rnn.weight_ih_l0 f4 [128, 54]
000000 56 4a 07 3e 7a 56 04 3f 5d 74 b1 3e f7 26 a7 bf
       0.1321195 0.5169445 0.3465909 -1.3058766
000010 58 c7 16 3e 69 48 7c bd 06 32 ed 3d 6e 35 d9 be
       0.14724481 -0.061592493 0.11581807 -0.42423576
000020 28 17 59 3f aa 45 a7 be 69 8e 7f 3e 22 f6 59 be
       0.8480096 -0.32670337 0.24956669 -0.21285298
000030 ef 43 76 bf 90 1a 07 3f 40 82 e4 be 86 4c ae be
       -0.9619741 0.52774906 -0.44630623 -0.34042758
000040 6e 6d 3e bf 1b 5b b2 be da de f1 be 2a 6e df be
       -0.74385726 -0.34835133 -0.47240335 -0.43638736
000050 75 47 9b 3f 4a 53 bd be 10 ad d9 3d 7f b6 97 3e
       1.2131182 -0.36977607 0.10628712 0.2963142
000060 b1 28 a7 3e 15 c9 37 be 52 5f 01 3d 66 cb 12 3d
       0.32648233 -0.179478 0.031585045 0.035838507
000070 31 ac 85 3d 44 23 8a 3c d1 34 8b 3d ab 28 2f bd
       0.065269835 0.01686252 0.06797183 -0.042763393
000080 22 3b 47 3d d2 62 8e bd b3 78 49 bd 21 a4 9a bd
       0.048640378 -0.06952442 -0.049187373 -0.07550836
000090 2f 74 a8 3d 1d 6e 1d bd 78 87 95 3c f1 94 23 bd
       0.08225285 -0.03843509 0.018253073 -0.039936963
0000a0 00 e1 86 bc c0 03 5f bb 13 08 7f bd d1 b8 95 3d
       -0.01646471 -0.0034029335 -0.06226356 0.073106416
0000b0 f9 d1 aa bd e8 60 30 3c 26 39 8f bd ca 27 a1 bd
       -0.0834083 0.010765292 -0.06993322 -0.07868917
0000c0 cb ef a3 3d 09 29 9a 3d d2 19 4c 3d b6 d1 8f bd
       0.08004721 0.07527358 0.04982931 -0.07022421
0000d0 50 27 fc bc ee ce 6a 3f 02 ec 9a 3f b7 0b b1 3d
       -0.030780464 0.91722 1.2103274 0.086448126
0000e0 e6 93 a9 bf 25 c3 b0 3e 0c 32 05 be 49 58 73 be
       -1.324826 0.34523883 -0.13007373 -0.23764147
0000f0 ca c2 c7 3d d4 8d 03 3f 23 2e ea bf 22 38 66 3e
       0.0975395 0.5138829 -1.829533 0.2248235
000100 29 6a 19 c0 f6 56 e2 be 07 94 37 bf da 21 b3 3f
       -2.3971045 -0.4420697 -0.71710247 1.3994706
000110 a2 df 9f 3e 45 88 1f bf aa 59 4f 3f 2f 0b 6f 3e
       0.31225306 -0.62317306 0.8099619 0.2334411
000120 08 f3 b7 bf c3 9a 19 bf ff 4a 25 bf 6d 53 b0 bf
       -1.4371042 -0.6000177 -0.6456756 -1.377546
000130 9b 94 09 3f 2b c7 d0 ba 76 82 30 bf 3e ba 21 be
       0.5374238 -0.0015928497 -0.6894907 -0.15793702
000140 b8 9b 53 3c 50 14 c4 3c 90 8d 86 bd 00 73 81 bd
       0.012915544 0.023935467 -0.0656997 -0.06320763
000150 b0 b1 c0 bb ab f1 a2 3d d5 88 a5 3d 93 44 84 bd
       -0.005880557 0.07956251 0.08082739 -0.06458392
000160 22 72 2e bd 70 53 6e bc 30 78 6d bc 02 95 6c 3d
       -0.042589314 -0.01454626 -0.014493987 0.057759292
000170 ba cc 4b 3d 16 05 52 bd ac 92 19 bd 57 01 86 bd
       0.04975579 -0.05127438 -0.037493393 -0.06543224
000180 7c 99 bf 3c dd 51 8d bd d2 b2 05 3d 26 56 6d 3d
       0.023388617 -0.0690038 0.03264124 0.057943486
000190 54 57 17 bd 71 b4 16 bd 90 35 82 bc f9 51 45 bd
       -0.036948517 -0.036793176 -0.015894681 -0.04817388
0001a0 28 b2 a3 bd 44 14 4e bd 80 4b 28 bb 4c 43 55 bf
       -0.07992965 -0.050312296 -0.0025679767 -0.8330581
0001b0 e2 5e e9 3e d5 1b dc be b7 47 9c 3d 27 5f 88 bf
       0.45580202 -0.42989984 0.07630866 -1.0654038
0001c0 65 21 9d be 8b 37 d2 bd b4 83 31 3f aa 96 8f be
       -0.3068954 -0.102645 0.6934159 -0.28044635
0001d0 c4 f5 7f 3f da 0c 1d 3f 58 ea 27 3f c0 53 a1 3e
       0.99984384 0.61347735 0.65591955 0.3150921
0001e0 b0 34 09 40 31 bc d8 3e b1 b0 37 3f 5c 0c 18 3e
       2.1438408 0.4233108 0.71753985 0.14848465
0001f0 43 64 ce 3e 4d ca 30 be 48 a3 a7 3e d9 84 bb bf
       0.4031087 -0.17264672 0.3274176 -1.4649917
000200 e4 d3 81 3f b6 8c 69 be 82 33 27 bf ff b5 53 bf
       1.0142789 -0.22807583 -0.6531297 -0.8269958
000210 dc 39 99 be 67 3b d0 bc d8 77 84 3c fe 0b 5a 3d
       -0.29926956 -0.02541895 0.016170427 0.053234093
000220 f6 05 5b 3d 3f aa 0b bd f8 73 a8 bd 8c 7d c7 bc
       0.05347248 -0.034097906 -0.08225244 -0.024351858
000230 6a 80 2a 3d b8 a9 49 3c 60 ae 8e bc 60 97 89 3b
       0.04162637 0.0123085305 -0.017417133 0.0041989535
000240 6e 2a 18 3d 5e 18 87 bd e5 8e 84 3d f0 2e 83 3c
       0.03714984 -0.065964445 0.064725675 0.016013592
000250 2a 37 6a 3d fe 56 01 3d 0e 0a ac bd 90 2f ff bb
       0.057181515 0.031577103 -0.08400355 -0.0077876523
000260 aa 3b 08 bd 2c 9c 8a bc d6 de 43 3d e8 80 3d 3c
       -0.033260025 -0.016920172 0.047819935 0.011566378
000270 e0 24 c7 3b 19 35 b3 3d 88 59 bb 3c a3 40 1b bd
       0.006077394 0.08750362 0.02286984 -0.03790344
000280 00 51 94 bb 4f 8a bd bf 71 87 ae 3f 23 4a 91 3f
       -0.0045262575 -1.4807833 1.3635083 1.135075
000290 4f 46 08 bf 19 ab b3 3f 3f b5 1e 3f 8d c5 78 3e
       -0.5323228 1.403659 0.6199531 0.2429411
0002a0 55 11 2a bf 19 08 95 bd da 59 ea 3e 19 e7 96 3f
       -0.66432697 -0.07276935 0.45771676 1.1789275
0002b0 8f 14 c7 3d 1b a3 32 be a4 27 17 3e 98 f6 07 3f
       0.09720718 -0.17445032 0.14761215 0.5311065
0002c0 ce f3 ac bf 2a 68 cb 3d 74 5a ba 3f 76 86 30 bf
       -1.3511903 0.09931977 1.4558854 -0.6895517
0002d0 1e ed 22 3e 56 af 07 3f 91 ff 30 bf b9 d3 5b be
       0.15910766 0.53001916 -0.69139963 -0.21467485
0002e0 4a 43 b9 be 13 eb 02 3f 4f 5b bc 3f f2 ab d9 3e
       -0.3618415 0.51139945 1.4715365 0.42513996
0002f0 62 a6 27 3d 8f 15 69 bd 82 23 99 bd 10 e2 4d 3c
       0.04093016 -0.056905326 -0.07477476 0.0125661045
000300 dd 84 89 3d 30 63 1f bd 7d 47 2c bd 3a 84 30 3d
       0.06714795 -0.038912952 -0.042060364 0.04309485
000310 08 cb 8c bd 00 7a 84 ba b8 a5 4a 3c 72 6b 2a 3d
       -0.06874663 -0.001010716 0.012368612 0.041606374
000320 b0 9f e9 bc 34 4d 16 bd 72 2e 12 bd 45 97 b2 bd
       -0.028518528 -0.03669472 -0.035688825 -0.087202586
000330 36 f5 fd bc 02 06 07 bd 60 4e a8 bb ef 88 53 bd
       -0.031000715 -0.032964714 -0.005136296 -0.051644262
000340 92 59 13 bd 9a 49 46 3d 80 73 81 bd 42 63 a0 bd
       -0.035974093 0.048410036 -0.06320858 -0.07831432
000350 a2 8a 31 3d 30 01 f8 3c 32 56 52 3d 2f d3 ff bf
       0.0433451 0.030274004 0.051351734 -1.9986323
000360 76 27 ae 3e ea 4b a3 bc b0 28 45 bf df d8 87 be
       0.3401448 -0.01993366 -0.7701521 -0.26532647
000370 06 b6 b6 3f e7 bc 25 be 63 ef 0c bf 4c b2 73 be
       1.4274299 -0.16185342 -0.55052775 -0.23798484
000380 73 ae d0 3f b4 a1 af 3e 04 19 63 3e 3e b8 24 be
       1.6303238 0.34303057 0.22177511 -0.16085908
000390 3c 68 5a bf cb 21 19 3c 93 27 68 3f e6 d8 2b bf
       -0.853153 0.009346436 0.90685385 -0.67127836
0003a0 69 8b 50 be 24 9b 21 bf 67 26 03 bf 6c 52 9d 3d
       -0.20365681 -0.6312735 -0.5123047 0.07681736
0003b0 12 d2 5a 3e 50 19 4e 3f fc b8 6b be 5c 78 12 c0
       0.21369198 0.80507374 -0.23019785 -2.2885962
0003c0 99 64 c2 bd be 8c 21 3e 00 c0 b0 3c 00 37 a8 3b
       -0.09491844 0.15776345 0.021575928 0.0051335096
0003d0 50 a4 c9 3b eb 57 a1 3d ce 4d 37 bd 56 2e 5d bd
       0.006153621 0.07878097 -0.044751935 -0.053999268
0003e0 5a b6 3a bd b0 10 c9 3b c1 40 85 bd ce d0 01 3d
       -0.04558406 0.0061360225 -0.065064915 0.031693272
0003f0 3e 91 19 3d 1a 2e 75 bd f5 e0 81 3d 7c a7 80 3c
       0.03749203 -0.05985842 0.06341735 0.015704863

rnn.weight_hh_l0 f4 [128, 128]
000000 7a 16 d8 bd 2e db 83 3e b2 96 99 3b 36 3c c3 3d
       -0.10551162 0.25753158 0.0046871537 0.09532969
000010 37 34 68 3d 15 a3 60 3d 7e 81 b4 3c 68 cb bd 3d
       0.05669042 0.054843027 0.022034403 0.09267312
000020 25 89 5d be ee ca 9d 3d bd 6d 79 3e 32 6d 71 be
       -0.21634348 0.077047214 0.24358268 -0.23576811
000030 e9 ab 64 bd 7e 92 a7 3d 11 bf 96 3e 7a 88 ea be
       -0.05582801 0.08182238 0.29442647 -0.45807248
000040 d4 93 88 be 64 bd 24 3e 7f 07 e5 bd 25 65 12 3e
       -0.26675284 0.16087872 -0.111830704 0.14296396
000050 6a 24 43 3d 40 1c 1c be da 29 60 3e 05 63 b6 be
       0.04764215 -0.15245152 0.21890965 -0.3562242
000060 7c 1d 48 3e 37 ee a8 be 48 d5 3b be d4 b6 96 3e
       0.19542497 -0.32994244 -0.18343079 0.29436362
000070 14 e5 02 be c6 d7 e2 be 88 17 84 3e 28 02 bd bd
       -0.12782699 -0.44305247 0.25799203 -0.09228927
000080 61 8f e5 bd 5f ad 23 3e 41 66 2c 3e a8 92 dc bc
       -0.11208988 0.15984105 0.16835882 -0.0269254
000090 f5 d6 97 bd 7d a9 8c b9 17 d3 c9 be 14 46 d9 bd
       -0.07414047 -0.0002682916 -0.3941886 -0.106090695
0000a0 35 48 1a be 43 2f 67 bd c4 9c 8c 3e 17 ee 0a 3e
       -0.15066607 -0.056441557 0.27463353 0.13567387
0000b0 0e c9 fd 3d 0e ed e5 bd 2b bd d6 bd 70 81 7e be
       0.12391864 -0.11226855 -0.104853 -0.24854064
0000c0 d1 18 69 3c 7f e7 14 bd 42 6a c8 bd 79 5b 47 3e
       0.014227108 -0.036353584 -0.09785892 0.19468488
0000d0 f7 89 68 be 54 25 39 3e 34 7d 59 be 83 c9 4b 3e
       -0.2270888 0.18080646 -0.21239167 0.1990109
0000e0 9b 3e f7 3c 8a 54 67 3d c7 d7 20 bc 75 ab c4 bd
       0.03018122 0.056477107 -0.00981707 -0.09603015
0000f0 36 0d 9f bd 65 12 47 3d 06 c1 ae 3d bc ca 3f 3e
       -0.07766192 0.048601527 0.0853291 0.18729681
000100 02 47 5d 3e 26 5f 43 be e9 5e 6a 3c e7 2a 06 3d
       0.21609119 -0.19079265 0.014304855 0.03275576
000110 ba 9f c8 3d 37 a1 b1 3d 22 5c 55 3e f7 e7 b0 be
       0.097960904 0.086733274 0.20835927 -0.34551975
000120 f8 01 ba be 53 57 db 3e cd dc 06 be 3a d8 00 bd
       -0.36329627 0.4284006 -0.13170166 -0.03145621
000130 a8 43 c7 3d f9 75 88 be f4 c2 fa 3e ce 31 8c be
       0.09729701 -0.26652506 0.48976862 -0.27381748
000140 de 47 16 be 74 ed fa 3c 3d 56 4c be 13 a6 c3 3e
       -0.14675853 0.030630805 -0.19954772 0.38212642
000150 58 37 c7 3d 9d f2 81 be af ae 39 3e 12 b7 63 3e
       0.09727353 -0.25380412 0.18133043 0.22237805
000160 cd 20 10 be 24 1a eb 3d 15 3c cd bd 3b 6c da bd
       -0.14075013 0.11479595 -0.10021225 -0.106651746
000170 39 8c 40 3e d7 cf 14 3e 1d e6 d8 3e 27 bc 05 3e
       0.1880349 0.1453241 0.42363063 0.13060056
000180 ba 79 42 3c 3a 26 12 bd 60 2c d3 3c 88 17 33 be
       0.011869842 -0.035680987 0.025777996 -0.17489445
000190 e7 fc ca be 09 5d 3c bc 9b 93 48 3e 9c cc 9b 3e
       -0.39646074 -0.011496791 0.19587557 0.30429542
0001a0 14 ab 5e be 2f b8 2b 3e 09 d2 b1 bd 5b a0 05 bd
       -0.21744949 0.16769479 -0.08682639 -0.03262363
0001b0 b6 c7 df 3c 39 69 97 3b 9b b7 cc bd 75 77 d0 3d
       0.02731691 0.004620698 -0.099959575 0.101790346
0001c0 5b b1 ec bd 3d f3 07 bd 77 96 96 bd 0f a0 e0 bd
       -0.11557265 -0.033190954 -0.07352918 -0.10968029
0001d0 fc d7 dc bd 1a 98 04 3e 61 05 30 3e 2d e1 87 be
       -0.10783383 0.12948647 0.17189552 -0.26538983
0001e0 f4 3a b4 3c b2 4b 63 3e 37 01 66 3e 8d 32 ed bd
       0.022000767 0.22196844 0.22461401 -0.115819074
0001f0 69 9a 03 be fb b5 87 3e 58 74 a7 3e df 89 da 3d
       -0.12851872 0.26506028 0.3270595 0.10670828
000200 be e5 a6 3b c7 12 fc be a6 48 d5 3e 52 e5 83 be
       0.0050933054 -0.49233076 0.4165699 -0.25760895
000210 ce 92 fc 3d 03 eb 9f bb b9 2c d9 3e 93 34 08 3e
       0.12332688 -0.0048803105 0.42416933 0.13301305
000220 ee 48 1b be 37 8a 23 3d fa 9a 5a 3e a4 81 bd 3c
       -0.15164539 0.039926734 0.21348181 0.023133107
000230 7b e5 5b 3e e8 69 3d 3d b9 40 83 3d 54 52 e1 3d
       0.21474259 0.04624358 0.06408829 0.11002031
000240 86 36 37 3e 32 b3 4b be 81 b0 f4 3d 3c f5 61 bd
       0.17891893 -0.19892576 0.11947728 -0.055165514
000250 e7 62 67 bd b3 6e 47 3e a2 41 15 bb c8 ea 93 be
       -0.056490805 0.19475822 -0.0022774716 -0.2889006
000260 d8 44 d4 bd 38 50 43 bd 32 8e da 3d c9 a8 78 be
       -0.103646934 -0.047683924 0.10671653 -0.24283136
000270 fc 52 50 be 7c 6a eb 3d f8 9d 1e 3d cc a9 da be
       -0.20344156 0.1149492 0.03872487 -0.4270767
000280 fd ef 20 be 11 71 97 be 8d 7b a0 bd 31 3b 02 3c
       -0.15716548 -0.2957845 -0.078360654 0.007948683
000290 91 00 33 3e cc f1 ae bd 5e 19 ad bd 3d f4 d8 bd
       0.17480685 -0.08542213 -0.08452104 -0.1059346
0002a0 f4 7a 6b 3d f0 d0 51 3e c6 70 4c bd 68 40 90 bd
       0.057490304 0.2048986 -0.049912237 -0.070435345
0002b0 41 fb c4 3c c8 77 3a be fa 73 10 3d 4f d5 07 be
       0.024045588 -0.18209755 0.035266854 -0.13264965
0002c0 c2 49 ed 3d 3e 56 b8 3e 13 bf 7b be 8e cd 8e 3e
       0.11586334 0.36003298 -0.24584608 0.278912
0002d0 95 b6 10 bb f9 50 8c 3e c9 05 1a 3e 8d 30 af 3c
       -0.0022081484 0.27405527 0.1504127 0.021385456
0002e0 8e a5 b1 3c 5e 5f 76 3d d6 df 97 bb 6a 72 cb be
       0.021685388 0.060149543 -0.0046348376 -0.39735729
0002f0 96 db 99 bd ae bb 1b be d2 64 8c be 52 35 86 bd
       -0.07512586 -0.15208313 -0.2742067 -0.06553139
000300 98 bf 8c 3e 04 97 4b 3d d0 4f db bd 9d a3 11 3e
       0.27489924 0.049704567 -0.107085824 0.1422257
000310 81 a0 75 3e 04 20 b4 bd 7b 97 33 be 04 07 0d be
       0.23987009 -0.08795169 -0.17538254 -0.13772207
000320 a9 4f d1 be e2 c9 0f 3d 95 11 2e 3d 0f 7f af 3d
       -0.40881088 0.03510464 0.042497236 0.085691564
000330 7b 22 03 3e 37 e8 28 be 9a 25 01 3e 0a ed 76 3e
       0.12806122 -0.16494833 0.12612 0.2411386
000340 e1 ac ed 3d 11 d7 43 3d bb bc 20 3d 0d b9 21 bc
       0.1160524 0.047812525 0.039242487 -0.00987078
000350 21 f5 9d 3d 98 4d 8f bd 68 41 75 be ef a1 a3 3d
       0.0771277 -0.06997222 -0.23950732 0.07989871
000360 68 01 c4 3d a8 f7 79 3e b2 b0 42 3e 69 45 82 3e
       0.09570581 0.2441088 0.19012716 0.2544358
000370 ec eb a6 be 64 96 68 3e a3 53 fa 3d 7a 8d 6b 3d
       -0.3260187 0.2271362 0.12222984 0.05750797
000380 0e 39 9c be cd 84 47 3e b9 62 11 be 89 f8 02 be
       -0.3051228 0.19484253 -0.14197816 -0.12790121
000390 d2 66 18 3d 85 d5 3a be f1 07 9a 3e e6 e5 8b 3d
       0.037207432 -0.18245514 0.30084184 0.06830959
0003a0 a9 26 76 be 6e c5 4b 3e a4 96 6d bd 3d 02 06 be
       -0.24038185 0.19899532 -0.05800499 -0.13086791
0003b0 b3 a7 c3 3d c3 63 79 bd a2 18 b0 bc e8 23 c9 3d
       0.095534705 -0.060886156 -0.02149612 0.09821302
0003c0 ed 2f 66 3d 7c 40 79 be c9 41 b7 3e 6a 4a 9b 3d
       0.05619805 -0.24341005 0.35792378 0.07582553
0003d0 99 e3 a2 bc bb d7 2c 3d 70 1f 44 3e a5 7d 40 3d
       -0.019883918 0.042197924 0.19152617 0.046994824
0003e0 11 04 a4 bd f7 59 d3 3d b8 a6 1c be 9e 76 1f bd
       -0.08008588 0.10319894 -0.15297973 -0.03893148
0003f0 1d 5a 45 be a0 9d 97 3c f7 0c 54 be d3 55 7e be
       -0.19272657 0.018507779 -0.2070807 -0.24837427

rnn.bias_ih_l0 f4 [128]
000000 87 4b 89 bd 0e 01 ed be bf 59 f2 3d 04 b4 f6 3e
       -0.06703859 -0.46289867 0.11833524 0.48184216
000010 f9 db 9f 3d f7 45 13 3e f7 92 e1 3d 5d c6 24 3d
       0.07805628 0.14382158 0.110143594 0.040228236
000020 d2 1d 88 bd ab ca 95 3d ec 6c b4 3c 9e 77 aa 3c
       -0.06646313 0.073140465 0.022024594 0.020808991
000030 32 cc 65 be f6 fe 74 be 85 a6 08 3e 33 b6 09 bd
       -0.22441176 -0.23925385 0.13344772 -0.033621024
000040 cc 81 55 3d 53 56 22 bd a2 1a 55 3e b0 30 f2 bd
       0.052125737 -0.039633106 0.20810941 -0.11825693
000050 d3 ea d5 3d 48 8e b3 bd 51 e1 a4 bc b8 3c 15 3d
       0.1044518 -0.08767372 -0.02012697 0.03643486
000060 ed d3 bd 3d 36 00 f4 3e c9 2b 23 be 27 61 03 be
       0.09268937 0.4765641 -0.15934671 -0.1283003
000070 1c 71 86 3c 14 0f 00 3e 33 26 3e bd b0 b8 a2 bc
       0.016411357 0.12505752 -0.04642315 -0.019863456
000080 d4 fb 78 3e fd 1b 2d 3c ee 4f 80 3c 9a a1 69 3d
       0.24314815 0.010565755 0.015663113 0.05703888
000090 ba 76 df 3d b7 c9 38 be 66 b7 8f 3e 5d 3c 08 3e
       0.10911317 -0.18045698 0.2806961 0.13304277
0000a0 cd fa 69 be 7a 13 8d bd 4d 7f a2 3d 0a da c9 bc
       -0.22849579 -0.068884805 0.07934437 -0.024640102
0000b0 9e a3 46 bc bd f0 b5 bd a1 ba 30 bd 18 28 3e be
       -0.01212397 -0.08883808 -0.043146733 -0.18569982
0000c0 c9 88 48 bd ba bd b6 bd 1a d0 03 3e c1 16 19 3c
       -0.048958573 -0.08922906 0.12872353 0.009343804
0000d0 c7 f9 d6 bd da 45 2a be a0 17 f8 bd 0f 6e f5 3c
       -0.1049686 -0.16628209 -0.12113881 0.029959707
0000e0 56 f3 7c be 51 ef d6 3b 59 8e fa bd 2b 17 9b 3c
       -0.247022 0.0065592905 -0.12234182 0.018931946
0000f0 f2 38 48 bd 6f f1 18 be f7 3b bb bd 51 4f 0a be
       -0.048882432 -0.1493585 -0.09142297 -0.1350682
000100 d7 11 e6 bd e8 ca c5 bc c3 1b 73 be e6 18 98 bc
       -0.112338714 -0.024144605 -0.23741059 -0.01856656
000110 69 c9 55 3d 63 9e c0 3c 63 74 14 bc 68 91 70 3d
       0.052194033 0.023513025 -0.009060952 0.05873242
000120 ff 5b 24 be 68 c7 f1 bd b5 83 60 3e e4 33 c3 bd
       -0.16050719 -0.11805612 0.21925242 -0.09531382
000130 1a 0f 35 bd 72 70 54 3b c3 fa b4 bd ca 43 b5 be
       -0.044203855 0.0032415655 -0.088368915 -0.3540328
000140 d7 84 b4 bd 28 a5 63 3d bb 84 c1 3e 84 50 17 3d
       -0.088144 0.055577427 0.37796578 0.03694202
000150 cd 52 cd 3d db 07 63 be 47 5b 62 bd ee 4b 27 be
       0.100255586 -0.22170965 -0.05526283 -0.16337559
000160 ef 51 ef 3d 36 8e 3f bd 1b f2 34 3e da e2 a9 bd
       0.116855495 -0.046766482 0.17670481 -0.082952216
000170 75 53 c9 3d 6b 63 b3 bd 7d d4 9f 3d 25 04 4a 3e
       0.09830371 -0.08759197 0.07804201 0.19728144
000180 eb 6d 61 be 5d 5d fd 3d 1e ec 69 be c8 36 cc bd
       -0.22014587 0.12371323 -0.22843978 -0.09971386
000190 ff ce be bc c6 d3 18 3e b8 e3 3a bd 73 ee c2 bc
       -0.023292063 0.14924535 -0.045627326 -0.023795342
0001a0 c4 34 73 3d dd 71 01 be 23 37 57 be 5a 91 36 bc
       0.059376493 -0.12641092 -0.21017127 -0.011143053
0001b0 e1 d3 1c 3e 12 bf bd bc e8 b9 2f 3e 48 5a 0a be
       0.153152 -0.023162398 0.17160761 -0.13511002
0001c0 d5 3e b4 3d 5a 82 96 bd a2 80 6d 3e 0d f1 48 3c
       0.08801047 -0.07349081 0.23193601 0.012264502
0001d0 c5 0a c2 3d 71 ce dc bd 9e 93 8e bc 2a 32 af bd
       0.094747104 -0.10781563 -0.017404374 -0.0855449
0001e0 1c 89 bd 3d e7 fe a7 3e 1c 3b d8 bd f8 93 f2 3c
       0.09254667 0.32811663 -0.10558149 0.029611573
0001f0 2f c5 10 3c 32 96 8b be cd 1f 45 3e ce d0 4e bd
       0.008836075 -0.27263027 0.19250412 -0.0504921

rnn.bias_hh_l0 f4 [128]
000000 71 2c 89 3d 34 b4 c9 be 95 5f 2f 3e 9f 63 e9 3e
       0.0669793 -0.39395297 0.17126305 0.45583817
000010 1a 2b 42 3d 7f 5e 43 3e 7e 9a 16 3e cd 2e 98 3d
       0.047404386 0.19079016 0.14707372 0.074308015
000020 a7 aa 59 bd 27 98 82 3c 0b d5 b5 3d 8c 47 e3 bc
       -0.053141262 0.015941693 0.08878525 -0.027744077
000030 64 7d 54 be b8 24 49 be 69 25 1e 3e a4 c3 30 bd
       -0.20750958 -0.19642913 0.15443958 -0.043155327
000040 2e 89 20 3e 42 60 84 3d 05 01 25 3e b4 c9 f4 bd
       0.1567733 0.06463672 0.1611367 -0.11952534
000050 e8 db 3a 3d 47 ed 36 3d 53 03 a4 bd ed d8 b3 3d
       0.045619875 0.04465988 -0.080084465 0.0878161
000060 f2 40 83 3b c0 98 e8 3e 5e 4d ca bd d6 0e 44 bd
       0.004005545 0.4542904 -0.09878038 -0.04786571
000070 49 23 e5 3d f2 8f 40 bc bc ae 1f bd 46 eb 0f bd
       0.11188371 -0.011753069 -0.038985 -0.035136484
000080 47 62 a7 3e fb d6 97 3b d4 5f 52 bd ba f9 16 3d
       0.32692167 0.004633782 -0.05136092 0.03685925
000090 81 11 76 3e 2c ed 6d bc fa 42 98 3e 22 49 0a 3e
       0.24030115 -0.014521878 0.297386 0.1350446
0000a0 43 61 8d be 97 7d c1 3c ec d7 25 3d 53 f4 d6 3d
       -0.27613267 0.023619456 0.040489122 0.1049582
0000b0 4b 16 d7 bd 32 d5 0f bc 75 23 93 3c a6 54 28 be
       -0.10502299 -0.008778857 0.017961243 -0.16438541
0000c0 b7 f6 21 bc 6f bf 47 bc a5 38 5f 39 dd f1 1c bc
       -0.009885482 -0.012191637 0.00021288039 -0.009579149
0000d0 0f df dd bd 0c 6d c6 bd de be d2 bd b5 8f 2f 3d
       -0.10833561 -0.09688768 -0.10290311 0.04286166
0000e0 57 2c 58 be 95 5d 08 bd 9e 0c 03 bd 53 6c 9d bb
       -0.21110664 -0.03329237 -0.031994455 -0.004804173
0000f0 d5 93 7b 3d 49 85 96 be d9 e9 17 be da 9d 01 be
       0.06142028 -0.29398564 -0.148353 -0.12657872
000100 46 d1 b8 bc 90 e2 7c bd 21 09 8b be bf 9a fc bc
       -0.022560727 -0.061739504 -0.27155402 -0.030835507
000110 67 5c 92 bd 39 9a 88 3d a6 3d d9 bc 23 55 47 bd
       -0.071465306 0.06670041 -0.026518654 -0.048665177
000120 fb 18 ae bd 34 95 e0 bd 25 c8 af 3d 8f c2 2d be
       -0.085008584 -0.10965958 0.085830964 -0.1696875
000130 44 a7 93 bb 12 3a a8 bc 7a 2a 9e bd b1 72 b0 be
       -0.0045060236 -0.020535503 -0.077229455 -0.34462503
000140 45 b5 9a 3c 59 27 fe 3d fc 5e b8 3e ec 5e d7 3d
       0.018885264 0.12409849 0.36009967 0.10516152
000150 e4 fd 80 3c ba 21 81 be ba 0c bf bd 66 67 9e bd
       0.015746064 -0.25221044 -0.09328599 -0.077345654
000160 8b 57 01 3e 11 6b 51 bd c3 ca 1c 3e ba 59 cb bb
       0.12631051 -0.051127497 0.15311722 -0.0062057646
000170 c8 c8 fb 3d 15 cf b4 bd 31 3b 12 3e 81 56 0f 3e
       0.12294155 -0.0882856 0.14280392 0.13997842
000180 ce c7 c2 bd 92 cc b7 3d aa 55 80 be 6f 67 ed 3c
       -0.09510766 0.089745656 -0.25065356 0.028979985
000190 0f 5e f9 3c 6f bf bd 3d 45 16 e8 bd 0b 44 a3 3c
       0.030440358 0.09265029 -0.113323726 0.019929906
0001a0 1e 18 30 bd 24 34 00 be bd b1 f7 bd 17 f9 6c 3d
       -0.04299175 -0.1251989 -0.12094448 0.057854738
0001b0 ba 4d 3a 3d b5 33 f6 bd ad 19 0a 3e 8a ea a0 bd
       0.045484282 -0.12021581 0.13486357 -0.07857235
0001c0 4a b3 7b 3d 56 8a 2c 3d ca e1 17 3e d8 b5 31 bd
       0.06145028 0.042124115 0.14832225 -0.04338631
0001d0 22 5d b9 3c 02 9f 12 be bb c3 68 bd 2d 35 43 bd
       0.022627417 -0.14318469 -0.056827288 -0.047658134
0001e0 4f c6 77 3e c0 b1 93 3e f6 fd 88 3d 36 0e 79 3d
       0.24196742 0.2884655 0.06689064 0.06080457
0001f0 8b e8 54 bd 7a fc 89 be 9e aa cb 3d 0f 2d f0 3c
       -0.051979583 -0.26950437 0.09944652 0.02931836

fc.weight f4 [54, 128]
000000 96 9f 95 be b4 b3 43 3d 7f c4 8c 3e c6 3d b2 3e
       -0.29223317 0.0477788 0.27493665 0.34812754
000010 ba 35 28 bd c1 2f f1 bd 2e 68 30 3f d8 f1 03 bf
       -0.041066863 -0.117766865 0.68908966 -0.515409
000020 65 9f d9 be e6 d6 04 3f 90 d9 9a 3d 1b d1 bf be
       -0.4250442 0.5189041 0.07561028 -0.37464222
000030 e2 c8 f4 be d1 1c ce 3d 5b d0 1d 3f d4 d4 86 bc
       -0.4780951 0.1006409 0.6164605 -0.016458906
000040 32 83 12 3e 8d 07 91 be c6 33 f0 3e 79 7f a6 bd
       0.1430786 -0.28326073 0.469145 -0.08129782
000050 c1 57 96 bc 31 9a 03 3f 45 c1 87 3b 6b ef 9b 3e
       -0.018352391 0.5140715 0.0041429126 0.304561
000060 24 9b f0 3d aa 8f c9 3e 45 7f 94 3e 1d 98 b9 be
       0.11748341 0.3936742 0.2900335 -0.36248866
000070 b7 62 da 3e 7c da 81 be 7b da 86 3e 2d 9d a7 be
       0.42653438 -0.25362003 0.26338562 -0.32737103
000080 42 29 36 3e 60 21 35 3d 3b 62 c9 be d7 73 7f bd
       0.17789176 0.044221282 -0.39332756 -0.062366333
000090 6f 49 9e 3e cc c7 37 bf 4a e9 98 bd f7 4b 0e be
       0.309154 -0.7178924 -0.07466371 -0.13896166
0000a0 3d 66 4c bd 9a df 4f be ff 7a a3 be 73 84 d0 3e
       -0.04990219 -0.20300141 -0.31929776 0.4072605
0000b0 35 1c 8d 3e 0c 25 4f 3f 5e e3 89 3d a1 9d 10 3e
       0.27560583 0.80915904 0.0673282 0.1412263
0000c0 cd 2d 2b bf b6 15 b4 3d c8 69 86 be 23 de dd be
       -0.6686676 0.087932035 -0.2625258 -0.4333354
0000d0 17 c2 3a 3e d3 81 01 bd 50 25 85 3b f7 36 45 3d
       0.18238102 -0.03161795 0.004063286 0.04814812
0000e0 c2 fe dc bd 87 ab 9e bd bf 68 a9 bc ed d1 2f be
       -0.10790779 -0.0774756 -0.02067983 -0.17169924
0000f0 87 9b 27 bd 48 ab 39 3d 22 b1 03 be b1 d2 c4 3d
       -0.040919807 0.045329362 -0.1286054 0.09610499
000100 9e 0d 5c 3d 1e 77 52 bc f0 df bb be 8d b9 da be
       0.053723924 -0.012845783 -0.36694288 -0.4271969
000110 db 92 b5 3e 48 4a 5e be f2 46 d6 3e 98 6a 95 be
       0.35463604 -0.21708024 0.41851002 -0.29182887
000120 e1 14 bc be e8 a6 cc 3d 37 ac 17 3e 04 ea ef be
       -0.3673468 0.09992772 0.14811788 -0.46858227
000130 6f 17 8f 3e d8 70 c6 3d c2 a5 20 3f 11 c6 07 bf
       0.27947566 0.09689492 0.62752926 -0.530366
000140 d8 27 99 be 9f ce d1 be f6 12 18 3f 7c be e2 b8
       -0.2991321 -0.40977952 0.5940393 -0.00010812
000150 5d 5c 5d be d4 92 85 be ae 89 82 3e b3 84 79 be
       -0.21617265 -0.26088583 0.25495666 -0.24367027
000160 1b f8 d3 3e a0 97 c2 3e 0f ab 1b 3f c3 ec ef bd
       0.41400227 0.38006306 0.6080789 -0.117150806
000170 0c 83 9d 3e 81 04 dd be 79 fb 61 3e 94 a6 d1 3e
       0.30764043 -0.431675 0.22068585 0.40947402
000180 7f ff a7 3e 56 4d 1f 3f ce 72 df bd 82 dd c6 be
       0.32812116 0.6222738 -0.10910569 -0.38840872
000190 7e 30 fc 3e 10 e4 8f be 64 c4 85 3e a6 36 88 3c
       0.49255747 -0.28103685 0.26126397 0.01662762
0001a0 a2 d6 80 be ac 91 ff bd 63 ee d6 ba e0 e0 32 3f
       -0.25163752 -0.124789566 -0.0016397949 0.6987438
0001b0 26 0f 7f 3e fb 38 03 bd 0f d9 8d 3e 5a e1 9a bd
       0.24908122 -0.032036763 0.27704665 -0.07562514
0001c0 3d 13 ee 3d 8c e7 16 be 4b e1 a3 bc c6 fb b4 bd
       0.11624763 -0.14736766 -0.020004889 -0.088370845
0001d0 bf 0a 79 3e 3c 0b 61 3e a5 20 7e be d6 e7 37 3f
       0.24320506 0.21976942 -0.2481714 0.7183813
0001e0 6c a0 a8 bc 2f 30 16 be 29 46 28 3e 79 a0 a6 3e
       -0.020584308 -0.14666818 0.16433014 0.32544306
0001f0 d3 d7 2b be 90 ef 30 3e 4a 24 53 be 49 fd 90 3e
       -0.16781549 0.17278886 -0.20619312 0.2831824
000200 5b e8 be be e2 a2 0b 3e ce 46 32 bc 7f b0 5d be
       -0.37286648 0.13636354 -0.010881139 -0.21649359
000210 81 5d c1 3d 4f 70 19 bd 95 91 f5 be f2 65 9e 3e
       0.094416626 -0.03746062 -0.47962633 0.30937153
000220 9e 99 63 3e dd 4f ee be 19 ac 33 be 56 73 97 3d
       0.22226569 -0.46545306 -0.17546119 0.073950455
000230 d3 2e 4d be 38 61 de bc 7b 3b ba 3e ee 93 66 3d
       -0.20037393 -0.027145967 0.36373505 0.05629342
000240 9e 31 0a 3e cd 20 1d ba a3 44 f3 3e 12 b8 c6 bd
       0.1349549 -0.00059939624 0.47513303 -0.097030774
000250 53 bf 1b 3f e2 41 a1 3e d1 b6 59 be e2 0d 2a be
       0.6083881 0.31495577 -0.21261145 -0.16606858
000260 9b dd dd bd 01 e2 fd 3d f3 78 3a be 5c 60 73 3f
       -0.108332835 0.123966224 -0.18210201 0.9506891
000270 34 d8 7f 3e 31 46 d9 3d cf 67 6d be 32 33 4a bc
       0.24984819 0.10609091 -0.23184131 -0.0123413075
000280 3f 9f 7e 3d ca ff 60 bd 0a a2 95 bd e6 8a 13 be
       0.062163588 -0.05493144 -0.07306297 -0.14408454
000290 e7 8c 8f 3e 5b 99 07 3e cf c6 c3 be 82 22 4c bd
       0.28037187 0.13242094 -0.38237616 -0.049837597
0002a0 f8 d6 a5 be 56 36 1f 3f eb 96 7e 3e 76 a0 02 3e
       -0.3239057 0.62192285 0.24862258 0.12756523
0002b0 36 65 61 3e 0f 92 e9 bd 87 9b e6 3d c4 98 39 3e
       0.22011265 -0.114048116 0.11260133 0.18124682
0002c0 f5 96 96 3e 73 34 ab be b7 1b d2 3e f0 01 c4 bd
       0.29412046 -0.33438453 0.4103677 -0.09570682
0002d0 57 ab 4f bc 88 4e d1 bd 25 24 7d 3e 08 2b ab bd
       -0.012675128 -0.10220057 0.2472082 -0.08357817
0002e0 21 ac e4 bd f1 65 a7 3e 68 83 c9 3e ff d9 5f 3e
       -0.111656435 0.32694963 0.39358068 0.21860503
0002f0 22 87 a5 3e 8f 5a 59 be 6f 80 4d 3d 4d 29 6b be
       0.3232966 -0.21225952 0.050171312 -0.22964974
000300 6b 3a 97 be 53 39 b9 bd db b0 8c be fb ab fc 3d
       -0.29536757 -0.09044137 -0.2747868 0.1233749
000310 bd 9d d2 be 84 77 5f 3e ae 37 26 3e 08 49 02 3f
       -0.4113597 0.21822935 0.16232178 0.50892687
000320 cf ec bd 3e 2b 5c 80 3e 99 82 50 be 41 6b 35 3c
       0.37094733 0.2507032 -0.20362319 0.011072935
000330 fd 04 f6 3e 62 63 0d 3d 24 70 53 bf fa 87 b9 3e
       0.4805068 0.034518607 -0.8259299 0.36236554
000340 71 d0 85 bc e9 d0 b5 be 56 9f 08 bc 44 f4 e6 3c
       -0.016334744 -0.35510948 -0.00833877 0.028192647
000350 80 8f 12 bd 34 2c c3 3e c1 9a d9 3d 4b 2b 5b 3e
       -0.035781384 0.38119662 0.1062522 0.21403234
000360 0f 4d cc 3d c0 41 b4 be 1a 2c 08 3f cb f5 80 3e
       0.09975635 -0.35206413 0.53192294 0.25187525
000370 f9 e1 b5 be db 67 b2 3e 2e 21 dc be 0b 78 b1 3e
       -0.35523966 0.3484486 -0.42994064 0.34661898
000380 d8 46 f7 be bf 2e dd 3e a3 12 20 3e 59 fa 08 bf
       -0.48296237 0.43199727 0.1563211 -0.53507
000390 30 22 d6 be 28 c9 0b bd 22 c5 ad 3d a8 64 16 be
       -0.41822958 -0.034127384 0.08484866 -0.14686835
0003a0 6d 41 1d be 25 c4 82 3d 97 3a 0e 3f bf 96 a2 be
       -0.15356989 0.06385068 0.5555815 -0.31755635
0003b0 70 d2 07 3f 81 3f 49 3e 63 c4 54 3e f8 d7 13 bf
       0.5305548 0.19653131 0.2077804 -0.5775142
0003c0 2e 4f 93 3e 1c bb 9a bd 45 4c 27 3e 62 49 43 3e
       0.28771347 -0.075552195 0.16337688 0.19070962
0003d0 c1 8e e9 bd 8a 78 19 bf 74 b4 01 bd 42 1e 15 be
       -0.11404181 -0.59949553 -0.031666234 -0.14562324
0003e0 af 4c 0d bf b9 61 08 bf 97 84 27 3e 60 a8 2a 3d
       -0.55195135 -0.5327411 0.16359173 0.04166448
0003f0 ac d2 2d bf dd 0e 14 3e fc bd c0 be 85 2b c0 3b
       -0.67899585 0.14458795 -0.37644947 0.005864563

fc.bias f4 [54]
000000 74 d6 00 3e bd 8e fb bc 03 15 5d be 7d c1 21 be
       0.12581807 -0.030707711 -0.21590047 -0.15796466
000010 ef 4a 27 3e 67 69 0e be b5 1c 92 bd fa d0 bc bd
       0.16337179 -0.13907395 -0.07134382 -0.092195466
000020 7d a7 e1 3e 10 fb ef 3c 9a be 10 3e 2c 0c 17 3c
       0.44073096 0.02929452 0.14135209 0.009219211
000030 78 48 c6 3b f3 b9 ad 3d e8 57 82 3e 40 eb dc bd
       0.0060511194 0.084827326 0.25457692 -0.10787058
000040 c2 69 96 be 82 60 0c bd bf 56 b0 3d e8 61 25 3c
       -0.29377562 -0.034271725 0.086102955 0.010094143
000050 be 05 58 3d cf a4 63 bc e7 ca 72 bd b8 07 b6 be
       0.05273985 -0.013894274 -0.059275534 -0.35552764
000060 d8 04 b3 bd e8 f0 13 bd 68 92 23 bf 2b fe 24 bf
       -0.08741158 -0.036118418 -0.63895273 -0.6445033
000070 86 ff 2c bf 8f 6b 37 bf 78 f8 32 bf b0 b0 36 bf
       -0.675774 -0.71648496 -0.69910383 -0.71363354
000080 fc 7e 38 bf 18 0a 12 bf 9f 83 2e bf 4d f9 11 bf
       -0.7206876 -0.5704665 -0.6816959 -0.5702103
000090 9c 81 19 bf 5d b7 21 bf cf f8 11 bf 28 95 24 bf
       -0.59963393 -0.63170415 -0.57020277 -0.64290094
0000a0 41 14 21 bf 0a 96 16 bf 53 09 3b bf 21 9d 2c bf
       -0.6292153 -0.5882269 -0.730611 -0.6742726
0000b0 aa 60 18 bf 98 8e 20 bf 8a 00 22 bf f1 a8 26 bf
       -0.595225 -0.6271758 -0.6328207 -0.65101534
0000c0 4c 7a 0c bf 75 de 26 bf 67 97 31 bf 99 25 20 bf
       -0.5487411 -0.6518319 -0.69371647 -0.6255737
0000d0 6e 1b 33 bf 8f b0 28 3e
       -0.6996373 0.16473602
