神经网络作业/A7/models/default_model/name_generation_rnn_AT.pth (torch, 123988 bytes, 6 tensors)

rnn.weight_ih_l0 f4 [128, 54]
00000000: 65c6 2a3f c6c8 1d3f 3444 893e 507a 0bbf
00000010: 1c57 33bf c10e 94be 3eae 30bf ee96 63bf
00000020: 10f8 1a3f ea84 503f efbb 913e fe86 8c3e
00000030: b4c8 e4bf 134d 95bd 40a6 67be 35d9 3fbf
00000040: 0027 d6bf 4286 03bf 5b87 2dbe 8381 fdbe
00000050: dcd7 ad3f 6d15 9ebe 2bff 56bf ebb3 3c3f
00000060: c0fa 813f 0ad2 79be 525f 013d 66cb 123d
00000070: 31ac 853d 4423 8a3c d134 8b3d ab28 2fbd
00000080: 223b 473d d262 8ebd b378 49bd 21a4 9abd
00000090: 2f74 a83d 1d6e 1dbd 7887 953c f194 23bd
000000a0: 00e1 86bc c003 5fbb 1308 7fbd d1b8 953d
000000b0: f9d1 aabd e860 303c 2639 8fbd ca27 a1bd
000000c0: cbef a33d 0929 9a3d d219 4c3d b6d1 8fbd
000000d0: 5027 fcbc 3a4a be3f 05e4 7f3f ff57 71bf
000000e0: 802b 75bf f83a cdbd 3266 243f 9007 33bf
000000f0: 5fdf 90bd 1715 c63b ebf5 d2bf abcd 4dbf
00000100: 82d8 e4bf bf10 fbbe 064e 8abe 5f03 8e3f
00000110: 84c8 d7be c82e 04bf 6b0c b83f fd23 2b3f
00000120: 3612 7cbf edc2 abbe 5e2a 1ebf 7883 2cbf
00000130: 3ae5 343e 5d2f 06be 7d91 8ebf c134 b8be
00000140: b89b 533c 5014 c43c 908d 86bd 0073 81bd
00000150: b0b1 c0bb abf1 a23d d588 a53d 9344 84bd
00000160: 2272 2ebd 7053 6ebc 3078 6dbc 0295 6c3d
00000170: bacc 4b3d 1605 52bd ac92 19bd 5701 86bd
00000180: 7c99 bf3c dd51 8dbd d2b2 053d 2656 6d3d
00000190: 5457 17bd 71b4 16bd 9035 82bc f951 45bd
000001a0: 28b2 a3bd 4414 4ebd 804b 28bb 511d 4abf
000001b0: 4dcf 5b3e 35be 0b3f 5a65 dcbe 88ff 08bf
000001c0: bab0 d1bd 697d 0c3f b0a7 853f 5a75 72be
000001d0: 1366 e63f 91fd bf3e 06c4 a43e aaeb 7dbe
000001e0: 2a5e 3d3f c3b4 f0bd 1b7c 893e f924 92bd
000001f0: 6300 3d3f 6678 6c3f 0f50 653d 7571 50bf
00000200: 1ab5 183f 417b 8bbf 8918 7cbf 8f32 97bf
00000210: 8be3 8ebf 5186 f53e d877 843c fe0b 5a3d
00000220: f605 5b3d 3faa 0bbd f873 a8bd 8c7d c7bc
00000230: 6a80 2a3d b8a9 493c 60ae 8ebc 6097 893b
00000240: 6e2a 183d 5e18 87bd e58e 843d f02e 833c
00000250: 2a37 6a3d fe56 013d 0e0a acbd 902f ffbb
00000260: aa3b 08bd 2c9c 8abc d6de 433d e880 3d3c
00000270: e024 c73b 1935 b33d 8859 bb3c a340 1bbd
00000280: 0051 94bb 4181 1bc0 d80e 823f c9bc a83e
00000290: 18fa c8be d0e8 b23f 9f63 eabe 00f6 f03e
000002a0: 12d7 f93d fae3 b13f 7f9a 35bd c1a9 0440
000002b0: 73e0 023f dec4 d43c 276e d5be f43a b1be
000002c0: 5f0a af3e 5412 8ebc 38e0 3b3f d21a 60bf
000002d0: 57f7 dd3f 4640 09bf 1567 5ebf c8bc f43f
000002e0: 7111 2940 5195 ff3e 61ac db3f 3fed be3f
000002f0: 62a6 273d 8f15 69bd 8223 99bd 10e2 4d3c
00000300: dd84 893d 3063 1fbd 7d47 2cbd 3a84 303d
00000310: 08cb 8cbd 007a 84ba b8a5 4a3c 726b 2a3d
00000320: b09f e9bc 344d 16bd 722e 12bd 4597 b2bd
00000330: 36f5 fdbc 0206 07bd 604e a8bb ef88 53bd
00000340: 9259 13bd 9a49 463d 8073 81bd 4263 a0bd
00000350: a28a 313d 3001 f83c 3256 523d 8b1e c3bf
00000360: 988f 2d3e 1766 5cbf 1446 72bf 15a7 cf3e
00000370: 72dc 213f b76f 8cbe cc1f c8bf ab7b cdbe
00000380: cb4b 953f a33c 003f c488 fe3c fe32 33be
00000390: 31b1 f5bd 37eb 693e 982e 423f bb3e 98be
000003a0: 1960 76bf c962 1dbf c182 38bd 9367 99bd
000003b0: 10c0 443f 1837 943e cadf 4fbf 383b a9bf
000003c0: 89d9 8bbc e67f f1be 00c0 b03c 0037 a83b
000003d0: 50a4 c93b eb57 a13d ce4d 37bd 562e 5dbd
000003e0: 5ab6 3abd b010 c93b c140 85bd ced0 013d
000003f0: 3e91 193d 1a2e 75bd f5e0 813d 7ca7 803c
0.66708976 0.6163448 0.26809847 -0.5448351 -0.70054793 -0.28917506 -0.6901587 -0.88902175
0.60534763 0.8145281 0.28463694 0.2744674 -1.787375 -0.07290091 -0.22622013 -0.74940807
-1.6730652 -0.51376736 -0.16946165 -0.49512872 1.35815 -0.30875722 -0.83983105 0.73712033
1.0154648 -0.2439653 0.031585045 0.035838507 0.065269835 0.01686252 0.06797183 -0.042763393
0.048640378 -0.06952442 -0.049187373 -0.07550836 0.08225285 -0.03843509 0.018253073 -0.039936963
-0.01646471 -0.0034029335 -0.06226356 0.073106416 -0.0834083 0.010765292 -0.06993322 -0.07868917
0.08004721 0.07527358 0.04982931 -0.07022421 -0.030780464 1.4866402 0.99957305 -0.94274896
-0.957695 -0.10021013 0.6421844 -0.69933414 -0.07073855 0.0060449946 -1.6481298 -0.8039195
-1.7878573 -0.49036214 -0.27012652 1.1094779 -0.4214517 -0.5163388 1.437879 0.6685179
-0.9846529 -0.33547154 -0.617834 -0.67388105 0.17665568 -0.13104005 -1.113815 -0.35977748
0.012915544 0.023935467 -0.0656997 -0.06320763 -0.005880557 0.07956251 0.08082739 -0.06458392
-0.042589314 -0.01454626 -0.014493987 0.057759292 0.04975579 -0.05127438 -0.037493393 -0.06543224
0.023388617 -0.0690038 0.03264124 0.057943486 -0.036948517 -0.036793176 -0.015894681 -0.04817388
-0.07992965 -0.050312296 -0.0025679767 -0.78950983 0.21465798 0.5458711 -0.43046075 -0.5351491
-0.10238786 0.5487886 1.0441799 -0.23677579 1.79999 0.37498143 0.32180804 -0.2479693
0.7397181 -0.117532276 0.26852497 -0.07135958 0.73828715 0.92371213 0.055984553 -0.8142312
0.5965134 -1.0896989 -0.9847494 -1.1812304 -1.1163191 0.47954038 0.016170427 0.053234093
0.05347248 -0.034097906 -0.08225244 -0.024351858 0.04162637 0.0123085305 -0.017417133 0.0041989535
0.03714984 -0.065964445 0.064725675 0.016013592 0.057181515 0.031577103 -0.08400355 -0.0077876523
-0.033260025 -0.016920172 0.047819935 0.011566378 0.006077394 0.08750362 0.02286984 -0.03790344
-0.0045262575 -2.429764 1.016078 0.32956532 -0.39253306 1.3977299 -0.4577913 0.47062683
0.121992245 1.3897698 -0.044336792 2.072861 0.5112373 0.02597278 -0.41685602 -0.3461529
0.341876 -0.017342724 0.73389006 -0.87540925 1.7341107 -0.536137 -0.8687604 1.9120111
2.6416895 0.49918607 1.7161981 1.4916152 0.04093016 -0.056905326 -0.07477476 0.0125661045
0.06714795 -0.038912952 -0.042060364 0.04309485 -0.06874663 -0.001010716 0.012368612 0.041606374
-0.028518528 -0.03669472 -0.035688825 -0.087202586 -0.031000715 -0.032964714 -0.005136296 -0.051644262
-0.035974093 0.048410036 -0.06320858 -0.07831432 0.0433451 0.030274004 0.051351734 -1.5243696
0.16949308 -0.86093277 -0.9463818 0.4055716 0.63227 -0.27428982 -1.5634704 -0.40133414
1.1663755 0.50092524 0.031071074 -0.1749992 -0.11996687 0.22843634 0.75852346 -0.2973536
-0.96240383 -0.6147886 -0.04504657 -0.07490458 0.76855564 0.28948283 -0.8120085 -1.3221197
-0.017071502 -0.4716789 0.021575928 0.0051335096 0.006153621 0.07878097 -0.044751935 -0.053999268
-0.04558406 0.0061360225 -0.065064915 0.031693272 0.03749203 -0.05985842 0.06341735 0.015704863

rnn.weight_hh_l0 f4 [128, 128]
00000000: cfd4 3abe 828f 153d cc2d a53d 4f4e ee3d
00000010: 450d 31bd 94c3 5abe 62e7 3abc a969 033e
00000020: 80d3 84be 3ad0 cb3c bdff 083d b7ac a4bd
00000030: ec73 803d bced 543e 2358 733e d717 43be
00000040: 3845 c5bc 843c 4e3e 7f1b 263e abf8 1dbd
00000050: b159 81be 1aa6 4d3d 1e86 833e 39a4 17be
00000060: af17 07be e0b0 50be c6fb 373e 20a2 42be
00000070: 6518 a73d d823 8bbe 314c d53b 4036 993b
00000080: 401a 86bd 906c ae3d 1ef5 97bd 8e95 013d
00000090: a152 bebd 78e8 703e 5a49 dabd 8e45 b4bd
000000a0: f152 40be e15c 263d 68d8 c23d b675 003e
000000b0: 0773 853e 3976 b3bd d73d bc3d 1587 bdbd
000000c0: 4154 76be 9d7e 38bd ecf1 6ebe 8bf8 8dbe
000000d0: e641 143d eaeb 25bc 5261 b23c a1db 563c
000000e0: 109a f73c dd13 ae3d 6aeb 68bd a8df f93d
000000f0: 9026 bfbe 5918 a43e cbbf 10bd 2eaa 63bd
00000100: c7e2 19be 90c7 95bc 085c 193e a774 43be
00000110: 8c9f 81be 9873 32be 96c8 913d 14fe efbd
00000120: 3758 0bbe 25f4 8cbd 2cea 98bd b42f 3dbd
00000130: aa0a ed3c 2d44 703d 2692 1a3d 3044 7dbd
00000140: 8198 d5bd fd33 3d3e f6d6 e23d 3452 033e
00000150: da97 013c fe59 2ebb 6d8a 0f3e a3c2 873c
00000160: 8f7f e5bd 10f2 31bd 202e 9fbd a75b b5bd
00000170: 7dac 603e b5e4 2f3e 8111 3c3e d6d2 2dbe
00000180: 2973 6dbd 0e3e d43d 6930 703e e697 4fbe
00000190: 7e4d 09be 0a77 013e b706 3e3e 2447 3cbe
000001a0: 1ee5 08bd 3b69 c83c c003 58bc 23d2 a03d
000001b0: bc80 e53d 5117 74be 84cc 433e f19c adbd
000001c0: cda1 0d3d aa29 723e 4df8 743d 151d 3c3e
000001d0: e44c 77be 6845 723c 259c 67bc e755 7e3c
000001e0: 36d0 003d 3d5d 6cbd 49eb 2c3d 7cfc 813d
000001f0: 7bb3 273e 44bf 64bd 99af 203d 4f97 8f3e
00000200: 1c45 9c3b 47ee 8bbe 56be 9cbd 30b0 08bd
00000210: 655d 98bd e40e 6bbd 9645 cc3c 1fbc 853e
00000220: d07d a3bd b82c 9c3e 305c 3c3e 0345 003e
00000230: 2ed6 73be 65e0 d23b 4ce7 d93e 7550 fd3d
00000240: 844d 963d e327 bebe 543a d43d 9985 dcbd
00000250: 752a 82bd 1b02 b0be fb45 a8be 9513 9bbe
00000260: d9ed e03d d078 203e cfff 85bd 2412 7fbe
00000270: 1fdd 56bc c6b4 673e 6bfe da3d 965d 28bd
00000280: a4a4 92be d9d0 b7be fc87 e83b 7c90 293d
00000290: c481 fcbd 336e 823c 7cf3 05be 0b3e 7a3e
000002a0: 3936 c03b 72c0 9e3e 22f1 8bbd c003 06bd
000002b0: 9d33 cabe 8729 1e3e fbfc 9c3c ffb0 843e
000002c0: f359 ed3d e98d eb3d a76c c8bd 8761 493b
000002d0: 7f6d 973c aa5b 20be 3669 07be 8048 803e
000002e0: dc55 9e3d 78a0 78bd d090 343d 1182 30be
000002f0: 8496 013e 88fb 61be 45c7 03be 2267 0bbe
00000300: 108d a03c 1345 d53d f359 9f3d 831b 26be
00000310: c520 cd3e 201c 803e 0fe3 efbd 5cad 2ebe
00000320: c44c 66be c9e5 0cbe 2403 533e 3d72 f8be
00000330: c33c 373e 047a cbbd 9532 3c3e e3ad 6a3e
00000340: 9292 933e 3341 94bc bcf0 d23b 8e54 853e
00000350: 82bb f8bc e9c0 36be 1dbe e03c ae7b 5d3e
00000360: 0b41 20bd 3159 7f3d 1356 b3bd a50c 9c3d
00000370: 4f5c c8be 6354 f8bd 4372 613e 9a66 c7bd
00000380: f842 c23d 229d 77bd f158 7dbd a6c0 e6bc
00000390: 7c76 01be a31e eabd aa83 153f 07f6 27be
000003a0: cbb4 30be f41c c83d 9b32 3b3e c817 61bc
000003b0: 6f4e dc3d ddea c2be 775c 4d3e 58a9 c13d
000003c0: 32f6 573e fd5e 48bd 96a7 7e3d 5a78 45be
000003d0: 71e8 2f3e 183a d3bd 0a50 13bd fde8 34be
000003e0: e8d2 15be 9a5c 1abe e6e3 003e cf4d 133e
000003f0: 8fae 26be b46f c0be 77a4 9e3e a5dd 65be
-0.18245243 0.036513813 0.08065376 0.1163603 -0.043225545 -0.2136367 -0.011407705 0.12833275
-0.25942612 0.024879564 0.033447016 -0.08040755 0.0627211 0.20793813 0.2376409 -0.19052063
-0.024080858 0.20140272 0.16221426 -0.038567226 -0.25263742 0.050207235 0.2568826 -0.1480874
-0.13192628 -0.20379972 0.17967138 -0.19007158 0.0815895 -0.27175784 0.006509327 0.0046756566
-0.065479755 0.085168004 -0.07419799 0.031636767 -0.09293104 0.2352618 -0.10658522 -0.08802329
-0.1878164 0.04061592 0.095139325 0.12544903 0.2606432 -0.087627836 0.091914825 -0.092542805
-0.24055578 -0.045042623 -0.23334473 -0.27728686 0.03619566 -0.010127047 0.021774922 0.013113887
0.03022483 0.08499882 -0.056865133 0.12200862 -0.37334108 0.32049826 -0.035339158 -0.055582218
-0.15027915 -0.018283635 0.14976513 -0.19087468 -0.25317037 -0.17426908 0.07118337 -0.117183834
-0.1360787 -0.068825044 -0.0746654 -0.04618807 0.02893575 0.058658767 0.037737034 -0.061832607
-0.104294784 0.18476863 0.11076157 0.12824327 0.007909739 -0.0026603932 0.14017649 0.016572302
-0.112059705 -0.04344374 -0.077724695 -0.08855372 0.21940799 0.17177089 0.18366052 -0.16974959
-0.057971153 0.103633985 0.23455967 -0.20272788 -0.13408467 0.12643066 0.18557249 -0.18386513
-0.03342163 0.02446424 -0.013184488 0.078525804 0.11206195 -0.2383702 0.19120985 -0.084772
0.034578133 0.23648706 0.05980711 0.18370469 -0.24150425 0.014787056 -0.014136349 0.01552341
0.031448565 -0.057706106 0.042216573 0.06346986 0.1637706 -0.055846468 0.039229963 0.28045127
0.0047689807 -0.2733023 -0.07653491 -0.03337115 -0.074396886 -0.057387248 0.024935525 0.26120088
-0.07982981 0.30502868 0.18394542 0.12526326 -0.23812172 0.0064354413 0.42559278 0.123688616
0.07339004 -0.37139806 0.10362688 -0.10767669 -0.06355754 -0.34376606 -0.3286589 -0.30288377
0.10982866 0.15671086 -0.06542932 -0.24909264 -0.013114243 0.22627553 0.106930576 -0.041104876
-0.28641236 -0.35901526 0.0070962887 0.041397557 -0.12329438 0.015921688 -0.13081163 0.2443773
0.005865839 0.310062 -0.06833102 -0.03271842 -0.39492503 0.15445529 0.0191636 0.25916287
0.11589422 0.115016766 -0.09786349 0.0030728297 0.018484829 -0.15659967 -0.13223729 0.25055313
0.0773122 -0.06069991 0.044083416 -0.17237116 0.12655073 -0.22068608 -0.12868984 -0.13613561
0.019598514 0.104135655 0.07780828 -0.16221432 0.40064064 0.25021458 -0.1171323 -0.17058319
-0.22490221 -0.13759531 0.20606667 -0.48524657 0.17894273 -0.09935382 0.1837867 0.22917895
0.28822762 -0.018097496 0.006437389 0.26041073 -0.030362848 -0.17847027 0.027434403 0.21629211
-0.03912453 0.06234092 -0.08756652 0.07619599 -0.39132926 -0.121254705 0.22016244 -0.097363666
0.094854295 -0.060452588 -0.0618524 -0.028168034 -0.12642854 -0.11431625 0.5840403 -0.16402446
-0.17256467 0.09771147 0.18281023 -0.01373858 0.107571475 -0.3806981 0.20054804 0.09456128
0.2109001 -0.048918713 0.06217154 -0.19284192 0.17178513 -0.10313815 -0.035965003 -0.17667003
-0.14631236 -0.15074387 0.12586936 0.1438515 -0.16277526 -0.37585223 0.30984852 -0.22447832

rnn.bias_ih_l0 f4 [128]
00000000: 561d 6ebe be1f 09bf 55cc e53d 221c 1d3f
00000010: 8612 ca3d db02 7d3d e257 42bb f6be cd3a
00000020: bd84 20be 6582 573e 8a85 343e f261 d43c
00000030: 7cbd b7be 1f75 52be 57e1 643d e28c edbd
00000040: 1d8a 983d 2ef9 53bb 6953 593e 4331 5bbe
00000050: 0129 113d d553 b4bb c142 063d 3e7f c53d
00000060: 19c2 33bc 1610 32bd 96c4 29be 5d6a b8bd
00000070: 5209 593c aebe 4a3e 8f4e e0bd fffb 53bd
00000080: 2a74 f93d 14c4 a73d 668f 4d3e e26c 7f3d
00000090: 5f2a 10bc 5177 b1be 7f87 293e 458d 973d
000000a0: f677 03be e413 97bd 84c7 573d a1b0 09be
000000b0: 2b20 a03d 41c9 343d dd85 723d 3d88 86be
000000c0: 0933 b4bd 983f cebd 0e73 443e 9e81 23be
000000d0: 7e75 14be e6b1 1dbe a710 043d 1331 ddbc
000000e0: 716f 34be 0418 d3b9 4dda 40bd 05cd 72bc
000000f0: 9b3b e2bd 9424 c8bd a99a d1bc c765 e4bd
00000100: 8e87 bbbc dcd1 753d e18d 83be 1da2 863d
00000110: 1fce 0c3e b6ab 0a3e f5aa 193a 1c2e 153d
00000120: 56f7 a1be 5b73 14be ffb1 943d a1b8 123e
00000130: 26aa 1dbd 1bca 77bd 7995 b2bd a943 7dbe
00000140: d247 71bd 06a6 303b 6c94 6b3e 689e d1bd
00000150: 5639 93bc 537c ccbd 1e23 8e3d 2960 21be
00000160: 844c 173e 45c2 513d 9a82 993e 4699 37be
00000170: 089e aa3d 8be6 51be bae6 bd3d 963f fe3d
00000180: 1527 35be d406 7e3e 5636 16be ac83 f43c
00000190: d130 06be b1d8 d63d 0bbb 013e 4ad6 b73d
000001a0: dcde ac3d fd51 f9bd 82c3 5ebe eac4 1cbd
000001b0: f792 303c 517c 603e 8bb4 ee3d c696 33be
000001c0: e355 8b3d b410 4c3d a29c 5a3e ab2a 9c3d
000001d0: a7fc b33d 253e 02be 4848 b33c 38ff 383c
000001e0: ee52 583d 5570 383e 3f9e f7bd 97b3 763c
000001f0: a4db 633d 03a6 46bd 267e 133f 8df9 21bd
-0.23253378 -0.5356406 0.11220614 0.6137105 0.09866814 0.0617703 -0.0029654433 0.001569717
-0.15675636 0.21045835 0.17629066 0.02592561 -0.35886753 -0.2055249 0.055878963 -0.11599137
0.07448218 -0.0032344568 0.21223225 -0.2140551 0.035439495 -0.0055031576 0.032778505 0.0964341
-0.010971569 -0.043472372 -0.16578898 -0.09004662 0.013246851 0.19799301 -0.10952484 -0.051753994
0.1218036 0.08191696 0.20074233 0.062359698 -0.008799165 -0.34661344 0.16555594 0.07399992
-0.1283873 -0.07376841 0.052680507 -0.13446285 0.078186356 0.044137243 0.059209693 -0.26275817
-0.08798797 -0.10070723 0.19184515 -0.15967414 -0.14497945 -0.15399894 0.032242443 -0.02700094
-0.17620637 -0.0004026295 -0.047083188 -0.014819388 -0.11046525 -0.09772602 -0.025586443 -0.11152225
-0.022891786 0.06001459 -0.25694183 0.065738894 0.13750504 0.13542065 0.00058619614 0.036420926
-0.31634015 -0.1449713 0.072605126 0.14328243 -0.038492344 -0.060495477 -0.08719916 -0.24732842
-0.058906384 0.0026954426 0.23005837 -0.10235292 -0.017971676 -0.099846505 0.06940292 -0.15759338
0.14775282 0.05121066 0.29982454 -0.17929563 0.08330923 -0.20498101 0.09272523 0.12414472
-0.1769069 0.24807292 -0.14669165 0.029847942 -0.1310456 0.10490549 0.12669007 0.08976419
0.084409446 -0.12173841 -0.21754268 -0.03827373 0.010777227 0.21922423 0.116555296 -0.17537984
0.06803491 0.049820617 0.21348813 0.07625326 0.08788424 -0.12719019 0.021885052 0.011291318
0.052813463 0.18011601 -0.1209073 0.015057466 0.055629387 -0.048498165 0.5761436 -0.03954463

rnn.bias_hh_l0 f4 [128]
00000000: 2ac2 c9bd b3f2 eebe f218 293e ea73 163f
00000010: f54b 8b3d d2b1 de3d 511f 0b3d 0105 123d
00000020: 9ce0 12be 26f0 1c3e 59e2 783e 925d b9bc
00000030: 1f16 afbe c89a 26be 716e 9d3d b789 00be
00000040: 636e 373e c8eb ce3d d139 293e bd7d 5cbe
00000050: 88a1 bfbc dbdf 013e fba6 debc b25c 173e
00000060: 9418 ccbd 55a6 86bd 847e d7bd 7f79 1dbc
00000070: 67a8 de3d 9d9a 7a3d d812 d1bd 0c45 89bd
00000080: d482 523e ea9d 9b3d 6eed 083e 2ac5 2c3d
00000090: 02a7 fa3d 4f04 39be 7a9e 3a3e b8a6 9b3d
000000a0: d83f 34be 467c 993c f87f 623c b965 9fbb
000000b0: 650c 71bc a35a fe3d 3169 f63d fe3c 77be
000000c0: 9059 48bd 4ae7 c1bc fdb4 813d 2de2 36be
000000d0: 1de8 17be 6e45 adbd 0bc2 4e3d bbff 66bc
000000e0: 91a8 0fbe 2fe1 24bd 1e36 313d 6cec 1dbd
000000f0: 6aef 2ab9 6f2a 78be e4fd a8bd bc02 d3bd
00000100: 56fb 883d 01a8 b73c 5809 95be 2003 5b3d
00000110: 4ddd 623c 11e5 363e e335 8abc 575c 91bd
00000120: 889e 76be 57da 0bbe 071b 79bd e91f 8d3d
00000130: 6108 9e3a e896 acbd 7cc5 9bbd 41a1 73be
00000140: c31b 453d a1da 913d e748 593e accf 0bbd
00000150: 7be1 d1bd 147a 05be f787 003d 3890 92bd
00000160: 4dfb 203e 6ce5 3f3d e56e 8d3e 1705 d2bd
00000170: 3513 dd3d 649c 52be 9043 213e 92e4 883d
00000180: b673 54bd 653e 5b3e 9ef5 2cbe e858 223e
00000190: 1a56 9ebd 1de1 453d c4a3 713d 4bb1 083e
000001a0: 5c1e 93bc 92d6 f6bd 6965 03be 83b4 fb3c
000001b0: 586e c6bd 1e35 fa3d 8873 a33d 6663 f3bd
000001c0: 1de1 293d b067 293e 9afd 043e d5c6 a83c
000001d0: a522 813c ce75 26be 0bab 8fbc 926f 493d
000001e0: 5c16 4f3e dfd5 0f3e 5635 533d 3871 3d3d
000001f0: c4ea a9bb 14d8 39bd 6c57 f73e c5ed 243d
-0.09851487 -0.4666954 0.16513422 0.5877062 0.06801597 0.1087376 0.033965413 0.035649303
-0.14343494 0.15325984 0.24305095 -0.022627626 -0.34196565 -0.16269982 0.07687081 -0.12552534
0.17913203 0.101035655 0.16525961 -0.2153234 -0.023392454 0.1268305 -0.027179232 0.14781454
-0.099656254 -0.06574694 -0.10522178 -0.009611486 0.10871964 0.061182607 -0.10208672 -0.06702623
0.2055772 0.07598479 0.13371822 0.042180218 0.122388855 -0.1806805 0.18224517 0.076001585
-0.1760248 0.018736016 0.013824455 -0.004864421 -0.014712428 0.12419631 0.120317824 -0.2414436
-0.04891354 -0.023669858 0.06333349 -0.17859717 -0.14834638 -0.08460508 0.050478023 -0.014099057
-0.14029147 -0.040253814 0.0432645 -0.038555548 -0.00016301652 -0.24234937 -0.08251551 -0.10303256
0.066885635 0.022418978 -0.2910869 0.053469777 0.0138467075 0.1786082 -0.016871398 -0.070976906
-0.24083912 -0.13657509 -0.06081679 0.06890852 0.001205694 -0.084272206 -0.076060265 -0.23791982
0.04812218 0.07121778 0.21219216 -0.0341336 -0.10248085 -0.1303485 0.031379666 -0.07156414
0.15720864 0.046849653 0.27623668 -0.10254877 0.10794679 -0.20567471 0.1574843 0.06684221
-0.051868163 0.2141052 -0.1689057 0.15854228 -0.07731266 0.048310388 0.05899407 0.13348882
-0.017958812 -0.12052645 -0.12831654 0.030725723 -0.09689015 0.122171625 0.0798102 -0.11884193
0.04147445 0.1654346 0.12987366 0.020602623 0.01576359 -0.16255876 -0.017537614 0.049178667
0.20223373 0.14046429 0.051564537 0.046250552 -0.005185457 -0.045372084 0.48308885 0.040265817

fc.weight f4 [54, 128]
00000000: 14d8 57be 1486 bcbc 34ca 4dbe 2caa 3e3f
00000010: 6a2d c4be f833 34be dee3 f83e 29d2 85be
00000020: 053e 773b b135 433f d40a 33be e7d4 66bd
00000030: 3b84 bfbe fb33 eb3d 353b 773f 4271 683e
00000040: ea59 9abd 9d93 3a3e 74fb 803e 4834 df3c
00000050: 8237 3fbe cd18 b43d 54f7 ccbd 91e5 843e
00000060: 0236 4abd 2ecd e33d 2070 6dbe d1b5 66be
00000070: 1941 013f 4dbb 07be b851 193e 2bdb b9be
00000080: d437 073f ba30 c7be dc92 f7bd 4591 c13e
00000090: 4592 9e3c 2726 b0bc 55c9 bc3d 5f1d 353e
000000a0: 8906 71be 1caa 3cbe 9688 f03d 5956 2dbd
000000b0: bfef d83e 5919 0c3f 03f0 22be 3120 1f3e
000000c0: 5f28 b8be 72a6 3abe 6fc5 07bf 6602 92be
000000d0: 8dda 543e 2590 d8bd 83d6 95be 4aa0 25be
000000e0: 7381 99be 7dff 99be f715 f1bd 2524 913e
000000f0: 25ad 963e 73da 6bbe 9338 cfbc 2f42 0e3e
00000100: 60ed 8e3e cf11 9ebe a998 fbbe 93a1 87be
00000110: 7fee a43e 4caa 53bf 6d6f 063b 9cac a0be
00000120: 716e 6bbe 7b54 46be 8954 f4bd 57e6 8d3e
00000130: 0fd3 d93e 4b93 1dbc 63f3 923e da31 10bf
00000140: acdb a23d 07c1 aebe dc37 423f dd9f 4bbe
00000150: e51b d9be ed81 3abe a6dc 6b3e 7e61 bbbe
00000160: fa22 573f 4c3d 9c3e 0783 0e3f e1be 99be
00000170: e62f b83e 8f82 9fbe 834f c53e 1f06 f63e
00000180: 7356 f93e 2609 753e aaa6 cfbd 75a5 193e
00000190: 5323 c83e 4ee1 8cbd b1aa 683e 8a42 bbbe
000001a0: 62fa 203e cbbd cb3e 5485 c2be f6c0 de3e
000001b0: 4bf6 4bbe 6fb3 a1be ab21 9fbd 65e7 4fbd
000001c0: b2b5 9a3e 30f6 a73e 5153 73be 98a9 d2bd
000001d0: abdc a53e e96e ac3e 862e a83d eea5 eb3e
000001e0: 287e c43d 583b cfbd 09d4 e23d 0689 333e
000001f0: da77 d8be 74bd 173e 28c3 0d3a 253a a43e
00000200: e7bc 893e 82a4 f33e e32a 1e3c 35da 65bf
00000210: 6ee9 673d 974b 75be 2320 f3be 3415 d6be
00000220: a12c c4be 0b3d d1be 956b 3abd 01a8 003e
00000230: 8b22 0dbd 0599 83bd 9688 49be 2d29 033f
00000240: db79 0abd cb96 953c bfcd b43c 58d3 bcbe
00000250: 7f51 94bd 4e62 f53e 9418 afbe 80f0 163e
00000260: 81bb e2bc 03aa c0be 1d2c 65bd e766 3b3e
00000270: 970e f03e 20ea d03d 5818 1bbe 8eb7 093f
00000280: 978c 36bd 4b34 3fbe 6832 953e ed0b 96be
00000290: f9d9 30be f4d6 b33e 342c 843d 7fd6 86be
000002a0: e21c 12be 09f1 083f c070 b93e 865b a4bd
000002b0: a884 7abe 7cbe 90be 4ab8 2b3e d56e 073f
000002c0: 87d1 013e 61e5 9cbd 4565 233f d056 853c
000002d0: 48fb 033e d46b 2fbe 4893 343e 17e1 1bbe
000002e0: 3ea1 803e 5ef6 cc3e b83e 2c3f aa4f 693e
000002f0: 59ba c63d 62b4 49be 91a0 203e 55d1 3f3d
00000300: 0ac0 6a3d fdd1 c7bd 044c 81bd 8936 6f3e
00000310: f0b1 18be ab6f 6e3e 7e0a 20be f343 423f
00000320: d877 5cbd 62ee 24be b429 85be 6709 04bd
00000330: 0085 1c3e a576 84be 8ec8 11be 50ac 133f
00000340: f1b0 02bf feb0 8dbe f6bd ecba 977c 233e
00000350: 6377 8abe 545e ea3d 505e 7cbe 7c20 adbe
00000360: bd2e 8cbe 9db9 e0be 7fc4 aa3e 671e 483e
00000370: 9891 fbbe e7b4 023e edcb bbbc 5b39 9ebd
00000380: b5a4 c4be b7ed a93e 87cc 863c d672 71be
00000390: ce7a 26be 07e5 cebd 1f6c afbc ae70 99bd
000003a0: cea8 c63b bcbd c9bd 9a87 1f3e fbe9 363e
000003b0: f277 703c 0cc8 82bd 218b b33d 6491 413d
000003c0: 601d acbe 7c32 5b3e 47a3 383e ffb8 4d3e
000003d0: 339b ab3e 52f0 acbe fb7a ad3e 46bb fb3e
000003e0: 33c3 9cbe 6e2a 0b3f e8b8 f23d ec33 303e
000003f0: 102c a9be 110e bc3b 58c1 d4bd ed19 a23e
-0.21078521 -0.023013152 -0.20096666 0.7447841 -0.38315898 -0.1759795 0.4861135 -0.26136902
0.0037726176 0.762538 -0.174846 -0.056355383 -0.3740557 0.11484524 0.9657472 0.22699454
-0.07536681 0.18220372 0.25191844 0.02724661 -0.18673518 0.08793793 -0.100081116 0.25956395
-0.049367912 0.11123119 -0.23187304 -0.22530295 0.50489956 -0.13255043 0.1497258 -0.36300024
0.5281956 -0.38904363 -0.12088558 0.37806144 0.019356856 -0.021502567 0.092180885 0.17686985
-0.23537649 -0.18424267 0.11744802 -0.042318676 0.42370412 0.5472618 -0.1591187 0.15539624
-0.359683 -0.18227556 -0.53035635 -0.28517455 0.20786496 -0.105743684 -0.29265222 -0.16174427
-0.29981574 -0.30077735 -0.117717676 0.2834789 0.29428974 -0.2303255 -0.025295531 0.13892435
0.27915478 -0.30872962 -0.49139908 -0.2649046 0.32213208 -0.8268173 0.0020513192 -0.3138169
-0.22991349 -0.19368164 -0.11930186 0.27714798 0.42543837 -0.009617637 0.28701314 -0.5632607
0.07952055 -0.34131643 0.75866485 -0.19885202 -0.42404094 -0.18213625 0.2303339 -0.36597818
0.84037745 0.30515516 0.5566868 -0.30028442 0.35974044 -0.31154296 0.38537225 0.48051545
0.48698768 0.23929271 -0.101392105 0.15004523 0.3908945 -0.06878911 0.22721364 -0.36574203
0.15720513 0.39793238 -0.37992346 0.43506593 -0.19918172 -0.3158221 -0.077700935 -0.050757784
0.30216748 0.32805014 -0.23762251 -0.10286254 0.3239492 0.33678368 0.08211999 0.46025032
0.09594375 -0.10118741 0.11075599 0.17532739 -0.4227894 0.14818364 0.00054078037 0.3207561
0.26901934 0.47586447 0.00965378 -0.8978608 0.0566191 -0.23954616 -0.47485456 -0.41813052
-0.383153 -0.40866885 -0.045512754 0.12564088 -0.03445677 -0.064256705 -0.1968101 0.51234704
-0.033807617 0.01826038 0.022070764 -0.36879992 -0.07242107 0.47926563 -0.3419844 0.14740181
-0.0276773 -0.3762971 -0.055950273 0.18300973 0.4688613 0.10200906 -0.15146005 0.5379571
-0.04456767 -0.18672292 0.2914002 -0.29305974 -0.1727065 0.35124934 0.064537436 -0.26335523
-0.1426883 0.5349279 0.36218834 -0.08025269 -0.24464667 -0.28270328 0.1676952 0.5290349
0.12677585 -0.07660938 0.638264 0.016276747 0.12888825 -0.17130977 0.17634308 -0.15222584
0.25123018 0.40031713 0.672832 0.22784296 0.09703512 -0.19697717 0.15686251 0.046830494
0.05731205 -0.09756849 -0.06313327 0.23360647 -0.14911628 0.23284785 -0.15629002 0.7588493
-0.05382523 -0.16106561 -0.2600838 -0.03223553 0.1528511 -0.2587177 -0.14236662 0.57684803
-0.5105124 -0.27674097 -0.0018061984 0.15965496 -0.2704421 0.11443773 -0.24645352 -0.33813846
-0.27379408 -0.43891612 0.3335304 0.19542848 -0.49134517 0.12764321 -0.022924388 -0.077257834
-0.38406911 0.33189175 0.016454948 -0.23578963 -0.16257784 -0.10102277 -0.02141386 -0.07492195
0.0060626036 -0.09850642 0.15579072 0.17862694 0.014677035 -0.06385812 0.08766771 0.047257796
-0.3361616 0.21405977 0.18031035 0.20090102 0.33516845 -0.337771 0.3388289 0.49166316
-0.30617675 0.5436162 0.11851674 0.17207307 -0.3304143 0.0057389815 -0.1038844 0.31660405

fc.bias f4 [54]
00000000: 26aa 673e 1c82 20be a82b c5bd 1aea cbbd
00000010: 16e5 343e b200 34be 2b87 1b3e 9a46 a33d
00000020: 58ac 433e e66d 2cbe 080b 643d 782a 273e
00000030: 744f 873d 0d51 4cbd 8857 a63e 61c1 16bd
00000040: 15a2 61be 3c4b c13c b8cb 2e3e 610b cdbb
00000050: c79c 0abd 994d 2e3e e070 29be d091 c5be
00000060: bd0b a7bd 1fd7 babd c4ca 11bf e7f4 0ebf
00000070: c1f6 16bf 566d 24bf ad79 1ebf e3f2 25bf
00000080: 0e17 21bf d5b7 00bf 9923 14bf 93a5 efbe
00000090: 82d6 03bf ae56 0fbf 82b0 ecbe 28b7 0ebf
000000a0: 6207 12bf a0ea f1be b776 2bbf 5969 10bf
000000b0: 0e2f 08bf 7ef4 0dbf d9f2 11bf d1cc 12bf
000000c0: 4c12 e4be d4e5 0cbf 5ac4 1fbf 382e 0abf
000000d0: bdff 24bf 3e5e 69bc
0.226235 -0.15674633 -0.096274674 -0.09956761 0.17665514 -0.1757839 0.15188281 0.079724506
0.19108713 -0.16838798 0.055674583 0.16324794 0.06606951 -0.049881984 0.32488656 -0.036805514
-0.22034486 0.023595445 0.170699 -0.00625746 -0.03384092 0.17021789 -0.16546965 -0.3858781
-0.08156536 -0.09123062 -0.5695002 -0.5584244 -0.58970267 -0.64229333 -0.6190441 -0.6482374
-0.62925804 -0.50280505 -0.5786682 -0.4680601 -0.5149919 -0.5599164 -0.46228415 -0.55748224
-0.57042515 -0.47249317 -0.6697802 -0.5641075 -0.531968 -0.5545119 -0.5701118 -0.57343775
-0.4454521 -0.5503819 -0.62408984 -0.53976774 -0.64452726 -0.0142436605
