神经网络作业/A7/models/default_model/name_generation_rnn_AT_100epoch.pth (torch, 123988 bytes, 6 tensors)

rnn.weight_ih_l0 f4 [128, 54]
0	0x3f26a606	0.6509708
1	0x3f438d5a	0.7638756
2	0x3ed8786f	0.42279384
3	0xbf45f71f	-0.773302
4	0xbf5cb025	-0.86206275
5	0xbe3e0f64	-0.18560559
6	0xbf68d186	-0.9094471
7	0xbf786867	-0.97034305
8	0x3f3950da	0.72388995
9	0x3f826ec3	1.0190052
10	0x3ee889a8	0.45417523
11	0x3f0dfd7d	0.5546492
12	0xc009a96d	-2.150966
13	0xbd81a97b	-0.06331154
14	0xbe8dbe56	-0.27684277
15	0xbf56db3a	-0.83928263
16	0xc01e032c	-2.4689436
17	0xbf0bb56a	-0.5457369
18	0xbd2d27fc	-0.04227446
19	0xbf189032	-0.59595025
20	0x3faa4ac6	1.3304069
21	0xbefa0462	-0.4883147
22	0xbf8b48d5	-1.0881602
23	0x3f5227a8	0.8209176
24	0x3f8c02a2	1.0938303
25	0xbf14b4b1	-0.58088213
26	0x3d015f52	0.031585045
27	0x3d12cb66	0.035838507
28	0x3d85ac31	0.065269835
29	0x3c8a2344	0.01686252
30	0x3d8b34d1	0.06797183
31	0xbd2f28ab	-0.042763393
32	0x3d473b22	0.048640378
33	0xbd8e62d2	-0.06952442
34	0xbd4978b3	-0.049187373
35	0xbd9aa421	-0.07550836
36	0x3da8742f	0.08225285
37	0xbd1d6e1d	-0.03843509
38	0x3c958778	0.018253073
39	0xbd2394f1	-0.039936963
40	0xbc86e100	-0.01646471
41	0xbb5f03c0	-0.0034029335
42	0xbd7f0813	-0.06226356
43	0x3d95b8d1	0.073106416
44	0xbdaad1f9	-0.0834083
45	0x3c3060e8	0.010765292
46	0xbd8f3926	-0.06993322
47	0xbda127ca	-0.07868917
48	0x3da3efcb	0.08004721
49	0x3d9a2909	0.07527358
50	0x3d4c19d2	0.04982931
51	0xbd8fd1b6	-0.07022421
52	0xbcfc2750	-0.030780464
53	0x3ffb29b7	1.9622105
54	0x3f8ba3f9	1.0909415
55	0xbf9eb335	-1.239844
56	0xbf99737c	-1.1988368
57	0xbe52e9e5	-0.20597036
58	0x3f68ee15	0.90988284
59	0xbf6b8c8b	-0.92011327
60	0xbdb0b07a	-0.0862741
61	0xbe25b161	-0.16180946
62	0xc000abc4	-2.0104837
63	0xbf5901f0	-0.8476858
64	0xc00217a7	-2.0326936
65	0xbef1e002	-0.47241217
66	0xbf029fe8	-0.5102525
67	0x3fb92fa8	1.4467669
68	0xbec4c217	-0.3842933
69	0xbf665b69	-0.8998323
70	0x3fb9095a	1.4455979
71	0x3f2545ba	0.6455952
72	0xbf722d9a	-0.9460083
73	0xbed7e1c9	-0.42164448
74	0xbf4ec9c8	-0.80776644
75	0xbf131136	-0.57448137
76	0x3df9bd4e	0.1219431
77	0xbde7a38a	-0.113104895
78	0xbfad1dc9	-1.3524715
79	0xbe8ab04d	-0.27087632
80	0x3c539bb8	0.012915544
81	0x3cc41450	0.023935467
82	0xbd868d90	-0.0656997
83	0xbd817300	-0.06320763
84	0xbbc0b1b0	-0.005880557
85	0x3da2f1ab	0.07956251
86	0x3da588d5	0.08082739
87	0xbd844493	-0.06458392
88	0xbd2e7222	-0.042589314
89	0xbc6e5370	-0.01454626
90	0xbc6d7830	-0.014493987
91	0x3d6c9502	0.057759292
92	0x3d4bccba	0.04975579
93	0xbd520516	-0.05127438
94	0xbd1992ac	-0.037493393
95	0xbd860157	-0.06543224
96	0x3cbf997c	0.023388617
97	0xbd8d51dd	-0.0690038
98	0x3d05b2d2	0.03264124
99	0x3d6d5626	0.057943486
100	0xbd175754	-0.036948517
101	0xbd16b471	-0.036793176
102	0xbc823590	-0.015894681
103	0xbd4551f9	-0.04817388
104	0xbda3b228	-0.07992965
105	0xbd4e1444	-0.050312296
106	0xbb284b80	-0.0025679767
107	0xbfa3a927	-1.2785996
108	0x3e9cc51f	0.3061914
109	0x3f407b6b	0.7518832
110	0xbf0dc790	-0.55382633
111	0xbef5fc4f	-0.4804406
112	0xbe93216c	-0.28736436
113	0x3eda7a1b	0.42671284
114	0x3f9f65c5	1.2452933
115	0xbe84e3a1	-0.25954917
116	0x4005aa84	2.0885324
117	0x3f12ca97	0.5734038
118	0x3e90d2ac	0.2828573
119	0xbe6787b0	-0.22610354
120	0x3f528452	0.82233155
121	0xbe167193	-0.14691763
122	0x3ee1a2cb	0.44069514
123	0x3dba9634	0.0911068
124	0x3f92476f	1.142805
125	0x3f80040c	1.0001235
126	0x3ba68938	0.0050822757
127	0xbf77631f	-0.9663562
128	0x3f130d66	0.5744232
129	0xbfbc59f6	-1.4714954
130	0xbfa4a766	-1.2863586
131	0xbff45cb6	-1.9090793
132	0xbfd7c47d	-1.6856838
133	0x3f8f0324	1.1172833
134	0x3c8477d8	0.016170427
135	0x3d5a0bfe	0.053234093
136	0x3d5b05f6	0.05347248
137	0xbd0baa3f	-0.034097906
138	0xbda873f8	-0.08225244
139	0xbcc77d8c	-0.024351858
140	0x3d2a806a	0.04162637
141	0x3c49a9b8	0.0123085305
142	0xbc8eae60	-0.017417133
143	0x3b899760	0.0041989535
144	0x3d182a6e	0.03714984
145	0xbd87185e	-0.065964445
146	0x3d848ee5	0.064725675
147	0x3c832ef0	0.016013592
148	0x3d6a372a	0.057181515
149	0x3d0156fe	0.031577103
150	0xbdac0a0e	-0.08400355
151	0xbbff2f90	-0.0077876523
152	0xbd083baa	-0.033260025
153	0xbc8a9c2c	-0.016920172
154	0x3d43ded6	0.047819935
155	0x3c3d80e8	0.011566378
156	0x3bc724e0	0.006077394
157	0x3db33519	0.08750362
158	0x3cbb5988	0.02286984
159	0xbd1b40a3	-0.03790344
160	0xbb945100	-0.0045262575
161	0xc04bdaf4	-3.1852388
162	0x3fb2253f	1.3917617
163	0x3e99f9ee	0.30073494
164	0xbecb9276	-0.39760178
165	0x3fb72499	1.4308044
166	0xbf143923	-0.57899684
167	0x3efa9ad0	0.48946238
168	0x3ecb20f6	0.39673585
169	0x3faf68b0	1.3703823
170	0xbe8898f5	-0.26679197
171	0x40102083	2.2519844
172	0x3f0421ea	0.5161425
173	0xbe0b9823	-0.13632254
174	0xbecd9418	-0.4015205
175	0xbe94007e	-0.28906626
176	0x3e91b012	0.28454643
177	0xbcc9337b	-0.02456068
178	0x3f32b408	0.69805956
179	0xbf90b825	-1.1306196
180	0x4019849c	2.3987188
181	0xbf2d2ec0	-0.6764946
182	0xbf5096df	-0.8148021
183	0x4013c7d2	2.309071
184	0x406f2147	3.736406
185	0x3f3ef692	0.74594986
186	0x3fffe525	1.9991804
187	0x4016c619	2.355841
188	0x3d27a662	0.04093016
189	0xbd69158f	-0.056905326
190	0xbd992382	-0.07477476
191	0x3c4de210	0.0125661045
192	0x3d8984dd	0.06714795
193	0xbd1f6330	-0.038912952
194	0xbd2c477d	-0.042060364
195	0x3d30843a	0.04309485
196	0xbd8ccb08	-0.06874663
197	0xba847a00	-0.001010716
198	0x3c4aa5b8	0.012368612
199	0x3d2a6b72	0.041606374
200	0xbce99fb0	-0.028518528
201	0xbd164d34	-0.03669472
202	0xbd122e72	-0.035688825
203	0xbdb29745	-0.087202586
204	0xbcfdf536	-0.031000715
205	0xbd070602	-0.032964714
206	0xbba84e60	-0.005136296
207	0xbd5388ef	-0.051644262
208	0xbd135992	-0.035974093
209	0x3d46499a	0.048410036
210	0xbd817380	-0.06320858
211	0xbda06342	-0.07831432
212	0x3d318aa2	0.0433451
213	0x3cf80130	0.030274004
214	0x3d525632	0.051351734
215	0xc00f5902	-2.2398076
216	0x3e085dfe	0.13317105
217	0xbfaaff11	-1.335909
218	0xbf945e60	-1.1591301
219	0x3f0bc674	0.5459969
220	0x3f36fe55	0.7148183
221	0xbe2b6634	-0.16738206
222	0xc0023ff6	-2.0351539
223	0xbf064af4	-0.5245812
224	0x3fac1832	1.3444884
225	0x3f0c03f7	0.5469355
226	0x3e0d05e2	0.13771775
227	0xbda5638f	-0.0807563
228	0xbe0aff15	-0.13573869
229	0x3eebc2ed	0.46047154
230	0x3f3d6ec1	0.7399712
231	0xbeb24a22	-0.34822184
232	0xbf9d7e37	-1.2304143
233	0xbf1af7fb	-0.6053464
234	0xbbc8856e	-0.0061194217
235	0xbe8d6e32	-0.27623135
236	0x3f91068f	1.1330127
237	0x3f197c85	0.59955627
238	0xbf7fbd35	-0.9989808
239	0xbfade20e	-1.3584611
240	0xbed2c5fb	-0.41166672
241	0xbecd9120	-0.40149784
242	0x3cb0c000	0.021575928
243	0x3ba83700	0.0051335096
244	0x3bc9a450	0.006153621
245	0x3da157eb	0.07878097
246	0xbd374dce	-0.044751935
247	0xbd5d2e56	-0.053999268
248	0xbd3ab65a	-0.04558406
249	0x3bc910b0	0.0061360225
250	0xbd8540c1	-0.065064915
251	0x3d01d0ce	0.031693272
252	0x3d19913e	0.03749203
253	0xbd752e1a	-0.05985842
254	0x3d81e0f5	0.06341735
255	0x3c80a77c	0.015704863

rnn.weight_hh_l0 f4 [128, 128]
0	0xbdad1e60	-0.08453059
1	0x3cb6c833	0.02231226
2	0x3e0144af	0.12623857
3	0x3e1699ac	0.14707059
4	0xbdacf401	-0.084449776
5	0xbe29b32f	-0.1657226
6	0xbc9ca24f	-0.019120364
7	0x3e275c5f	0.1634383
8	0xbe8c8d46	-0.27451533
9	0xbc355c98	-0.011069439
10	0xba95e4c4	-0.0011435975
11	0xbda4a086	-0.0803843
12	0x3e2dca45	0.16971691
13	0x3e80efe9	0.25183037
14	0x3ec4a702	0.38408667
15	0xbe75ada8	-0.23992026
16	0x3cb11245	0.021615157
17	0x3e502fdb	0.20330755
18	0x3e1be3bd	0.15223594
19	0xbd6a75f0	-0.05724138
20	0xbe9d297e	-0.3069572
21	0x3d6f8819	0.058479402
22	0x3eaf180a	0.34198028
23	0xbe2121c3	-0.15735535
24	0xbe3eed72	-0.18645266
25	0xbe5b8833	-0.21438675
26	0x3e1f71e1	0.15570785
27	0xbe7e671b	-0.24844019
28	0x3db1f8dd	0.08690045
29	0xbe886518	-0.26639628
30	0xbd387dcf	-0.045041855
31	0xbc805d8e	-0.01566961
32	0x3c5e391b	0.01356342
33	0x3d3eda45	0.046594877
34	0xbdc75845	-0.09733633
35	0x3dc02370	0.09381759
36	0xbdf9e452	-0.12201752
37	0x3ea119d8	0.3146503
38	0xbe55d32e	-0.2088134
39	0xbdc37037	-0.09542888
40	0xbe3f680c	-0.18692034
41	0x3d200b97	0.039073553
42	0x3a9cb005	0.0011954313
43	0x3e303be7	0.17210351
44	0x3e437cf8	0.1909064
45	0x3a954962	0.0011389668
46	0x3e07c359	0.13258113
47	0xbdbb2e6c	-0.09139714
48	0xbe0c3c90	-0.13694978
49	0xbac599fd	-0.0015075799
50	0xbeb37814	-0.3505255
51	0xbeafb0e8	-0.34314656
52	0x3d691fe9	0.056915198
53	0xbd0041d0	-0.031312764
54	0x3da6ae34	0.08138695
55	0x3c233e39	0.0099635655
56	0xbc803893	-0.015651977
57	0x3e36a6b1	0.17837025
58	0xbdda01ae	-0.106448516
59	0x3e70c571	0.23512818
60	0xbee28cf7	-0.44248173
61	0x3ece7bda	0.40328866
62	0x3d9db427	0.07700377
63	0xbd9dcc9f	-0.07705044
64	0xbe2923ea	-0.16517606
65	0x3d68010a	0.056641616
66	0x3e683029	0.22674622
67	0xbe463be8	-0.1935879
68	0xbe9761ae	-0.2956671
69	0xbe5c7a7a	-0.21531096
70	0x3d8a3f6c	0.06750378
71	0xbdf333c9	-0.118751116
72	0xbe6939f8	-0.2277602
73	0xbd31cc17	-0.043407526
74	0xbe18bb0f	-0.14915107
75	0x3cd08c6d	0.025457585
76	0x3d973790	0.073836446
77	0x3e176e94	0.14788276
78	0x3d16fb6c	0.03686087
79	0xbd586fac	-0.052840874
80	0xbc8179bf	-0.015805123
81	0x3e72cf1e	0.23711821
82	0x3e393a07	0.18088542
83	0x3e0f79bd	0.14011283
84	0x3e1246be	0.14284799
85	0x3c38afd4	0.011272389
86	0x3e851204	0.25990307
87	0x3bc6f7ab	0.006072005
88	0xbdc43f1a	-0.09582348
89	0xbe14650d	-0.14491673
90	0xbe0cb7ca	-0.13741985
91	0xbe182f7a	-0.14861861
92	0x3e61989f	0.22030877
93	0x3e19a8de	0.15005824
94	0x3e65c743	0.22439294
95	0xbdd24dc3	-0.10268738
96	0xbd08c39b	-0.03338967
97	0x3dec3494	0.11533466
98	0x3e727836	0.2367867
99	0xbe27ea0a	-0.16397873
100	0xbe3c7de6	-0.18407401
101	0x3d6f902f	0.058487114
102	0x3e6dcc3b	0.23222439
103	0xbe55bba9	-0.20872368
104	0xbd428d2c	-0.047497913
105	0xbdb4d600	-0.0882988
106	0x3c67d412	0.014149683
107	0x3e1a72b4	0.15082818
108	0x3e64e308	0.2235223
109	0xbeaeec83	-0.3416482
110	0x3e426e1d	0.18987317
111	0xbd67a884	-0.056557193
112	0xbc2eb68f	-0.010663643
113	0x3e867bc7	0.2626631
114	0x3e6ab914	0.22922164
115	0x3e3ce624	0.18447167
116	0xbe8c0aa2	-0.27351862
117	0xbcabb960	-0.020962417
118	0x3c7f0742	0.015565695
119	0x3d024aa6	0.03180947
120	0xbbaa07eb	-0.005188932
121	0xbe0539e4	-0.13010365
122	0x3dae9e59	0.08526296
123	0x3e2a1d07	0.16612636
124	0x3e2bc677	0.16774927
125	0xbd43ef1e	-0.04783546
126	0x3ceb7bbe	0.028745528
127	0x3e90b02e	0.28259414
128	0xbd924c8a	-0.07143505
129	0xbea92181	-0.33033374
130	0xbe193747	-0.14962493
131	0xbd166a98	-0.03672275
132	0xbe1ca940	-0.15298939
133	0xbe011c13	-0.12608366
134	0xbe0230c3	-0.12713914
135	0x3e6c63b4	0.23084909
136	0xbdca14ae	-0.098672256
137	0x3eab495a	0.334544
138	0x3e82e015	0.25561586
139	0x3e5b1d6c	0.21397942
140	0xbec0f4b6	-0.376867
141	0x3c645ea1	0.013938577
142	0x3f12f370	0.57402706
143	0x3e4e6205	0.20154579
144	0x3db1119a	0.08645935
145	0xbeda06b1	-0.4258323
146	0x3dab7a1f	0.08372902
147	0xbe15ef0f	-0.14641975
148	0xbda4cb67	-0.080466084
149	0xbec2c807	-0.38043234
150	0xbee0b843	-0.4389058
151	0xbe9ffb7d	-0.31246558
152	0x3e16c8e0	0.14725065
153	0x3e3b96c2	0.18319228
154	0xbe00a713	-0.12563734
155	0xbe9bb165	-0.3040878
156	0xbcb1d950	-0.021710068
157	0x3e72493a	0.23660746
158	0x3e41d2be	0.18928048
159	0x3c1d4abc	0.009600338
160	0xbe9863e2	-0.29763705
161	0xbeba89a8	-0.36433148
162	0x3d547459	0.05186877
163	0x3e4516db	0.19247
164	0xbe283f8b	-0.1643049
165	0xbcfb002a	-0.030639727
166	0xbde49a49	-0.1116224
167	0x3e534f49	0.20635714
168	0x3c7c3af2	0.015394913
169	0x3eb5486e	0.35406822
170	0xbdef293d	-0.116777875
171	0xbd2489c3	-0.040170442
172	0xbf0766f3	-0.52891463
173	0x3e128e0f	0.14312004
174	0x3d7d29d6	0.061807476
175	0x3ed94788	0.42437387
176	0x3d37821c	0.044801816
177	0x3ddd07de	0.10792516
178	0xbd9616c7	-0.07328563
179	0xbdc5aa3c	-0.0965161
180	0xbe00a595	-0.12563165
181	0xbe7ea030	-0.24865794
182	0xbe65a37f	-0.2242565
183	0x3e813001	0.25231937
184	0x3e3c23dc	0.18373054
185	0xbe12477b	-0.1428508
186	0x3dc33ba8	0.09532863
187	0xbe4a26af	-0.19741319
188	0x3e066ab2	0.13126639
189	0xbe800564	-0.25004113
190	0xbdad0cf8	-0.08449739
191	0xbe5ee449	-0.21766771
192	0x3e43a779	0.19106854
193	0x3de5533c	0.11197516
194	0x3deba418	0.11505908
195	0xbe4b95bb	-0.19881336
196	0x3f0865bd	0.5328024
197	0x3e8395e4	0.25700295
198	0xbda4885f	-0.08033823
199	0xbe6d0e4d	-0.23149987
200	0xbe838053	-0.2568384
201	0xbe34cd93	-0.17656545
202	0x3e0b5535	0.13606723
203	0xbf189605	-0.5960391
204	0x3e5956b9	0.21224488
205	0xbda4dd2b	-0.08049997
206	0x3e9084af	0.2822623
207	0x3e82a804	0.2551881
208	0x3ec7d4c2	0.3902951
209	0xbcac6f82	-0.021049265
210	0xbcbb5506	-0.02286769
211	0x3ebb6a19	0.36604384
212	0x3d8f85af	0.0700792
213	0xbe6d3096	-0.23163065
214	0x3e07093c	0.13187116
215	0x3e92f864	0.28705132
216	0xbdac397f	-0.08409404
217	0x3db80b01	0.08986474
218	0xbd9fe765	-0.07807807
219	0x3e148a91	0.14505984
220	0xbebf6617	-0.37382576
221	0xbdcc4f84	-0.09976104
222	0x3e045548	0.12923157
223	0xbe22af11	-0.15887095
224	0x3df8fcab	0.121575676
225	0xbd89443e	-0.06702469
226	0x3ae59d8e	0.0017518268
227	0xbd37a519	-0.044835184
228	0xbe356112	-0.1771281
229	0xbe02140c	-0.1270296
230	0x3f3d5bea	0.73968375
231	0xbe436b74	-0.19083959
232	0xbe672006	-0.2257081
233	0x3e0e32a9	0.13886513
234	0x3e0a7fea	0.13525358
235	0xbc324672	-0.010881053
236	0x3dea55ee	0.11442171
237	0xbef6889d	-0.48151103
238	0x3e6a5b0e	0.22886297
239	0x3dec4a5f	0.11537623
240	0x3e6f8750	0.23391461
241	0xbb22082e	-0.0024724114
242	0x3d871d2c	0.06597361
243	0xbe7bd51b	-0.24593012
244	0x3dae2401	0.08502961
245	0xbd998462	-0.07495953
246	0xbd72f979	-0.059319947
247	0xbe2b21fe	-0.16712186
248	0xbe201f80	-0.15637016
249	0xbe07ec26	-0.13273677
250	0x3df2d7e2	0.11857583
251	0x3e6ea10c	0.23303622
252	0xbe95ea64	-0.29280388
253	0xbec18472	-0.3779636
254	0x3ea9be04	0.33152783
255	0xbe5f16b5	-0.21786006

rnn.bias_ih_l0 f4 [128]
0	0xbe80e469	-0.25174263
1	0xbf243aba	-0.6415211
2	0x3ddcbb54	0.107779175
3	0x3f26ba31	0.65127856
4	0x3e21a4d7	0.15785538
5	0x3dd7bc45	0.105339564
6	0x3cabff04	0.020995624
7	0x3d274ffb	0.04084776
8	0xbe33196f	-0.17490171
9	0x3e6a9d72	0.22911623
10	0x3e8eb2e2	0.27870852
11	0x3db76e4e	0.08956586
12	0xbed179fb	-0.40913376
13	0xbe98efc8	-0.2987044
14	0x3d62dbf0	0.05538553
15	0xbe115bbd	-0.14195152
16	0x3d6167e7	0.05503073
17	0x3c416294	0.011803288
18	0x3e921a81	0.28535846
19	0xbe7b9490	-0.24568391
20	0x3d5825d0	0.052770436
21	0x3d4b6fb0	0.04966706
22	0x3d6281aa	0.05529944
23	0x3d90592b	0.070482574
24	0xbdad753b	-0.084696256
25	0x3cb112ec	0.021615468
26	0xbe178c04	-0.14799505
27	0xbdd18e0a	-0.1023217
28	0x3d75b460	0.059986472
29	0x3e8077d7	0.2509143
30	0xbd3d5e9b	-0.0462328
31	0xbddbbc99	-0.107293315
32	0x3e276b56	0.16349539
33	0x3e20c669	0.15700687
34	0x3e68d102	0.2273598
35	0x3dbea4d9	0.09308786
36	0xbc921395	-0.017831603
37	0xbedc84f4	-0.43070185
38	0x3e1bd6a5	0.15218599
39	0x3e319f43	0.1734591
40	0xbe15030d	-0.14551945
41	0xbdd3846c	-0.10327992
42	0x3db5b06d	0.08871541
43	0xbe005984	-0.12534148
44	0x3dd6b75d	0.104841925
45	0x3d588446	0.05286052
46	0x3de6c437	0.11267894
47	0xbeacd512	-0.3375631
48	0xbd8ba3fd	-0.06818388
49	0xbe08f874	-0.13376027
50	0x3e8346b7	0.2563989
51	0xbe363916	-0.17795214
52	0xbe3209a4	-0.1738649
53	0xbe1f488e	-0.15555021
54	0xbd66f84f	-0.05638915
55	0xbbcd02f1	-0.006256454
56	0xbe70be4b	-0.23510091
57	0xbb306540	-0.0026915818
58	0xbc3f3477	-0.011670223
59	0xbda2dbe4	-0.07952097
60	0xbe016ba0	-0.12638712
61	0xbdb8940e	-0.09012614
62	0xbdb0afd0	-0.086272836
63	0xbde0b197	-0.109713726
64	0xbdd0803e	-0.1018071
65	0x3dc10468	0.094246686
66	0xbe860ca5	-0.26181522
67	0x3db55d8c	0.08855733
68	0x3e22c17a	0.15894118
69	0x3e53b921	0.2067609
70	0xbcfebf89	-0.03109719
71	0x3dcf218b	0.1011382
72	0xbebff625	-0.3749248
73	0xbe52e31e	-0.20594451
74	0x3de928a3	0.11384704
75	0x3e12c326	0.14332256
76	0xbd6b03b2	-0.05737657
77	0xbda8ce27	-0.082424454
78	0xbdd1a2d4	-0.10236135
79	0xbe38bd3d	-0.18040939
80	0xbd95722c	-0.07297167
81	0xbb6a541f	-0.0035755706
82	0x3e747c00	0.23875427
83	0xbdfc682c	-0.12324557
84	0xbc268c6e	-0.010165317
85	0xbdee4eb0	-0.11636102
86	0x3dfca383	0.12335875
87	0xbe09734a	-0.13422886
88	0x3e596348	0.21229279
89	0x3df7d500	0.121011734
90	0x3ec1a95e	0.3782453
91	0xbe8001d2	-0.2500139
92	0x3dad701d	0.084686495
93	0xbe88709b	-0.2664841
94	0x3dd73d18	0.105096996
95	0x3d99188e	0.074753866
96	0xbe250034	-0.16113359
97	0x3eaa32c9	0.3324187
98	0xbe16bbaa	-0.14720026
99	0x3d591e86	0.053007625
100	0xbe339764	-0.1753822
101	0x3da8eb1a	0.08247967
102	0x3e550fb5	0.20806773
103	0x3dc27c66	0.09496383
104	0x3de1b849	0.11021478
105	0xbe17c96b	-0.14822929
106	0xbe8fd70a	-0.2809375
107	0xbcf6d564	-0.03013105
108	0xbd4690b3	-0.04847784
109	0x3e8e768e	0.27824825
110	0x3e1bb53e	0.15205857
111	0xbe2d7adf	-0.16941403
112	0x3dc4bd9c	0.096064776
113	0x3de8307a	0.11337371
114	0x3e96501e	0.29358
115	0x3dadc450	0.08484709
116	0x3e2b1a7d	0.16709323
117	0xbdb543de	-0.08850835
118	0x3d3eba67	0.046564486
119	0x3db2c6cc	0.08729324
120	0x3e06f213	0.13178281
121	0x3e39e093	0.18152075
122	0xbe13b8c2	-0.14425948
123	0x3c76b0de	0.015056817
124	0x3ca27c2d	0.019834602
125	0xbdce06e7	-0.1005991
126	0x3f1ff205	0.6247867
127	0xbd8f3084	-0.069916755

rnn.bias_hh_l0 f4 [128]
0	0xbdf11940	-0.11772394
1	0xbf129468	-0.572577
2	0x3e24908f	0.1607077
3	0x3f2011f9	0.62527424
4	0x3e02417d	0.12720294
5	0x3e1bf60f	0.15230583
6	0x3d6d444c	0.05792646
7	0x3d99731e	0.0749266
8	0xbe25754e	-0.1615803
9	0x3e300b33	0.17191772
10	0x3eb0e15b	0.34546933
11	0x3d27fca3	0.041012418
12	0xbec8d29e	-0.39223188
13	0xbe8302de	-0.25588125
14	0x3d9c6b4a	0.07637651
15	0xbe1b1f18	-0.1514858
16	0x3e23832c	0.15968007
17	0x3dedb80c	0.1160737
18	0x3e741aec	0.23838395
19	0xbe7ce10e	-0.24695227
20	0xbbc6a0b8	-0.0060616396
21	0x3e3a5e65	0.18200071
22	0xbb98a56a	-0.004658391
23	0x3df99366	0.12186317
24	0xbe318acd	-0.17338105
25	0xba2ccf7a	-0.0006592196
26	0xbdb30d05	-0.08742718
27	0xbcb34b63	-0.021886533
28	0x3e1f309e	0.1554589
29	0x3de9aec9	0.11410291
30	0xbd1ee734	-0.03879471
31	0xbdfb03c0	-0.12256575
32	0x3e7d3418	0.24726903
33	0x3e1ab357	0.15107475
34	0x3e242f0b	0.1603357
35	0x3d955109	0.07290847
36	0x3de827af	0.11335694
37	0xbe878fb9	-0.2647684
38	0x3e2ceda0	0.16887522
39	0x3e33abf5	0.17546065
40	0xbe45caef	-0.19315694
41	0xbc308d95	-0.010775943
42	0x3d4c395e	0.049859397
43	0x3b8b82e6	0.0042575477
44	0x3c43ad9d	0.011943248
45	0x3e081c35	0.1329201
46	0x3e31f57e	0.17378804
47	0xbea1eb4e	-0.31624836
48	0xbcee76d2	-0.029109392
49	0xbd685658	-0.05672297
50	0x3e02f4ad	0.12788649
51	0xbe4999a5	-0.19687517
52	0xbe357c43	-0.17723183
53	0xbdb072a6	-0.086156175
54	0xbd1c46e4	-0.038153544
55	0x3bd9c1bf	0.006645411
56	0xbe4bf76b	-0.19918601
57	0xbd2e4123	-0.042542588
58	0x3da121b6	0.07867758
59	0xbdd37859	-0.10325689
60	0xbc83c35e	-0.01608437
61	0xbe706252	-0.23475006
62	0xbe12a39a	-0.14320222
63	0xbdcf4e8c	-0.101224035
64	0xbc45178f	-0.012029543
65	0x3d680b3a	0.05665133
66	0xbe97881d	-0.29596034
67	0x3d9c3d25	0.0762885
68	0x3d10841c	0.03528224
69	0x3e7ff26e	0.24994823
70	0xbd46e13f	-0.048554655
71	0xbbcd1c21	-0.0062594567
72	0xbe994e0d	-0.2994236
73	0xbe4a4a1a	-0.1975483
74	0xbca05bcf	-0.019575028
75	0x3d8d34ed	0.068948604
76	0xbc90d2ad	-0.017678583
77	0xbdd97fee	-0.10620104
78	0xbdbad2d7	-0.09122246
79	0xbe2f1ad7	-0.17100082
80	0x3d0b7f45	0.03405692
81	0x3d85029e	0.0649464
82	0x3e623077	0.220888
83	0xbd616353	-0.055026364
84	0xbdc1e494	-0.09467426
85	0xbe166336	-0.14686283
86	0x3daec494	0.08533588
87	0xbd456d05	-0.048199672
88	0x3e631211	0.2217486
89	0x3deee690	0.1166507
90	0x3eb595a9	0.35465744
91	0xbe316d0e	-0.17326757
92	0x3ddfe54a	0.10932405
93	0xbe88cb87	-0.2671778
94	0x3e2deebf	0.16985606
95	0x3c8ef6ef	0.017451731
96	0xbd13d881	-0.036095146
97	0x3e98ceb3	0.298452
98	0xbe2d7af2	-0.16941431
99	0x3e3a1010	0.1817019
100	0xbdf9234b	-0.12164935
101	0x3cd40b2f	0.025884239
102	0x3e0fbdbe	0.14037225
103	0x3e0e042a	0.13868776
104	0x3c008e8e	0.007846488
105	0xbe168bb5	-0.14701732
106	0xbe444ffc	-0.19171137
107	0x3d1f3423	0.03886808
108	0xbe1fe4a5	-0.15614565
109	0x3e398b9b	0.18119662
110	0x3dec2921	0.11531282
111	0xbde72b9d	-0.112876154
112	0x3d8e585f	0.06950449
113	0x3e6a7c0c	0.22898883
114	0x3e5700d4	0.2099641
115	0x3cef2d0a	0.029196281
116	0x3dc280d7	0.094972305
117	0xbdfdb2b6	-0.12387602
118	0x3bea06b0	0.0071419105
119	0x3e002f69	0.12518086
120	0x3e8ff9dc	0.28120315
121	0x3e11461d	0.14186902
122	0x3ce71c18	0.028211638
123	0x3d3d709c	0.04624997
124	0xbd27daa9	-0.040980015
125	0xbdc79fe4	-0.097472936
126	0x3f081f78	0.5317302
127	0x3c2219c9	0.009893843

fc.weight f4 [54, 128]
0	0xbe1309d1	-0.14359213
1	0xbd084239	-0.03326628
2	0xbe48b8ec	-0.19601792
3	0x3f72b088	0.94800615
4	0xbece49f5	-0.402908
5	0xbe127c17	-0.14305149
6	0x3eecc272	0.462421
7	0xbe5cb22f	-0.21552347
8	0x3d501593	0.050801825
9	0x3f5709d9	0.839994
10	0xbe699cfc	-0.22813791
11	0xbda68441	-0.08130694
12	0xbec1a7ee	-0.37823433
13	0x3ded8577	0.11597722
14	0x3f85cfc4	1.045403
15	0x3e498c3d	0.19682403
16	0xbe3518c7	-0.17685233
17	0x3e548f04	0.20757681
18	0x3e71be7c	0.2360782
19	0x3db281f3	0.08716192
20	0xbe5fa2d7	-0.21839462
21	0x3e607c10	0.21922326
22	0xbe09a3f9	-0.13441457
23	0x3e9296b1	0.28630593
24	0xbde9b7b5	-0.114119925
25	0x3e37eced	0.17961474
26	0xbe801695	-0.2501723
27	0xbe396f8b	-0.18108957
28	0x3f284192	0.6572505
29	0xbe618bc7	-0.22025977
30	0x3e2b0aa1	0.16703273
31	0xbebf4129	-0.373544
32	0x3ee47cb5	0.44626394
33	0xbf0a621f	-0.5405597
34	0xbdd960c8	-0.10614163
35	0x3ed7fe9b	0.42186436
36	0x3d39e65f	0.045385715
37	0x3c959985	0.01826168
38	0x3dc43d62	0.0958202
39	0x3e12032b	0.14259021
40	0xbedce24f	-0.4314141
41	0xbe3859e2	-0.18003038
42	0x3d905651	0.070477135
43	0xbdfe2ca1	-0.12410856
44	0x3eb698ea	0.3566354
45	0x3f13134f	0.5745134
46	0xbe3dd9ae	-0.1854007
47	0x3e004ded	0.12529726
48	0xbee6e8e3	-0.45099553
49	0xbe2a8ce5	-0.1665531
50	0xbf1f65e7	-0.62264866
51	0xbecb0fb5	-0.3966042
52	0x3e7d0863	0.2471023
53	0xbe32fa1b	-0.1747822
54	0xbeabeade	-0.33577627
55	0xbe4d3aca	-0.20041957
56	0xbe753f63	-0.23949961
57	0xbe7ae088	-0.24499714
58	0xbd570cff	-0.05250263
59	0x3e9cb410	0.30606127
60	0x3ea651ef	0.32484385
61	0xbe5ce044	-0.21569926
62	0xbd5ce44c	-0.05392866
63	0x3d541b8d	0.051784087
64	0x3e86ea62	0.26350695
65	0xbea4f79c	-0.3222016
66	0xbf1cc304	-0.6123507
67	0xbea36990	-0.31916475
68	0x3e990301	0.29885104
69	0xbf6d14d7	-0.92609924
70	0x3cd3133b	0.025766006
71	0xbeb09f8d	-0.34496728
72	0xbe62f8d3	-0.22165231
73	0xbe262892	-0.16226414
74	0xbe243c95	-0.16038735
75	0x3ea05894	0.3131758
76	0x3ed3d1c5	0.4137098
77	0xbcd13e87	-0.02554251
78	0x3e71fd4a	0.23631778
79	0xbf1ed413	-0.6204235
80	0x3c1a96f5	0.009435405
81	0xbeb86ef5	-0.36022153
82	0x3f4a96e2	0.7913648
83	0xbe7a86f5	-0.24465545
84	0xbf1d0c0b	-0.613465
85	0xbe2a3667	-0.16622315
86	0x3e86616d	0.26246205
87	0xbef1cef6	-0.4722821
88	0x3f5aa3ea	0.85406363
89	0x3e8a05b6	0.26957482
90	0x3f1a9d60	0.60396385
91	0xbe9161a9	-0.2839482
92	0x3ec4bf40	0.38427162
93	0xbea73247	-0.32655546
94	0x3ee31e5a	0.44359094
95	0x3ef86d51	0.48520902
96	0x3ef7ab61	0.4837294
97	0x3e4d6cf5	0.20061095
98	0xbdc2f982	-0.09520246
99	0x3e04e3de	0.1297755
100	0x3ee01da2	0.43772608
101	0xbd7b082d	-0.061287094
102	0x3e66fb8c	0.22556895
103	0xbed95f96	-0.4245574
104	0x3e250671	0.16115738
105	0x3ee7c8b5	0.45270315
106	0xbf02b6c5	-0.51060134
107	0x3ed21f6c	0.41039598
108	0xbe7b3a82	-0.24534038
109	0xbea9c8d5	-0.33161035
110	0xbd88d416	-0.06681077
111	0xbdb1374e	-0.08653127
112	0x3e9efaa7	0.31050608
113	0x3e6dc34c	0.23219031
114	0xbeaab7cf	-0.3334336
115	0xbd7d310c	-0.061814353
116	0x3e9bb791	0.30413488
117	0x3ec92c23	0.39291486
118	0x38a2f407	7.7702156e-05
119	0x3ef14ab5	0.4712731
120	0x3deba409	0.115058966
121	0xbda37df3	-0.07983007
122	0x3db4f89f	0.08836483
123	0x3e207d94	0.15672904
124	0xbeeb3d03	-0.45944986
125	0x3dfc0543	0.12305691
126	0x3d54b912	0.05193431
127	0x3eb8911e	0.36048216
128	0x3e7d63a4	0.24745041
129	0x3eed8324	0.46389115
130	0xbcf5b315	-0.02999262
131	0xbf74cda3	-0.95626277
132	0x3d5b13fe	0.053485863
133	0xbe250356	-0.16114554
134	0xbf148ce9	-0.5802751
135	0xbf12a793	-0.5728695
136	0xbf17c324	-0.59282136
137	0xbec8ad38	-0.39194655
138	0xbc893faf	-0.016754
139	0x3e9882cd	0.29787293
140	0xbdc8439f	-0.09778523
141	0xbccce4bb	-0.025011411
142	0xbe2af336	-0.1669434
143	0x3f1a3d89	0.60250145
144	0xbdeb5b3a	-0.114920095
145	0x3e110b1e	0.14164397
146	0x3d81df91	0.0634147
147	0xbebe9df4	-0.37229884
148	0xbe7ed326	-0.24885234
149	0x3ee41179	0.4454458
150	0xbe9f89c0	-0.31159782
151	0x3ddfd214	0.10928741
152	0x3c2bf44f	0.010495259
153	0xbedb32d5	-0.4281222
154	0xbdd23307	-0.10263639
155	0x3e83aa86	0.25716037
156	0x3ed39e6f	0.41331813
157	0x3c921d5b	0.017836263
158	0xbe4385a0	-0.19093943
159	0x3efc83d7	0.49319336
160	0xbd81bb03	-0.06334498
161	0xbe76e0e7	-0.24109231
162	0x3e93e945	0.28888908
163	0xbf02b099	-0.51050717
164	0xbe5bc7da	-0.21462956
165	0x3e93c4f2	0.28861195
166	0x3e51ca34	0.2048729
167	0xbe57ed3d	-0.21086593
168	0xbccbc405	-0.024873743
169	0x3f2468fb	0.6422269
170	0x3eaadf16	0.33373326
171	0xbe06ef0f	-0.13177131
172	0xbe2ac511	-0.16676737
173	0xbe6ecddc	-0.23320717
174	0x3d8eacf8	0.06966585
175	0x3eea9d3a	0.4582308
176	0x3dfe3b77	0.12413686
177	0xbd5cf1f4	-0.053941682
178	0x3f3dbc02	0.74115
179	0x3c339ad4	0.010962207
180	0x3db4f636	0.088360235
181	0xbdcb7a7a	-0.0993547
182	0x3e15dd5b	0.14635222
183	0xbdeaef89	-0.11471469
184	0x3e722c58	0.23649728
185	0x3ef6863e	0.48149294
186	0x3f3c855b	0.73640984
187	0x3e039196	0.12848505
188	0x3dba304b	0.090912424
189	0xbe034d1e	-0.12822387
190	0x3e2431c1	0.16034605
191	0x3daf3993	0.08555903
192	0x3cdfec58	0.027334377
193	0xbd8ef95c	-0.06981155
194	0xbd7167a9	-0.05893675
195	0x3ddb070b	0.10694703
196	0xbe59feaf	-0.2128856
197	0x3e941767	0.28924105
198	0xbe2c5897	-0.1683067
199	0x3f36e377	0.71440834
200	0xbd89f208	-0.06735617
201	0xbe15d6b9	-0.14632691
202	0xbe9d99e9	-0.30781487
203	0xbd4641c8	-0.048402578
204	0x3dfd8918	0.12379664
205	0xbe3f14e2	-0.1866031
206	0xbdff44cc	-0.12464294
207	0x3f363cad	0.71186334
208	0xbf36f95d	-0.7147425
209	0xbe2be022	-0.16784719
210	0xbdae8ada	-0.085225776
211	0x3e15f932	0.14645842
212	0xbec03f1b	-0.37548146
213	0x3d4c2a96	0.0498453
214	0xbea520ee	-0.32251686
215	0xbe9ccbd1	-0.3062425
216	0xbe8a51b8	-0.2701547
217	0xbed9b623	-0.42521772
218	0x3ea89c41	0.32931712
219	0x3dbbcaa3	0.09169509
220	0xbef261bc	-0.4734019
221	0x3e11d4cb	0.1424133
222	0xbd3f7827	-0.046745446
223	0xbd7fefb0	-0.062484443
224	0xbed0bde8	-0.40769887
225	0x3e89edcb	0.26939234
226	0xbe0e4292	-0.13892582
227	0xbe41618b	-0.18884866
228	0xbde78639	-0.11304898
229	0xbbaabc26	-0.0052104173
230	0xbdaca438	-0.0842976
231	0xbc1dfc3c	-0.009642657
232	0x3dee8ac0	0.11647558
233	0xbde80469	-0.11328966
234	0x3dd4002c	0.10351595
235	0x3dd8aaa1	0.1057942
236	0xbdcf7ebe	-0.10131596
237	0xbda392ad	-0.079869606
238	0x3dd22349	0.10260636
239	0x3bd05806	0.0063581495
240	0xbe9eae92	-0.30992562
241	0x3ea32928	0.31867337
242	0x3e8ba828	0.2727673
243	0x3e409985	0.18808563
244	0x3e3d86d5	0.18508466
245	0xbec8d69d	-0.39226237
246	0x3ea55a88	0.32295632
247	0x3f0beb97	0.54656357
248	0xbeaa5a32	-0.3327194
249	0x3f049e51	0.5180407
250	0x3d47c652	0.048773117
251	0x3dc78fe6	0.09744243
252	0xbeafbd91	-0.34324315
253	0xbd375e95	-0.044767935
254	0xbde8cf64	-0.113676816
255	0x3eab4a47	0.33455107

fc.bias f4 [54]
0	0x3e0a995d	0.13535066
1	0xbe3abeb7	-0.18236814
2	0x3c8d8ec0	0.017279983
3	0xbdbe4a2a	-0.092914894
4	0x3e6cc650	0.23122525
5	0xbe7de180	-0.24793053
6	0x3e399e6f	0.18126844
7	0x3e41447b	0.1887378
8	0x3e254122	0.16138127
9	0xbeb8954e	-0.3605141
10	0x3df91efc	0.12164113
11	0x3e8d0a87	0.27547094
12	0x3dbcc500	0.09217262
13	0xbe258834	-0.16165239
14	0x3ec77053	0.38952884
15	0xbd803e17	-0.06261843
16	0xbea70f41	-0.32628825
17	0x3d15b30a	0.036547698
18	0x3e750eef	0.23931478
19	0xbd8e8b63	-0.0696018
20	0xbd6d5692	-0.057943888
21	0x3e62657a	0.22109023
22	0xbe60d8eb	-0.21957748
23	0xbef4bcf4	-0.4780041
24	0xbe24c3ce	-0.16090319
25	0xbdffef30	-0.12496793
26	0xbf71bb99	-0.94426876
27	0xbf69ffcc	-0.9140594
28	0xbf752cd0	-0.95771503
29	0xbf81bd2f	-1.0135859
30	0xbf7a846a	-0.978583
31	0xbf8254c2	-1.0182116
32	0xbf7e1503	-0.9925081
33	0xbf5ea77b	-0.86974305
34	0xbf70bec4	-0.94041085
35	0xbf52215e	-0.82082164
36	0xbf6625fa	-0.899017
37	0xbf6cbf00	-0.9247894
38	0xbf4d75ad	-0.80257684
39	0xbf6b8c0e	-0.9201058
40	0xbf704bd1	-0.93865687
41	0xbf545516	-0.8294233
42	0xbf8697f5	-1.0515124
43	0xbf694e09	-0.911347
44	0xbf68b7f9	-0.9090572
45	0xbf6e56c3	-0.9310114
46	0xbf70054b	-0.93758076
47	0xbf755fb9	-0.95849186
48	0xbf502a11	-0.8131419
49	0xbf667f9b	-0.9003846
50	0xbf7ca799	-0.98693234
51	0xbf6844d8	-0.9073005
52	0xbf80c8d6	-1.006129
53	0xbcd4ec54	-0.025991596
