神经网络作业/A4/encoder.pth (torch, 375373 bytes, 6 tensors)

0.weight f4 [32, 3, 3, 3]
000000 43 bf a6 bd 92 57 4f 3c fc 2e 82 bd 25 ef 04 3e
       -0.08141949 0.012655156 -0.06356618 0.12981851
000010 4d 1c e2 bd ab bf 43 3e 63 f6 74 bd e9 57 4f be
       -0.11040554 0.19116084 -0.059805285 -0.20248379
000020 63 6f bd bd aa bf 16 3d 0f cc 34 bd 3b 16 ef 3d
       -0.09249761 0.03680388 -0.044139918 0.11674162
000030 08 00 12 be 3a 81 0f bd 87 1e bd 3b bc e1 36 bc
       -0.14257824 -0.03503535 0.0057714614 -0.011162218
000040 36 11 43 be 74 e3 2a 3e 7d f2 68 bd 1b 63 0d 3e
       -0.19049534 0.16688329 -0.05687188 0.13807337
000050 7b 7a 51 3e 48 96 c0 3d 8f 13 46 3e 48 f1 99 3e
       0.20456879 0.09403664 0.19343399 0.30066895
000060 83 dd 2c bd d5 11 85 3d 12 89 a4 bb fb ff fb 3d
       -0.042203438 0.06497542 -0.005021223 0.12304684
000070 1d 7f 0a 3e 50 b7 4a be 24 80 19 3e 5b 4f 0a 3e
       0.13525052 -0.1979649 0.14990288 0.13506834
000080 0a e8 e1 3d eb 8e 94 3d 0a b2 49 3e 4d 28 02 bb
       0.11030586 0.07253822 0.19696823 -0.0019860447
000090 ca 9e 36 be dd f6 a6 bd 57 c9 26 be 5e 36 43 bc
       -0.1783401 -0.08152554 -0.16287743 -0.011914818
0000a0 ae 9a 76 bc a9 c3 ca bd e9 d5 0f bd fd 88 44 3e
       -0.015051527 -0.099006005 -0.03511611 0.19192882
0000b0 d2 e8 8b bc 53 5d 85 bc b3 c2 8b bd bc 0f 09 bc
       -0.01707879 -0.016279852 -0.06824245 -0.008365568
0000c0 87 b4 13 3e 88 01 02 3e fc 17 7d 3d dc 92 d9 3c
       0.14424334 0.12695897 0.06179045 0.026559286
0000d0 93 37 40 3d 97 e6 81 3d 88 74 4d 3d 7f bc 01 be
       0.046928 0.0634281 0.05015996 -0.12669562
0000e0 11 86 8c bd f8 12 24 3e 74 5a a6 3b d2 0a fa bd
       -0.06861509 0.16022861 0.005076701 -0.12209095
0000f0 c3 98 12 3d f0 f4 75 3e cf 63 09 be ba 0b 7c bd
       0.035790216 0.24019217 -0.1341698 -0.06153462
000100 7d cd 1a bd e1 35 32 3d 89 f4 fc bc 47 c8 98 bc
       -0.037793625 0.043508414 -0.030878322 -0.018650187
000110 af 07 1c be 14 a7 e5 3d 01 5c 83 3e bc e6 20 3e
       -0.15237306 0.11213508 0.2565613 0.15713018
000120 16 80 af bd e1 40 07 be 0d 2f ed 3d 42 e1 3d 3c
       -0.08569352 -0.13208343 0.1158124 0.01158935
000130 9f bf 97 3d a9 fc 15 be d8 2c 55 3c b7 db 65 3e
       0.07409596 -0.14647163 0.01301118 0.22447096
000140 29 45 08 3e 8b 35 25 3b 0c ec c0 3c 24 eb ce bc
       0.13307633 0.0025208916 0.023550056 -0.025258608
000150 b4 c6 01 be 6c b7 c5 bd 8f 3b fe bd 6e 1d 22 3e
       -0.12673455 -0.096541256 -0.12413704 0.15831539
000160 25 cf ec 3d 13 14 ac 3d c4 dd 10 be 36 73 16 3e
       0.11562947 0.08402266 -0.14147097 0.14692387
000170 e4 a3 82 3d 55 f4 04 3e 2c 7e a3 bd 42 eb 52 3d
       0.06378916 0.1298383 -0.0798305 0.05149389
000180 25 cf 4e 3e 5c fe 1f 3e 7c bd 3d 3e 9a fd 36 bd
       0.20196207 0.15624374 0.18529314 -0.044675447
000190 da 9b 01 3e 0b 4b 28 be 08 2a 4b bb f0 d5 0d be
       0.12657109 -0.16434877 -0.0031000394 -0.13851142
0001a0 df 50 73 bd 99 ef 3f bd b3 69 a4 3c 89 4b 3d 3e
       -0.059403297 -0.046859358 0.020069933 0.18485846
0001b0 d4 4b b4 3d 39 b5 3c 3a 4c 1c 13 3e 77 09 c5 bd
       0.088035256 0.0007198635 0.14366263 -0.09620946
0001c0 3d 20 f9 3d 8d 53 aa 3b 2a 89 b3 bc 0f c0 0d 3d
       0.12164352 0.0051979483 -0.02191599 0.03460699
0001d0 73 c0 00 be d5 f6 8b 3c e5 69 97 3d f9 95 37 3e
       -0.12573414 0.017085472 0.07393245 0.17928304
0001e0 70 29 61 bd 6a 48 ca 3d a3 4e 63 3e 01 50 98 bd
       -0.05497116 0.09877093 0.22197966 -0.074371345
0001f0 2f 53 47 3e 7f 37 96 bd 27 fa a7 3d b1 20 ac 3d
       0.19465326 -0.07334804 0.0820201 0.08404673
000200 12 72 87 3d 07 80 20 3e fa fb 51 bd 4c c8 9a 3d
       0.06613554 0.15673839 -0.051265694 0.07557735
000210 cf cc 12 3c dd df 0b be ad d5 eb bc 30 0b b1 bd
       0.008959963 -0.13659616 -0.028788412 -0.08644712
000220 67 a1 df 3d 6f c5 30 3d 4e 36 62 3d 2e 0a 06 bd
       0.10919457 0.043157037 0.05522757 -0.03272455
000230 2d 51 2e 3d 62 ca ea bc 6a fc c5 3d 26 9c 73 3e
       0.042557884 -0.028660957 0.09667285 0.23790035
000240 5f 4d 92 3d 7c 0b 56 bd be bf a3 bd b3 11 4c 3d
       0.071436636 -0.052257046 -0.07995556 0.049821567
000250 49 07 da bd e3 cb b2 bd 29 d1 be bd 0f a0 5b bc
       -0.10645921 -0.087302946 -0.09317238 -0.01340486
000260 be db a3 3d 78 88 11 3e 38 ce ba 3d 54 56 28 3e
       0.08000897 0.14212215 0.09121364 0.16439182
000270 2b 53 c3 bd 2b 11 70 3d 9b 81 e4 bd 80 1b 04 3e
       -0.095373474 0.058610123 -0.11157533 0.12901115
000280 d3 32 c5 3d 25 6c 80 3e 88 6a f9 bd 2e b8 06 3e
       0.096288346 0.25082508 -0.12178522 0.13156196
000290 62 46 54 3e 9d 7c 11 3e 14 f5 b4 3d 56 39 a6 3e
       0.20729974 0.14207692 0.088358074 0.3246562
0002a0 3e f5 30 3e ab 1e 7b 3e 93 31 03 3e 9d 3d 22 be
       0.17281052 0.24523418 0.1281188 -0.15843816
0002b0 f7 ac 7e bd 7d a8 93 3d c4 b4 4f be 09 c8 06 be
       -0.06217667 0.07209871 -0.202838 -0.13162245
0002c0 e5 6f b2 bd 37 35 ab bd e6 26 32 3e 99 af d6 3d
       -0.087127484 -0.08359759 0.17397651 0.10482711
0002d0 1a 26 fd 3c dd 32 ca bc b4 e3 34 3e c5 86 4a be
       0.030901957 -0.024682457 0.17664987 -0.19777973
0002e0 b5 f4 23 be 53 33 23 3d 7a 25 a3 bd 5b 0c ed 3d
       -0.16011317 0.03984387 -0.079661325 0.11574622
0002f0 08 d7 5c 3e 68 2f 24 be 73 7e 0b be 67 7b 27 be
       0.21566403 -0.16033709 -0.13622455 -0.16355668
000300 98 0e c4 3d 53 cd 3e 3e 57 2b 00 be 70 4a 86 bd
       0.09573096 0.18633012 -0.12516533 -0.065571666
000310 58 bb af 3d 1c 0a d0 bd 6d f5 39 3e 6e 60 87 3d
       0.08580655 -0.10158178 0.18160029 0.066101894
000320 e0 90 19 bd 40 7d f6 3c 25 dd b3 3d b5 6c 4c bd
       -0.03749168 0.03008902 0.08782414 -0.04990836
000330 87 39 04 be 78 aa c5 3c f7 0e c5 3c bc de 83 3c
       -0.1291257 0.024129137 0.024054987 0.016097419
000340 35 13 7b bc e8 a3 06 3e 10 a0 38 bd 31 49 12 bb
       -0.0153244035 0.13148463 -0.045074522 -0.0022321458
000350 1d e1 b0 3d 9c d4 de bd fa d4 82 3d 80 64 00 bd
       0.08636687 -0.10880396 0.06388278 -0.031345844
000360 b5 0e bd 3d 43 ce d5 bd 1c 11 e9 3b 04 4d 38 3c
       0.09231321 -0.10439732 0.0071126353 0.011248831
000370 ec 12 20 be 10 4c 0f be 46 ca 87 3d 0f 7c 6b bd
       -0.15632218 -0.1399386 0.066303775 -0.05749136
000380 bd 13 ea 3d 4f ad 42 be 66 d5 c2 bd 72 51 22 be
       0.11429546 -0.19011424 -0.09513359 -0.15851381
000390 1b ed 8d 3d 8c 0e e5 bb c0 07 13 bd 3a f5 21 bd
       0.0692999 -0.0069902595 -0.035896063 -0.039540507
0003a0 bc 7b 1b be 0d 8d 5f 3d f8 2f 9d 3b f3 ff 07 be
       -0.1518392 0.054577876 0.004796978 -0.1328123
0003b0 28 4f 94 3d c9 24 3c bc f6 3d 40 be c3 03 d4 3d
       0.0724166 -0.01148338 -0.18773636 0.1035228
0003c0 34 56 c3 3d 58 d7 1a bd 5b 10 08 be d7 d5 43 bd
       0.09537926 -0.037803024 -0.13287489 -0.047811355
0003d0 b8 d9 84 bb 1a 1e 00 3e b9 c6 91 be 64 9f dd bd
       -0.0040542744 0.12511483 -0.28471926 -0.10821417
0003e0 27 bc 83 3e 42 dd 85 3d b7 5c 3d 3e 38 53 25 39
       0.25729486 0.06536342 0.18492399 0.00015766628
0003f0 58 c0 0b 3e 76 ae 85 be 4a aa a6 bb 83 f7 c0 bd
       0.13647592 -0.26109666 -0.005086218 -0.09422209

0.bias f4 [32]
000000 bc 11 1a 3e ed 6f fa 3d 22 b2 13 3e bb 97 21 3e
       0.15045828 0.122283794 0.14423421 0.15780537
000010 b3 ff 5e be c3 6e a3 bd ed 40 a5 3d 04 28 7a 3e
       -0.21777229 -0.079801105 0.08069024 0.24429327
000020 d9 db 07 be 83 4a 55 3c 7b 7e 9e 3b f4 a4 47 be
       -0.13267459 0.013018253 0.004836855 -0.19496518
000030 82 ce a8 be b2 a7 4b be 8b 44 a5 bc 8f 2e 0c be
       -0.32970053 -0.1988819 -0.020174285 -0.13689636
000040 16 d5 8b 3d 8b a5 b5 3e b1 31 7e be 74 fb cd bd
       0.06827752 0.35477862 -0.24823643 -0.100577265
000050 cc 80 9f bd 94 03 12 3e 01 77 25 3e b7 6e 82 bd
       -0.07788238 0.14259177 0.16158678 -0.063687734
000060 d0 7a b1 bb 18 ac 0f 3e 1e eb 46 be 01 38 a1 3e
       -0.0054162517 0.14030492 -0.19425628 0.3148804
000070 7d 4e ec bd f6 46 1f 3e 4f 58 99 3e 50 97 b3 3b
       -0.11538408 0.15554413 0.29950187 0.0054806843

2.weight f4 [64, 32, 3, 3]
000000 56 44 84 3d df ef 1f 3e f4 ff da 3d 3b 35 1e 3e
       0.064583465 0.15618847 0.106933504 0.15449993
000010 a6 97 f4 bc 5f cb f9 bd 16 8a 9f 3e f8 8c a0 3e
       -0.029857468 -0.12196993 0.3116004 0.3135755
000020 90 9b 0c 3e 11 c9 15 bd df f0 ec 3c 56 cf 26 bd
       0.13731217 -0.036568705 0.02892345 -0.040725075
000030 80 b6 6f 3b 73 8d 08 3e b8 6e 7a 3d 73 e5 8d bc
       0.0036577284 0.13335209 0.061140746 -0.017321324
000040 7f b4 6a 3d ed 7b 82 bc 55 12 9c bd a4 0d 1a bc
       0.05730104 -0.015928233 -0.07620684 -0.009402666
000050 6c 3b 83 bd 34 a0 81 3d b8 00 3b 3e b3 5a 8d 3d
       -0.06407818 0.063293844 0.18261993 0.06902065
000060 62 81 04 3d 13 9d a0 be 62 5f 8f be 91 70 4b bd
       0.03234995 -0.31369838 -0.2800246 -0.0496679
000070 4a cd 51 3b 45 a8 6c bd 1a 91 c4 3c d8 b1 14 bc
       0.003201323 -0.05777766 0.023994971 -0.009075604
000080 b4 5c 9f 3d 4f 41 6d bd e0 bf 43 bc a5 f3 b5 bd
       0.077813536 -0.05792361 -0.011947602 -0.08884362
000090 c4 7e a2 bd 47 c8 9a bd 17 e1 66 bd 0d 95 0c be
       -0.07934335 -0.07557731 -0.056367006 -0.13728733
0000a0 4f 1c ab bd 77 21 dd bd 5f 42 ce bc 4b 0c 0d bc
       -0.08355009 -0.107973985 -0.025178133 -0.008608888
0000b0 65 ed 35 bc eb 3d a9 3d 3f da 38 3c 26 30 b9 bc
       -0.011103963 0.08263763 0.011282503 -0.022605967
0000c0 5b 40 46 3e 62 63 93 3e 6c 1f 2a 3d 4e 5e ad 3d
       0.19360487 0.2878676 0.041533872 0.08465253
0000d0 3d c3 c6 3d 79 f5 b7 bc 1d de fd bc a8 43 86 ba
       0.097052075 -0.022455918 -0.0309897 -0.0010243552
0000e0 e5 87 1e bd d1 08 90 bd 96 bb 05 3e 05 d1 73 3d
       -0.038703818 -0.070329316 0.1305984 0.05952551
0000f0 7e ef 88 3d 50 78 93 3d fa af 9f 3d 0c c2 3b 3e
       0.066863045 0.07200682 0.07797237 0.18335742
000100 c9 30 35 3e c3 89 fb 3c 27 d0 57 3d fa 66 33 3e
       0.17694391 0.030705338 0.052688744 0.17519751
000110 dd 16 18 be 83 d0 e9 3c cf 2d 1e 3e c7 6b 74 bd
       -0.14852472 0.028541809 0.15447162 -0.059673097
000120 9f fb cd bc aa cd 1f 3c 5c fb 97 bc b0 85 34 bd
       -0.025144396 0.009753624 -0.018552475 -0.044072807
000130 ec 26 50 bb 48 41 62 3d 66 84 40 b9 ff 56 e8 3b
       -0.003176148 0.05523804 -0.00018359869 0.007090449
000140 58 26 84 ba e4 d9 72 bd 62 d0 1b 3d cd d0 e7 bd
       -0.0010082228 -0.059289828 0.038040526 -0.113191225
000150 d3 c8 6d bd 20 5a 13 3e 7f 6d 9d 3d fb c6 22 bc
       -0.05805285 0.14389849 0.076869 -0.009935136
000160 1e d4 87 bc 22 03 0f 3d 29 cd e3 3d 4f 95 fc 3d
       -0.016580638 0.034915097 0.111231156 0.12333166
000170 b7 5f 67 3c 2a b2 b4 3d 4e 61 50 3e bb 0f 9b 3d
       0.014121941 0.088230446 0.20349619 0.0757136
000180 89 09 69 3e 1a 34 7d 3e 95 7b 0a 3c 74 a3 cb 3b
       0.22757544 0.24726906 0.008452316 0.0062145535
000190 1c d4 79 3b 71 ca c9 3b 4d 7e 3a bd 87 20 db 3c
       0.0038120812 0.006158166 -0.045530606 0.026748909
0001a0 41 64 32 bb 5d db 8c bd 9d 6e 9e bd 52 7d 9c bc
       -0.00272204 -0.06877778 -0.077359416 -0.019102726
0001b0 d4 e5 88 bc a0 a2 1e bd 2b 1a 1a be 6a 81 3e 3e
       -0.016711153 -0.03872931 -0.15049045 0.18604055
0001c0 52 44 6f 3e b0 2e 91 3e 33 60 4e 3d fe 18 8d be
       0.23365906 0.28355932 0.05038471 -0.2755813
0001d0 fc 00 14 3e 10 8c 83 bc 58 1b 28 bd 9b 03 a7 bd
       0.144535 -0.016057998 -0.041041702 -0.081549846
0001e0 b5 93 ae bb 61 e8 c6 3d a7 45 44 bd c0 c0 24 3b
       -0.0053276666 0.097122915 -0.04791799 0.0025139302
0001f0 17 b9 ad 3d 67 aa cd bb a9 f4 b8 bd 92 7c 8b 3e
       0.08482569 -0.006276417 -0.0903104 0.27243477
000200 21 53 42 be f6 9f aa be 5a 62 91 3e 2f 2b 9f be
       -0.18977024 -0.33325166 0.2839535 -0.31087634
000210 78 d3 a3 3d 23 32 cd 3e ff 79 de bd ec ae 5a 3c
       0.07999319 0.40077314 -0.10863113 0.013347369
000220 69 3c 8c 3d 75 07 97 3d cf f3 63 bd 94 a3 97 bd
       0.0684746 0.07374469 -0.055652436 -0.07404247
000230 46 7c b8 bb aa ca 3a 3c 75 13 46 bc 40 3c 9e bd
       -0.005630049 0.011400858 -0.0120896 -0.077263355
000240 3d 67 d5 3d c7 99 c7 bd 31 2e fd 3c 0f 54 91 bd
       0.10420082 -0.097461276 0.030905815 -0.07096111
000250 23 4d 20 bd c1 b3 54 3d e4 05 45 bd b2 40 65 3e
       -0.039136063 0.05192924 -0.04810132 0.2238796
000260 61 83 be 3e a6 46 47 3d f9 4d 09 be c8 b9 98 3e
       0.3720961 0.04865136 -0.1340865 0.2982924
000270 7f 53 98 3d fe 9b f0 be f5 fe 6b 3e 34 f1 a1 bd
       0.074378006 -0.46994013 0.23046477 -0.07907334
000280 9f e2 88 be a7 2a b4 3d 68 13 fd bd 05 84 dd bd
       -0.26735398 0.08797198 -0.12357217 -0.10816196
000290 a9 de 0c be d3 c3 22 bd 52 d9 6c 3e 32 f0 92 3c
       -0.13756813 -0.039737534 0.23129776 0.0179368
0002a0 68 7f 84 3d 72 93 16 be ba 6b 13 be 4b cf 4b bd
       0.06469613 -0.14704683 -0.14396563 -0.049758237
0002b0 8b 33 fe bd e8 27 0f be 6a 99 12 bc 5e 6c 48 3c
       -0.12412175 -0.13980067 -0.00894771 0.012232868
0002c0 e3 44 22 bd 7d a8 08 3c f6 11 98 3d 75 0e c3 bc
       -0.039616477 0.008340952 0.07425301 -0.023810605
0002d0 61 8b a1 bc 77 fa 88 bd 2e 59 9e 3d a9 09 b1 bc
       -0.019719781 -0.066883974 0.077318534 -0.021611052
0002e0 f9 fb 02 be f5 4d c7 3c 67 03 5a bd 45 87 2a bd
       -0.12791432 0.024329165 -0.0532259 -0.04163291
0002f0 f9 8c 61 3c 6a 8c 45 3d 1b 3a 21 3e 4d 40 29 3e
       0.013766521 0.048229612 0.15744822 0.16528435
000300 c7 4b c8 3b 4f 7c 0d be 17 7b 68 bd 27 d0 28 3d
       0.006112549 -0.13816951 -0.056758013 0.041214135
000310 a7 60 f6 3d 4b 34 56 3e 00 89 26 3d 81 12 19 3d
       0.12030154 0.20918386 0.040657997 0.037371162
000320 4e 26 b2 3d 08 df 94 bd a2 10 c0 ba be 45 d0 bd
       0.08698712 -0.07269102 -0.0014653394 -0.10169552
000330 5c ba 0e bd 9b e6 ee 3d c5 d3 50 bd ee ef 8d bd
       -0.034845695 0.11665078 -0.05098321 -0.069305286
000340 90 e9 bd 3d 85 98 57 be d4 70 12 be d5 3a ac 3e
       0.09273064 -0.21054275 -0.14300853 0.33638635
000350 ec 62 44 be 40 17 15 bd 0d 2e 59 3e 87 b5 22 be
       -0.1917836 -0.036399126 0.21208973 -0.1588956
000360 30 e1 e0 ba c2 4d 38 3d b4 de 92 ba 15 ba ea bd
       -0.0017156955 0.04499603 -0.0011205287 -0.114612736
000370 2e b9 93 3e 75 17 3d 3e 1b f3 bf bb ce 38 60 3e
       0.28852218 0.1846598 -0.005857838 0.2189667
000380 8a 7a 04 3e ca 48 dc 3d 17 20 31 3e 5f fe 7c 3e
       0.1293737 0.10756071 0.17297398 0.2470641
000390 d5 7b b0 3d 06 19 a3 3e 37 81 ec 3e 08 c9 1a 3e
       0.08617369 0.3185503 0.46192333 0.1511575
0003a0 be f2 bf 3d f7 2e 0b 3e f2 54 bd bc 15 c2 4b 3d
       0.09372471 0.13592134 -0.023111794 0.049745638
0003b0 24 26 62 3d 53 f0 61 bd 34 bd fa 3c 2f e7 18 bd
       0.055212155 -0.05516083 0.030607797 -0.03732985
0003c0 ab 22 a2 3c b3 d4 4e bd 00 2d 52 3d 58 69 4d 3e
       0.019791922 -0.050495815 0.051312447 0.20059717
0003d0 55 9a 79 be 37 12 8d 3e 0b 97 15 3f 41 e7 35 bf
       -0.24375279 0.2755296 0.584336 -0.7105599
0003e0 46 01 a1 3e fb db 8b 3e 02 d6 4a be c9 0b 0a 3f
       0.31446284 0.2731627 -0.198082 0.5392423
0003f0 d5 06 72 3c 21 d0 4a bd d6 7d 9f bd c6 8d b8 bc
       0.014772137 -0.049514893 -0.07787673 -0.02252854

2.bias f4 [64]
000000 1e 97 15 bd 5c c6 8b 3d f4 ea 85 bd 01 c8 02 3e
       -0.03652107 0.068249434 -0.065389544 0.12771608
000010 f3 f3 4e bd 5c 48 bc 3d bf 6b b1 bd c7 61 d8 3d
       -0.050525617 0.09193489 -0.08663129 0.105655245
000020 31 5c 30 3b 6d d6 9f 3d 89 58 03 3e a7 69 c1 3d
       0.002691042 0.0780457 0.12826742 0.0944398
000030 4e a6 1d bd 2d 91 42 bd f1 79 d5 3d 5f 8b 30 bb
       -0.03848868 -0.04750173 0.10423649 -0.002693854
000040 84 a7 d9 3d 5d ba d8 3d 7a 5c 4a bd 9f d9 7e bd
       0.10627654 0.10582421 -0.0494046 -0.06221926
000050 21 7a 91 bd 4b 25 a3 3d 74 67 ed bc 86 f1 39 3d
       -0.07103372 0.079660974 -0.028979994 0.04539635
000060 67 ec b9 bd c6 cf 53 3d 65 f7 b4 bd 5f ca 7c 3d
       -0.09078293 0.05171182 -0.08836249 0.061716434
000070 ef 05 a8 3d ec 0e 9a 3c 86 82 66 bd 7f 06 ce 3d
       0.08204257 0.018805943 -0.05627682 0.10059833
000080 f8 19 59 3c 6e 54 a6 3d 10 9f da 3d ac 75 04 3e
       0.01325082 0.081215724 0.1067487 0.12935513
000090 c7 bd 24 3d bc 86 e3 3d 4a 31 79 3d 3a b5 cc bd
       0.04022005 0.11109683 0.06083802 -0.09995504
0000a0 24 ac 3c be 1b 0e 15 bd a5 f7 0f 3d 9f e4 1c bd
       -0.18425041 -0.036390405 0.03514828 -0.038303968
0000b0 5d 8b bd bc 77 f4 69 bc 52 f9 49 3d 37 78 e3 3d
       -0.023137743 -0.014279476 0.049310036 0.111069135
0000c0 c5 98 a2 3b 34 97 e4 3d fb 4c 7a bd b9 b5 2c bd
       0.004962059 0.11161652 -0.06110857 -0.04216549
0000d0 5d 3d b1 3c d7 2e 90 bd 97 71 e2 3c 27 22 f0 3d
       0.021635706 -0.07040184 0.027642054 0.11725264
0000e0 a4 29 48 3e 0c 7e a0 bc 1a d0 5f bc f9 e5 a8 bd
       0.19547135 -0.019591354 -0.013660455 -0.08246989
0000f0 0b 8b 3b 3e 5c 8b b7 3d 7c f2 79 bd aa 36 d4 3d
       0.1831476 0.089621276 -0.061022267 0.10361989

4.weight f4 [128, 64, 3, 3]
000000 5e c5 1a bc 93 a4 5c 3d b6 32 d9 bc c9 b8 18 3d
       -0.00944647 0.053867888 -0.026513439 0.0372856
000010 4d b1 fc 3c 48 e0 c3 3c 8f 59 05 bc 06 19 06 3e
       0.030846262 0.023910657 -0.008139028 0.13095483
000020 41 0a 6c bd 43 ff 1d 39 43 5f 8c bb 23 d4 78 3d
       -0.057626966 0.00015067779 -0.004283817 0.060749184
000030 8d c5 87 bd f3 e6 54 3d 0b b3 66 3d eb 1f d2 bb
       -0.06629477 0.051978063 0.056323092 -0.0064124963
000040 0f 45 d5 bd f5 75 89 3e 82 02 03 3b 94 36 0b 3c
       -0.104135625 0.26847807 0.0019990508 0.008496899
000050 e7 97 19 3d 46 1a 6e 3b 50 47 cc bc 04 10 3a bd
       0.03749838 0.0036331578 -0.024936348 -0.04542543
000060 54 7f 5f bc af b2 2e 3d 12 c2 8b bd 2f a9 af 3c
       -0.013641197 0.042650875 -0.06824125 0.021442978
000070 3f ce 63 3c 6d 49 c0 bc 98 fe 10 bd e2 fe 8f 3d
       0.013904153 -0.023472512 -0.03539905 0.07031037
000080 31 86 af 3d 21 4d 0a be 6a 81 3f bc b8 ab 04 3e
       0.08570517 -0.13505985 -0.01168857 0.1295613
000090 75 95 54 3b 6d 34 df bb 6f 5f 38 3c cc 9c 7b 3d
       0.0032437716 -0.0068116696 0.011253222 0.06142883
0000a0 fe 89 3a bd 7e 3e f9 3c 85 1f 3e 3d 03 bc 77 3d
       -0.045541756 0.030425306 0.046416778 0.060482036
0000b0 b6 45 77 bb 7c 4e cc 3c e8 2d 05 3c 5f 6a f6 3c
       -0.003773076 0.024939768 0.008128621 0.030080019
0000c0 35 33 0c be fb 8c 15 3d 06 a2 1b 3e da 94 d8 3c
       -0.13691409 0.036511403 0.15198526 0.026438165
0000d0 13 6d 51 3d 3b 05 d6 3d 1d 71 12 bc 87 9e b8 bc
       0.051129412 0.104502164 -0.008938101 -0.02253653
0000e0 44 1e 9d 3c c6 cd e6 bc 06 ab 36 bc ba d0 1a bd
       0.01917947 -0.028174292 -0.011149174 -0.037796713
0000f0 07 66 c5 bb 5d 31 e7 3d 36 52 3a bd 58 6f 57 bd
       -0.0060241255 0.11288712 -0.04548856 -0.05259642
000100 d8 4e c7 bd 1d 58 38 3d 8e 64 3b bd ba a7 8c bc
       -0.09731835 0.045005906 -0.045750193 -0.017169822
000110 fd e2 0f 3e 69 1e 49 bc 84 69 7f 3c 30 92 87 3e
       0.14051433 -0.012275317 0.015589122 0.2647872
000120 16 c1 6a 3b 60 c8 4e 3c f0 ed 11 3c 06 96 c9 3c
       0.0035820655 0.012621015 0.008906826 0.02460767
000130 d2 8d 2b 3b 4c 99 2a bd eb d3 01 3d 4b 16 83 3c
       0.002617706 -0.0416501 0.03169624 0.016001841
000140 00 36 55 3c 6c b4 1a bd d8 e1 96 3c a1 0d e7 3c
       0.013013363 -0.03776972 0.018418238 0.028204741
000150 01 1a c3 3c 4c ec 45 bd 11 c7 d3 3c c3 f1 18 bc
       0.02381611 -0.048321053 0.025851758 -0.009334984
000160 81 42 80 bd ac c5 62 bd 96 c4 05 3e e6 b7 51 3d
       -0.062626846 -0.055364296 0.13063273 0.05120077
000170 99 41 73 3d f4 ca 1b 3e 39 36 02 be f9 d3 83 3e
       0.05938873 0.15214139 -0.12715997 0.2574766
000180 b9 ec 02 3e 93 e6 a6 bd a8 94 b2 3e 3e 6d 02 bd
       0.12785615 -0.08149447 0.3487904 -0.031842463
000190 7e bb 93 bc b2 06 12 3d 84 e6 80 3d 18 b0 43 bd
       -0.01803374 0.035650916 0.06293967 -0.047775358
0001a0 4e d2 ab 3d 43 18 db 3c 5d 37 0d 3d 7a ac db bc
       0.08389722 0.026744967 0.034476627 -0.026815642
0001b0 73 fa 0f bd 37 ad 53 bc 53 de 99 bc e5 b2 c6 3c
       -0.035150956 -0.012919716 -0.01878277 0.024255225
0001c0 ed 6a 2e bb fe 30 9b 3a 31 8d c5 bc 70 4a ef 3d
       -0.0026614026 0.0011840162 -0.024115177 0.1168412
0001d0 b0 34 72 bd 68 f4 b2 bb 1d 78 80 bb 15 6e c7 3a
       -0.059132278 -0.0054612644 -0.0039205686 0.0015215302
0001e0 ae 32 60 3d df e5 31 bd bc f6 1f bd fd 08 6e 3d
       0.054735832 -0.043432113 -0.039053664 0.05811404
0001f0 93 8c 38 3d b9 6d d7 bd 4d c3 d2 3c 61 6d 25 3d
       0.045055937 -0.10518975 0.025727892 0.040387515
000200 0b ef 5f 3d d0 77 ea bb 72 c7 69 3d c6 9d cf 3d
       0.05467133 -0.007155396 0.05707497 0.10137515
000210 bb e2 39 bc af bc 74 bc ee 0a 46 bc 1d 54 45 bd
       -0.011345561 -0.014937564 -0.012087567 -0.04817592
000220 46 70 3c 3d 99 09 ad 3c 6b 87 30 3d 07 25 01 3d
       0.04600551 0.02112274 0.043097895 0.031529453
000230 bd 42 41 3d f0 b8 01 3d 81 7a 40 3d 85 c6 38 3d
       0.047182787 0.03167051 0.04699183 0.045111198
000240 bb 8b d0 bc ae e2 0d 3d 75 47 bf bc 3d a2 16 bc
       -0.025457254 0.034640007 -0.023349503 -0.009193954
000250 63 c9 e4 3d f3 4b 24 38 0a 1a 92 bb 94 fc 19 3e
       0.11171224 3.917138e-05 -0.0044586705 0.15037757
000260 1d 7b 03 bd 79 65 85 3c 2c 72 ec bc 71 c2 83 3d
       -0.03209983 0.016283737 -0.028863035 0.06433571
000270 fe 12 cc 3d 83 ef 4b 3d 77 75 17 3d 2b f9 27 bd
       0.0996456 0.049788963 0.036977258 -0.04100911
000280 53 aa 11 be 3e af 0c 3e ad 9a 27 3c 97 8a d5 bc
       -0.1422513 0.13738725 0.010229749 -0.026067061
000290 f3 a6 f8 3c 54 1e 34 bb 02 3b 1c 3d ba 7e d7 bc
       0.030353045 -0.0027483897 0.03814221 -0.026305545
0002a0 fa ee 3d bd a0 cb cb 3b f1 89 83 bd 56 d5 a9 bc
       -0.046370484 0.0062193424 -0.064227946 -0.02073161
0002b0 7d f3 67 3d 03 cf d2 3c 87 c1 39 bd 47 0d b6 bc
       0.056628693 0.025733477 -0.045350578 -0.022223128
0002c0 4c 00 66 bc f2 b8 b4 bb 1a d4 5b 3d 8d f4 3e 3c
       -0.014038157 -0.0055152113 0.053669073 0.011654985
0002d0 67 78 80 bc 94 e3 9e 3c a9 94 3b bc e3 2b b6 3d
       -0.015682412 0.019395627 -0.011449018 0.088950895
0002e0 20 17 b2 bd 9a 4c 54 bc 96 2a 62 3d c3 02 6f 3d
       -0.08695817 -0.012957716 0.055216394 0.058352243
0002f0 84 31 50 bd ab 8a 83 bd cf 05 d7 bd 7e b8 51 3c
       -0.05082847 -0.06422933 -0.10499155 0.012800334
000300 26 55 20 bd 32 58 b3 3d b8 9e be 3d 17 ff d8 3d
       -0.039143704 0.08757056 0.09307617 0.105955295
000310 9a ad 01 3e 64 95 f2 3c 7c e9 dd 3c 80 b1 5b 3d
       0.1266388 0.02961225 0.027088873 0.053636074
000320 de 44 1e 3c 83 7f 12 3c 77 d6 98 3d c8 93 f5 bd
       0.009659974 0.008941534 0.07462781 -0.11991078
000330 53 96 9e bc f8 28 80 3d 25 6a 9b bd aa 19 1c 3c
       -0.01935879 0.06257814 -0.07588605 0.009527603
000340 ce ad 37 3b 44 9d 28 3d 87 bf 04 3d d1 90 67 3c
       0.002802718 0.041165605 0.032409217 0.014133648
000350 79 a8 08 bd 2b 04 40 bc 4c c4 2b 3d 60 fc 79 bd
       -0.033363793 -0.011719744 0.04193525 -0.0610317
000360 66 65 bc 3c c9 ea d5 3c 2b 79 da 3a b5 38 e8 3c
       0.02299757 0.02611293 0.0016668191 0.028347353
000370 90 8a ba bb a8 10 65 bd bd 44 8c 3c 4e 62 d0 3d
       -0.0056927875 -0.055924088 0.01712262 0.10175
000380 87 c1 d2 bd 25 61 60 3d 20 94 4a bc 43 90 a6 bc
       -0.10290819 0.054780144 -0.012364417 -0.020332461
000390 27 52 ab bc c5 9f 5b bd 8c 69 64 ba 34 f8 e9 3c
       -0.020913197 -0.053619165 -0.00087132375 0.028560735
0003a0 2f d4 94 3d 35 99 eb bc e6 36 4d 3c 44 05 fc bc
       0.07267033 -0.028759578 0.012525296 -0.03076423
0003b0 57 e8 03 bb 01 5c fd 3c 20 35 e3 bc 2c 59 12 bd
       -0.00201275 0.03092766 -0.027735293 -0.035729572
0003c0 06 61 32 bd e3 a4 5a 3c 43 5e 1c bd df be 43 bc
       -0.04354956 0.013344976 -0.038175832 -0.011947363
0003d0 5e eb 6e 3c 78 8a a5 bc fb 11 30 bd ce f3 f0 3c
       0.014582483 -0.020207629 -0.042985898 0.02941313
0003e0 40 aa 45 bd 2d 9f 4e bd 06 be 1c 3e d3 66 b3 bc
       -0.048258066 -0.05044477 0.15306863 -0.021899616
0003f0 82 fc c3 bc 17 84 ee bc 0b 83 45 3d 74 cd 3c bd
       -0.023924116 -0.02911572 0.048220675 -0.046094373

4.bias f4 [128]
000000 4d 95 d4 3d 20 b8 c8 bd 8a 85 db bc cb 39 99 bd
       0.10380039 -0.09800744 -0.026797075 -0.07481726
000010 ac f4 65 3c f6 71 d1 3c 9c c2 04 3e 33 4c 50 3d
       0.014035385 0.025567036 0.12964863 0.05085392
000020 71 9b cd bd eb 39 b9 3c 80 d8 c4 3c 69 5c d7 3d
       -0.10039414 0.022610625 0.024029016 0.10515673
000030 b2 ca 35 ba 73 73 90 bd 15 9b fb 3d 06 df 67 bd
       -0.0006934806 -0.0705327 0.12285439 -0.056609176
000040 2b db c3 3d 86 e2 6f 3b d7 49 e8 3d c7 74 00 3d
       0.09563287 0.0036603524 0.11342209 0.031361368
000050 3f 29 9e 3d 6c 53 b1 3d e3 18 b0 3d bd 61 5b bd
       0.07722711 0.086584896 0.08598497 -0.053560007
000060 a5 72 a2 bc e6 af ab bc c5 d3 bc bd 0b a9 4f bc
       -0.019830057 -0.020957898 -0.09220079 -0.01267458
000070 99 fd 2f 3d 12 be e9 bc 23 02 bd 3d 86 93 7a bd
       0.04296646 -0.028533015 0.09228923 -0.061175846
000080 50 d9 ef 3d 42 1e 5d 3c b8 7e a0 bd 7f 31 3a bd
       0.11711371 0.013495984 -0.0783667 -0.04545736
000090 26 4d 6a bd a7 40 b3 3c a5 c4 c4 3d 2d c5 b3 bc
       -0.05720248 0.021881415 0.096078195 -0.021944607
0000a0 37 76 a1 3c 9e 21 c9 3b b6 dc b6 3d d7 6a 29 bc
       0.01970969 0.0061380407 0.08928816 -0.010340414
0000b0 2d 6f 4a bd 94 cb 76 bd e8 1e ab bd 6d 26 0a 3d
       -0.04942243 -0.06025274 -0.08355504 0.033728052
0000c0 7f a9 e7 3c 03 da 80 3c 89 e7 21 bc 2f 1e 3b 3d
       0.028279064 0.015728956 -0.009881862 0.045683082
0000d0 60 0f fa 3d 8b 5d 7d bc 43 ef c0 bb c8 89 1a 3d
       0.12209964 -0.015464197 -0.005887897 0.037729055
0000e0 48 19 96 3c 54 c6 d5 3d 44 f4 d3 3d ef f1 b6 3d
       0.018322602 0.10438219 0.10349324 0.08932864
0000f0 b4 1b e8 3c 94 47 cf 3d 69 69 b5 3d 6f d0 bd 3d
       0.028333522 0.10121074 0.08857996 0.09268271
000100 a1 54 bb 3c 0d 37 58 bd 16 1c 50 3d e1 1d 3b bd
       0.022867503 -0.052786876 0.050808035 -0.04568279
000110 d4 59 a2 3d 63 23 3a bd 8f 14 b7 3d d4 73 b2 bd
       0.079272896 -0.045443904 0.08939468 -0.08713499
000120 57 ab 90 bd 63 4d 21 bc 47 ad c0 3d f7 32 cf 3d
       -0.070639305 -0.009845111 0.0940805 0.10117143
000130 12 06 7b 3c 90 12 ca 3d ef 7d 72 bd d1 14 47 3a
       0.0153212715 0.09866822 -0.05920213 0.00075943494
000140 b8 92 58 3c 90 14 54 bd dc 4f 57 bd 1d 27 64 bc
       0.013218574 -0.051777422 -0.052566394 -0.013925341
000150 ae fa eb 3d af 49 7a bd 6d e9 32 3d dc de a0 bd
       0.11522423 -0.061105426 0.043679643 -0.07855007
000160 c6 ec f3 bc ab a2 eb bc 63 79 a8 bd 5f 06 18 bb
       -0.029775988 -0.02876409 -0.08226278 -0.0023197157
000170 45 d7 c7 bd e3 9b 86 3d be 89 d1 bb 5d 93 cb 3c
       -0.09757856 0.06572702 -0.006394594 0.024850542
000180 93 00 d2 bc 7a 5f 18 bd 41 87 4f 3d 64 95 d1 bd
       -0.02563504 -0.03720043 0.050666098 -0.10233572
000190 d8 f8 9f bc 34 29 58 bd 08 61 90 bc 9f b1 bf 3d
       -0.019527838 -0.05277367 -0.017624393 0.093600504
0001a0 08 5d 17 bd 8c 20 c7 3d b3 11 f1 bb b2 a6 cd 3d
       -0.036953956 0.09723005 -0.0073568462 0.1004156
0001b0 cb e1 31 3d a5 7e f5 3b 72 30 50 bc 8b c7 2e bd
       0.043428224 0.007491904 -0.012706863 -0.042670768
0001c0 ea 28 c6 bd 07 6f fd bc 9d f8 ee bc d0 1a db 3d
       -0.096757725 -0.030936731 -0.029171282 0.106984735
0001d0 a8 9c c6 3d ac b9 9b 3d 02 02 cb bc e4 6e d4 3d
       0.096978486 0.076037735 -0.02478123 0.10372713
0001e0 80 f7 d0 bd 5e 5f d0 3d 57 0e c9 bc 47 2a bd bd
       -0.10203457 0.1017444 -0.02454297 -0.092365794
0001f0 64 c2 ee bc 14 72 d9 3d 4e c1 ac bd e4 c2 21 3d
       -0.029145427 0.10617462 -0.084353074 0.039492503
